benchmark-nn/keywords-2d-i8/ei-benchmark-keywords-2d-nn-classifier-tensorflow-lite-int8-quantized-model.lite (tflite, 8928 bytes, 3 tensors)

sequential/y_pred/MatMul;StatefulPartitionedCall/sequential/y_pred/MatMul i1 [3, 832] scale=0.009206859 zero_point=0
-0.33144695 -0.064448014 -0.17493033 0.027620578 0.6813076 0.0 0.15651661 0.41430867
0.21175776 0.69051445 -0.1841372 0.3406538 0.19334404 0.3406538 0.33144695 0.055241156
0.64448017 0.10127545 -0.10127545 0.2946195 -0.35906753 -0.4511361 -0.064448014 -0.3406538
-0.27620578 -0.24858521 -0.4327224 0.055241156 0.22096463 -0.23017149 -0.24858521 -0.064448014
-0.46034297 -0.7457556 0.3406538 -0.13810289 -0.69972134 -0.28541264 -0.1841372 -0.25779206
-0.1841372 -0.27620578 0.41430867 -0.4051018 -0.49717042 -0.19334404 -0.37748122 0.0460343
-0.6076527 -0.2946195 0.17493033 -0.32224008 0.073654875 -0.119689174 -0.23017149 0.10127545
-0.19334404 -0.42351553 0.0 -0.38668808 -0.055241156 0.3406538 0.32224008 0.018413719
0.12889603 -0.19334404 0.009206859 -0.0920686 0.5155841 0.055241156 -0.35906753 0.24858521
0.41430867 0.44192925 -0.34986067 0.0460343 0.073654875 0.49717042 0.15651661 0.11048231
0.46034297 0.26699892 -0.0920686 0.2946195 -0.23937835 -0.027620578 0.17493033 0.23937835
-0.14730975 -0.4327224 -0.23017149 0.119689174 -0.33144695 0.59844583 -0.13810289 -0.0460343
-0.064448014 -0.35906753 0.4327224 0.073654875 -0.064448014 -0.38668808 -0.16572347 0.39589494
-0.119689174 -0.26699892 0.0460343 0.027620578 -0.16572347 -0.46954983 -0.119689174 0.073654875
-0.25779206 0.0920686 0.0920686 -0.31303322 -0.27620578 -0.58003217 -0.6352733 0.13810289
0.018413719 -0.41430867 0.32224008 -0.4327224 -0.25779206 -0.4327224 0.11048231 -0.12889603
-0.19334404 -0.11048231 -0.46954983 -0.009206859 0.42351553 0.027620578 -0.61685956 0.38668808
0.39589494 -0.26699892 -0.073654875 0.036827438 0.0 -0.11048231 0.08286174 0.0460343
0.64448017 -0.10127545 0.073654875 0.49717042 -0.19334404 -0.34986067 -0.17493033 -0.34986067
-0.119689174 0.30382636 -0.2946195 0.48796356 -0.59844583 -0.21175776 0.14730975 0.055241156
0.23937835 -0.32224008 0.0920686 -0.055241156 -0.27620578 -0.12889603 0.08286174 0.27620578
-0.5432047 -0.23937835 -0.064448014 -0.018413719 0.3682744 0.0 -0.23017149 0.0920686
0.018413719 0.018413719 0.15651661 -0.53399783 -0.37748122 0.25779206 -0.89306533 -0.34986067
0.055241156 0.0460343 -0.10127545 -0.32224008 -0.33144695 -0.11048231 0.19334404 0.073654875
-0.1841372 -0.15651661 -0.64448017 0.073654875 0.28541264 -0.009206859 -0.31303322 0.55241156
0.32224008 -0.119689174 -0.16572347 -0.13810289 -0.036827438 -0.69051445 0.2946195 0.0920686
0.35906753 0.3682744 -0.27620578 0.23937835 -0.44192925 0.0460343 -0.064448014 -0.3682744
0.21175776 0.19334404 -0.35906753 -0.009206859 -0.46034297 -0.7273419 0.15651661 0.0
-0.33144695 -0.14730975 -0.12889603 0.036827438 0.036827438 0.064448014 -0.42351553 -0.1841372
-0.48796356 -0.35906753 -0.19334404 0.0 -0.59844583 -0.42351553 -0.46954983 0.064448014
-0.35906753 -0.35906753 0.119689174 -0.22096463 0.2025509 0.0 -0.46954983 -0.3682744
0.12889603 0.22096463 0.38668808 -0.26699892 0.064448014 -0.055241156 -0.4787567 0.27620578
00000000: dcf9 ed03 4a00 112d 174b ec25 1525 2406
00000010: 460b f520 d9cf f9db e2e5 d106 18e7 e5f9
00000020: ceaf 25f1 b4e1 ece4 ece2 2dd4 caeb d705
00000030: bee0 13dd 08f3 e70b ebd2 00d6 fa25 2302
00000040: 0eeb 01f6 3806 d91b 2d30 da05 0836 110c
00000050: 321d f620 e6fd 131a f0d1 e70d dc41 f1fb
00000060: f9d9 2f08 f9d6 ee2b f3e3 0503 eecd f308
00000070: e40a 0ade e2c1 bb0f 02d3 23d1 e4d1 0cf2
00000080: ebf4 cdff 2e03 bd2a 2be3 f804 00f4 0905
00000090: 46f5 0836 ebda edda f321 e035 bfe9 1006
000000a0: 1add 0afa e2f2 091e c5e6 f9fe 2800 e70a
000000b0: 0202 11c6 d71c 9fda 0605 f5dd dcf4 1508
000000c0: ecef ba08 1fff de3c 23f3 eef1 fcb5 200a
000000d0: 2728 e21a d005 f9d8 1715 d9ff ceb1 1100
000000e0: dcf0 f204 0407 d2ec cbd9 eb00 bfd2 cd07
000000f0: d9d9 0de8 1600 cdd8 0e18 2ae3 07fa cc1e

sequential/conv2d/Conv2D;StatefulPartitionedCall/sequential/conv2d/Conv2D i1 [9, 3, 3, 1]
-127 -6 24 45 49 10 78 -18
-46 64 -56 5 76 19 -9 -127
64 12 -56 95 -53 -17 47 -11
-17 127 -15 -127 -63 -55 -107 -13
29 -122 2 -31 6 -34 -5 32
-127 -18 1 -61 34 99 8 -21
94 -7 -127 90 -37 -99 -74 43
30 112 -127 -90 -22 121 24 -19
-111 60 -127 -73 1 -75 9 108
110 -127 40 90 -67 90 20 -8
48
00000000: 81fa 182d 310a 4eee d240 c805 4c13 f781
00000010: 400c c85f cbef 2ff5 ef7f f181 c1c9 95f3
00000020: 1d86 02e1 06de fb20 81ee 01c3 2263 08eb
00000030: 5ef9 815a db9d b62b 1e70 81a6 ea79 18ed
00000040: 913c 81b7 01b5 096c 6e81 285a bd5a 14f8
00000050: 30

sequential/conv2d_1/Conv2D;StatefulPartitionedCall/sequential/conv2d_1/Conv2D i1 [16, 3, 3, 9]
2 -14 27 72 -73 -117 -22 31
-92 -92 -11 13 -92 -9 -28 -6
-81 41 34 -26 9 1 48 2
8 -54 36 -35 -65 -21 13 -95
-88 -28 37 -120 -67 -97 -10 -127
51 -14 -63 -37 15 -9 -15 34
26 -9 -8 16 -92 5 37 23
25 -1 -120 79 12 -50 -49 -40
6 -56 -64 -7 -7 15 -44 -23
6 25 82 13 48 23 12 -75
-55 -20 35 -127 -11 11 -101 58
42 -118 -42 2 35 -110 -108 -32
-83 -41 21 -1 -9 34 -90 -11
38 -2 -110 -52 63 47 -60 -8
-75 -56 34 -13 -54 -16 6 6
-93 -79 -54 13 -30 -29 -34 30
4 -68 11 48 49 -54 10 16
10 -43 -19 -42 -55 2 -18 -66
-40 -12 -62 -24 -26 -124 -24 35
-21 -11 14 52 -78 -55 10 24
-7 20 -55 -70 41 -18 19 49
-34 -72 22 -72 -13 37 59 25
-72 19 14 -12 -18 -127 -36 -21
0 -2 -63 12 4 -72 -65 32
22 10 8 -40 -92 37 -33 -42
3 25 -1 -91 -12 13 -20 -23
-54 -40 -37 -4 16 -88 -13 12
-28 25 80 1 -5 55 -44 -69
31 40 -123 9 4 -3 -41 -30
8 25 -40 3 -9 -14 74 19
-19 1 39 -4 -31 -20 7 -42
50 -70 19 -117 -32 -9 18 12
00000000: 02f2 1b48 b78b ea1f a4a4 f50d a4f7 e4fa
00000010: af29 22e6 0901 3002 08ca 24dd bfeb 0da1
00000020: a8e4 2588 bd9f f681 33f2 c1db 0ff7 f122
00000030: 1af7 f810 a405 2517 19ff 884f 0cce cfd8
00000040: 06c8 c0f9 f90f d4e9 0619 520d 3017 0cb5
00000050: c9ec 2381 f50b 9b3a 2a8a d602 2392 94e0
00000060: add7 15ff f722 a6f5 26fe 92cc 3f2f c4f8
00000070: b5c8 22f3 caf0 0606 a3b1 ca0d e2e3 de1e
00000080: 04bc 0b30 31ca 0a10 0ad5 edd6 c902 eebe
00000090: d8f4 c2e8 e684 e823 ebf5 0e34 b2c9 0a18
000000a0: f914 c9ba 29ee 1331 deb8 16b8 f325 3b19
000000b0: b813 0ef4 ee81 dceb 00fe c10c 04b8 bf20
000000c0: 160a 08d8 a425 dfd6 0319 ffa5 f40d ece9
000000d0: cad8 dbfc 10a8 f30c e419 5001 fb37 d4bb
000000e0: 1f28 8509 04fd d7e2 0819 d803 f7f2 4a13
000000f0: ed01 27fc e1ec 07d6 32ba 138b e0f7 120c
