benchmark-nn/keywords-2d-f32/ei-benchmark-keywords-2d-nn-classifier-tensorflow-lite-float32-model.lite (tflite, 18968 bytes, 6 tensors)

unknown_0 f4 [9]
-0.29421827 -0.23405324 -0.70240843 -0.13205697 -0.743364 -0.75254357 -0.31342283 -0.2829509
-0.7672254
00000000: c7a3 96be a7ab 6fbe 0ad1 33bf f139 07be
00000010: 1a4d 3ebf b2a6 40bf f578 a0be f1de 90be
00000020: e268 44bf

unknown_2 f4 [16]
-0.05947119 0.07168059 -0.094550095 -0.7343283 -0.5846585 0.53214544 -0.05998844 -0.7657986
0.13441038 0.06717719 -0.22288112 0.27107677 -0.4515201 -0.42077953 0.8256331 -0.20295544
00000000: 1098 73bd 46cd 923d 7ba3 c1bd f1fc 3bbf
00000010: 2eac 15bf af3a 083f 70b6 75bd 610b 44bf
00000020: e0a2 093e 3294 893d f33a 64be 93ca 8a3e
00000030: a42d e7be 6a70 d7be b15c 533f 8dd3 4fbe

unknown_4 f4 [3]
-0.35743287 0.8612378 -0.5173274
00000000: 7101 b7be 157a 5c3f 926f 04bf

sequential/y_pred/MatMul;StatefulPartitionedCall/sequential/y_pred/MatMul f4 [3, 832]
-0.32797533 -0.06448989 -0.17035252 0.027853899 0.6804326 0.0022823575 0.15378557 0.41476497
0.20986785 0.6940215 -0.1864994 0.3452151 0.19159871 0.34282407 0.3359801 0.05838023
0.6462161 0.10105279 -0.09872109 0.2919657 -0.362801 -0.4555881 -0.06607888 -0.34327093
-0.27280876 -0.24411783 -0.4328658 0.05916416 0.22013663 -0.22833776 -0.2469416 -0.060768142
-0.45895585 -0.7487535 0.3451158 -0.13390584 -0.7020446 -0.28176934 -0.18442376 -0.2568328
-0.18238774 -0.27742594 0.41794625 -0.4081247 -0.4946638 -0.19460441 -0.37580645 0.041743357
-0.6078762 -0.2975123 0.17485611 -0.32197496 0.07306671 -0.12045364 -0.22913097 0.1052273
-0.191643 -0.42290083 -0.00089295127 -0.38957322 -0.056634728 0.34067294 0.31811178 0.022308636
0.13334063 -0.19383827 0.012089575 -0.09328659 0.5163281 0.050748274 -0.36033872 0.25040665
0.41692486 0.43933076 -0.3523201 0.050576936 0.07066453 0.49329355 0.16003546 0.10927863
0.45990577 0.2665211 -0.08934653 0.29069686 -0.24382168 -0.031299297 0.1757232 0.24225108
-0.14944479 -0.43651748 -0.23260003 0.11538316 -0.3345913 0.60268956 -0.13472448 -0.047980893
-0.061999038 -0.36149663 0.43693516 0.075104654 -0.068627395 -0.38881925 -0.16310053 0.39805233
-0.12385926 -0.2700475 0.04221545 0.02591124 -0.16971774 -0.47230625 -0.12124359 0.07694057
-0.25675872 0.09461441 0.09417212 -0.3106432 -0.2760767 -0.58384734 -0.6374039 0.13497986
0.016278397 -0.41135505 0.31960392 -0.43243754 -0.25537214 -0.4320985 0.11480961 -0.13314584
-0.19375992 -0.11077948 -0.46691528 -0.0076309945 0.4256026 0.03144098 -0.61497575 0.3897385
0.3946898 -0.26307318 -0.07572949 0.035056744 -0.0020275952 -0.11345283 0.08163824 0.048156127
0.6403318 -0.10055765 0.07478744 0.5003633 -0.19775777 -0.3537428 -0.17857844 -0.3498527
-0.12089044 0.304945 -0.29089767 0.48630732 -0.59738535 -0.21127501 0.14544794 0.057092376
0.24295713 -0.32074422 0.09388871 -0.058497425 -0.2795266 -0.1248636 0.083819725 0.275388
-0.54694504 -0.24011903 -0.06195578 -0.021341316 0.3686643 0.003593388 -0.22955327 0.095106274
0.01847115 0.021551657 0.1536424 -0.5297272 -0.38113612 0.25737387 -0.8903055 -0.3502131
0.057928935 0.04411281 -0.10228746 -0.32603028 -0.3309023 -0.10801492 0.19310556 0.074807115
-0.18261911 -0.15757847 -0.64047533 0.07291194 0.28557983 -0.007163571 -0.31503507 0.55471426
0.32494992 -0.11827047 -0.16174904 -0.13838753 -0.0403164 -0.6861375 0.29066774 0.08913905
0.35888878 0.3717919 -0.27327853 0.2438092 -0.44638604 0.041491464 -0.065244325 -0.3649925
0.2100105 0.19662762 -0.36299494 -0.0047510015 -0.46110958 -0.73138475 0.15523571 0.0019145911
-0.3287825 -0.15063667 -0.12653251 0.037698347 0.037874576 0.06687969 -0.4276989 -0.18677242
-0.48443732 -0.35590988 -0.1902298 -0.00093734416 -0.6012042 -0.42581812 -0.47168377 0.062956564
-0.35542578 -0.36277813 0.12381301 -0.21994297 0.20052639 0.0020730526 -0.4657569 -0.36552206
0.12436212 0.2204666 0.38549075 -0.27152905 0.06780381 -0.05889158 -0.4786049 0.27562618
00000000: 62ec a7be 4713 84bd e470 2ebe dc2d e43c
00000010: d530 2e3f 9b93 153b f779 1d3e 135c d43e
00000020: 99e7 563e 65ab 313f b3f9 3ebe 09c0 b03e
00000030: 7432 443e a386 af3e 9505 ac3e 1c20 6f3d
00000040: 6b6e 253f c4f4 ce3d 482e cabd 877c 953e
00000050: 0dc1 b9be d842 e9be 5d54 87bd 35c1 afbe
00000060: 97ad 8bbe 06fa 79be 96a0 ddbe 1e56 723d
00000070: 7f6b 613e 60d1 69be 42de 7cbe 04e8 78bd
00000080: 43fc eabe 4fae 3fbf 05b3 b03e 9d1e 09be
00000090: 32b9 33bf 1244 90be 95d9 3cbe 977f 83be
000000a0: dac3 3abe c60a 8ebe 0dfd d53e b8f5 d0be
000000b0: 9344 fdbe 6146 47be b469 c0be 15fb 2a3d
000000c0: c69d 1bbf 8853 98be 7b0d 333e e7d9 a4be
000000d0: 00a4 953d 66b0 f6bd 4fa1 6abe 6981 d73d
000000e0: 103e 44be 7586 d8be f214 6aba 2476 c7be
000000f0: d1f9 67bd af6c ae3e 8cdf a23e 9ac0 b63c
00000100: 728a 083e 8a7d 46be 5a13 463c 0a0d bfbd
00000110: 142e 043f 6cdd 4f3d 517e b8be 4d35 803e
00000120: 2d77 d53e f6ef e03e 4d63 b4be c329 4f3d
00000130: 91b8 903d f990 fc3e 56e0 233e 79cd df3d
00000140: c578 eb3e 7475 883e 50fb b6bd 38d6 943e
00000150: 64ac 79be b133 00bd c8f0 333e ab10 783e
00000160: 0e08 19be 387f dfbe b42e 6ebe 024e ec3d
00000170: 8d4f abbe dd49 1a3f 37f5 09be 9d87 44bd
00000180: b4f2 7dbd 1616 b9be f7b5 df3e 78d0 993d
00000190: 858c 8cbd 5113 c7be d303 27be 84cd cb3e
000001a0: eca9 fdbd aa43 8abe 1cea 2c3d cf43 d43c
000001b0: 7dca 2dbe 20d2 f1be 8f4e f8bd 0493 9d3d
000001c0: e175 83be 33c5 c13d 50dd c03d a00c 9fbe
000001d0: ed59 8dbe 0577 15bf e72c 23bf 2938 0a3e
000001e0: 465a 853c 219d d2be 20a3 a33e 7468 ddbe
000001f0: 23c0 82be 043c ddbe 4d21 eb3d 6257 08be
00000200: 0069 46be 5ae0 e2bd 850f efbe 6c0d fabb
00000210: 96e8 d93e 42c8 003d 0d6f 1dbf ce8b c73e
00000220: c814 ca3e 87b1 86be 1018 9bbd a997 0f3d
00000230: 67e1 04bb f559 e8bd f331 a73d 5c3f 453d
00000240: c9ec 233f 2bf1 cdbd 282a 993d cf17 003f
00000250: 0381 4abe c71d b5be 44dd 36be e51f b3be
00000260: 6895 f7bd c021 9c3e 8af0 94be 46fd f83e
00000270: 3fee 18bf 7a58 58be 4ef0 143e b2d9 693d
00000280: c1c9 783e 9638 a4be b948 c03d ff9a 6fbd
00000290: 1c1e 8fbe 7db8 ffbd ada9 ab3d a8ff 8c3e
000002a0: 9704 0cbf c3e1 75be 58c5 7dbd fcd3 aebc
000002b0: 91c1 bc3e 0c7f 6b3b 0310 6bbe 14c7 c23d
000002c0: cf50 973c 1a8d b03c 6f54 1d3e 349c 07bf
000002d0: 4624 c3be 82c6 833e 10eb 63bf 224f b3be
000002e0: e446 6d3d a2af 343d 167c d1bd 71ed a6be
000002f0: 076c a9be ed36 ddbd 77bd 453e 7934 993d
00000300: 8100 3bbe 405c 21be 31f6 23bf db52 953d
00000310: 8537 923e 64bc eabb 474c a1be c101 0e3f
00000320: d65f a63e ca37 f2bd 8aa1 25be 76b5 0dbe
00000330: cf22 25bd b5a6 2fbf 67d2 943e 898e b63d
00000340: 45c0 b73e 825b be3e 2aeb 8bbe 1ea9 793e
00000350: b68c e4be f4f2 293d d19e 85bd 4ce0 babe
00000360: fe0c 573e c058 493e 79da b9be 4aae 9bbb
00000370: 8e16 ecbe 083c 3bbf 1cf6 1e3e 04f3 fa3a
00000380: 2e56 a8be 8040 1abe bd91 01be 9569 1a3d
00000390: 5f22 1b3d 38f8 883d 5afb dabe 4541 3fbe
000003a0: 2b08 f8be d239 b6be 9acb 42be 1ab8 75ba
000003b0: 85e8 19bf d504 dabe 8980 f1be 5fef 803d
000003c0: 5efa b5be 0ebe b9be ad91 fd3d bb38 61be
000003d0: ca56 4d3e 0ddc 073b b077 eebe b525 bbbe
000003e0: 91b1 fe3d ffc1 613e 0b5f c53e db05 8bbe
000003f0: b9dc 8a3d 4c38 71bd b40b f5be e01e 8d3e

sequential/conv2d/Conv2D;StatefulPartitionedCall/sequential/conv2d/Conv2D f4 [9, 3, 3, 1]
-0.54287416 -0.02588021 0.10369996 0.19088857 0.20787676 0.04453503 0.33306447 -0.07556019
-0.19535874 0.26742455 -0.23468111 0.020114845 0.31843558 0.07736452 -0.039134942 -0.530889
0.2691001 0.05177509 -0.18707812 0.31442514 -0.17661257 -0.056023877 0.15729806 -0.036972046
-0.056623265 0.4216959 -0.04852393 -0.29447657 -0.14590028 -0.12791611 -0.24839035 -0.029016854
0.06673679 -0.28266346 0.004343179 -0.0722338 0.0273955 -0.1562215 -0.021058531 0.14902806
-0.5871369 -0.081190124 0.002608884 -0.28207454 0.15634863 0.28361896 0.022291496 -0.059241056
0.2692469 -0.019399099 -0.36410266 0.25747758 -0.10554512 -0.28392658 -0.22443537 0.13000943
0.09167583 0.34121946 -0.38683146 -0.2739344 -0.06570921 0.37000883 0.07435616 -0.044049032
-0.25961313 0.14004773 -0.2978188 -0.17063446 0.0015564626 -0.17511718 0.02044684 0.2529444
0.31769228 -0.3660923 0.11444175 0.25806302 -0.19263981 0.259662 0.056290686 -0.022321457
0.13826616
00000000: cdf9 0abf bc02 d4bc a560 d43d 4b78 433e
00000010: a5dd 543e 5d6a 363d 6d87 aa3e 4dbf 9abd
00000020: 1f0c 48be dfeb 883e 3f50 70be e3c7 a43c
00000030: fd09 a33e 4a71 9e3d f64b 20bd 57e8 07bf
00000040: 7dc7 893e 1e12 543d 6891 3fbe 55fc a03e
00000050: edd9 34be 4b79 65bd be12 213e 0070 17bd
00000060: cced 67bd 86e8 d73e 07c1 46bd a2c5 96be
00000070: e266 15be 71fc 02be 0a5a 7ebe c1b4 edbc
00000080: 4cad 883d 44b9 90be 3a51 8e3b 51ef 93bd
00000090: 876c e03c 87f8 1fbe f182 acbc d09a 183e
000000a0: 9b4e 16bf 0247 a6bd cff9 2a3b 136c 90be
000000b0: db19 203e 8136 913e a89c b63c c0a6 72bd
000000c0: bbda 893e dcea 9ebc aa6b babe 1ad4 833e
000000d0: 0a28 d8bd d35e 91be 63d2 65be 3121 053e
000000e0: 8ac0 bb3d 51b4 ae3e c60e c6be 2141 8cbe
000000f0: 8d92 86bd cc71 bd3e 0b48 983d c26c 34bd
00000100: 03ec 84be ac68 0f3e b57b 98be cdba 2ebe
00000110: 3802 cc3a eb51 33be 2280 a73c ee81 813e
00000120: 90a8 a23e 7370 bbbe 7060 ea3d d620 843e
00000130: 5f43 45be 6bf2 843e 1091 663d 7ddb b6bc
00000140: a595 0d3e

sequential/conv2d_1/Conv2D;StatefulPartitionedCall/sequential/conv2d_1/Conv2D f4 [16, 3, 3, 9]
0.0123696085 -0.08105222 0.15780078 0.4254123 -0.42776406 -0.6873064 -0.13119237 0.18238367
-0.5388872 -0.54378945 -0.06727703 0.07886213 -0.5440125 -0.05400588 -0.16242711 -0.03509471
-0.47841388 0.24078812 0.19915833 -0.15101212 0.055402406 0.008119351 0.27984735 0.012521433
0.047781665 -0.31840408 0.21073058 -0.20636573 -0.3810735 -0.12278639 0.07727717 -0.5619421
-0.5211717 -0.1634502 0.21735449 -0.7088531 -0.39169386 -0.5687873 -0.06106002 -0.7479297
0.300995 -0.080029234 -0.36927718 -0.21644072 0.08848678 -0.052909654 -0.08582227 0.20313409
0.15561014 -0.05534644 -0.046420585 0.09434202 -0.54029936 0.029449437 0.2187361 0.13514829
0.14601417 -0.006572193 -0.70784116 0.46375838 0.069778144 -0.2959869 -0.28823605 -0.23684768
0.034134794 -0.33157858 -0.37846014 -0.041790362 -0.043739863 0.090120584 -0.26146743 -0.13808106
0.03611715 0.14758793 0.48144224 0.077347614 0.2841857 0.13377036 0.0685534 -0.44391775
-0.32548112 -0.13365707 0.23705281 -0.8628598 -0.07302497 0.07684946 -0.6890078 0.39164832
0.28293747 -0.8043611 -0.28750977 0.014779163 0.24026081 -0.7448291 -0.73111916 -0.215417
-0.56167996 -0.27797547 0.14581054 -0.004688745 -0.060528815 0.23116545 -0.6136436 -0.07319719
0.25684306 -0.014974048 -0.745007 -0.35378277 0.4305773 0.317219 -0.40983838 -0.055109683
-0.5118289 -0.38152072 0.23403488 -0.08821437 -0.36943516 -0.108585484 0.041251786 0.03926556
-0.6320611 -0.5340461 -0.36350304 0.08628604 -0.20125443 -0.19933523 -0.23166156 0.20070511
0.030517925 -0.45865372 0.07532635 0.32926822 0.33426175 -0.3682485 0.06959719 0.107095025
0.064910345 -0.2888195 -0.12834306 -0.28238952 -0.37143454 0.016693518 -0.12190313 -0.45003974
-0.27269852 -0.08492224 -0.42276758 -0.16235812 -0.17428023 -0.84445775 -0.16567752 0.2377147
-0.14129443 -0.072459534 0.09217556 0.35211182 -0.5288592 -0.37154952 0.06783804 0.16342457
-0.04704913 0.13250169 -0.37139693 -0.4750336 0.27832806 -0.12109728 0.13113311 0.33378887
-0.22793044 -0.48598805 0.14722808 -0.48501375 -0.08546946 0.2525532 0.40124705 0.16641511
-0.4888328 0.12682506 0.09650692 -0.08173481 -0.12519877 -0.8601068 -0.24179062 -0.14282785
-0.001804702 -0.014902458 -0.42394572 0.082919106 0.02801517 -0.48498628 -0.44321612 0.21788876
0.15043122 0.069456175 0.055137776 -0.26759145 -0.62059385 0.25160867 -0.22452824 -0.28258002
0.017531173 0.17217067 -0.004181069 -0.61440724 -0.083871596 0.09040617 -0.13290803 -0.15451288
-0.36566758 -0.27087227 -0.25047106 -0.024489485 0.10947902 -0.59882796 -0.09113406 0.079498544
-0.18909527 0.16859698 0.53976744 0.009084066 -0.03263082 0.3700465 -0.2994234 -0.464854
0.2080189 0.27302802 -0.8328536 0.059735186 0.029524598 -0.021271741 -0.27751508 -0.2050706
0.05472108 0.16645306 -0.2697467 0.017763074 -0.060211442 -0.09767253 0.49829742 0.12697043
-0.1252935 0.0034299404 0.2655502 -0.027866 -0.21320716 -0.13786042 0.04590317 -0.2865724
0.34545746 -0.4852186 0.13385962 -0.8037386 -0.21983604 -0.061722163 0.123070836 0.08460104
00000000: e6a9 4a3c b5fe a5bd 8796 213e a4cf d93e
00000010: e403 dbbe 50f3 2fbf 4b57 06be c9c2 3a3e
00000020: 83f4 09bf c935 0bbf 8ac8 89bd 7882 a13d
00000030: 6744 0bbf 4535 5dbd 4b53 26be 78bf 0fbd
00000040: aaf2 f4be 2991 763e 29f0 4b3e eca2 1abe
00000050: a2ed 623d 0707 053c 2748 8f3e b226 4d3c
00000060: b5b6 433d dc05 a3be c2c9 573e 8a51 53be
00000070: 111c c3be 6e77 fbbd 7e43 9e3d 70db 0fbf
00000080: 826b 05bf 7d5f 27be 2d92 5e3e 6677 35bf
00000090: 198c c8be 0b9c 11bf 121a 7abd 5278 3fbf
000000a0: 041c 9a3e 5ee6 a3bd e611 bdbe a3a2 5dbe
000000b0: 8f38 b53d cbb7 58bd 96c3 afbd 6202 503e
000000c0: 4458 1f3e f3b2 62bd 8323 3ebd 6436 c13d
000000d0: 0f51 0abf f23f f13c 5bfc 5f3e 5064 0a3e
000000e0: bd84 153e 8d5b d7bb 1435 35bf bd71 ed3e
000000f0: d8e7 8e3d 988b 97be ad93 93be 3388 72be
00000100: edd0 0b3d abc4 a9be 87c5 c1be 5f2c 2bbd
00000110: 9228 33bd 2491 b83d 0fdf 85be 1f65 0dbe
00000120: 94ef 133d 4a21 173e 997f f63e 6d68 9e3d
00000130: ca80 913e 19fb 083e ba65 8c3d 3049 e3be
00000140: 76a5 a6be 66dd 08be f9bd 723e 61e4 5cbf
00000150: 1e8e 95bd 4063 9d3d d162 30bf 2186 c83e
00000160: 2edd 903e 9cea 4dbf 7b34 93be 4d24 723c
00000170: ee06 763e 1fad 3ebf a02a 3bbf 4696 5cbe
00000180: 42ca 0fbf cd52 8ebe 5c4f 153e 0ba4 99bb
00000190: 10ed 77bd a3b6 6c3e bf17 1dbf 69e8 95bd
000001a0: ef80 833e b655 75bc c7b8 3ebf 0423 b5be
000001b0: a174 dc3e 876a a23e 56d6 d1be b1ba 61bd
000001c0: 3807 03bf af56 c3be d7a6 6f3e bca9 b4bd
000001d0: 9b26 bdbe 1162 debd a2f7 283d edd4 203d
000001e0: c2ce 21bf 3fb7 08bf 121d babe bcb6 b03d
000001f0: a415 4ebe 891e 4cbe b038 6dbe a485 4d3e
00000200: ba00 fa3c a9d4 eabe b444 9a3d d895 a83e
00000210: 5b24 ab3e 118b bcbe f988 8e3d a354 db3d
00000220: b7ef 843d 26e0 93be 5d6c 03be 5c95 90be
00000230: ab2c bebe d8c0 883c 59a8 f9bd 9c6b e6be
00000240: 249f 8bbe b6eb adbd fe74 d8be 3541 26be
00000250: 8476 32be 622e 58bf 5ea7 29be 7b6b 733e
00000260: 7daf 10be aa65 94bd 8ac6 bc3d 0048 b43e
00000270: 5163 07bf bd3b bebe acee 8a3d c558 273e
00000280: 97b6 40bd 86ae 073e bd27 bebe 9b37 f3be
00000290: 0481 8e3e da01 f8bd c247 063e 60e6 aa3e
000002a0: 9966 69be 6dd3 f8be f5c2 163e b953 f8be
000002b0: 9d0a afbd a74e 813e 4170 cd3e b968 2a3e
000002c0: 4b48 fabe 6ede 013e 6ca5 c53d 9464 a7bd
000002d0: 1b34 00be f62f 5cbf f697 77be 7741 12be
000002e0: c08b ecba 7029 74bc 6a0f d9be 7ed1 a93d
000002f0: 1280 e53c 1f50 f8be 39ed e2be 3b1e 5f3e
00000300: a40a 1a3e 0a3f 8e3d 26d8 613d bf01 89be
00000310: 3ddf 1ebf dad2 803e bbea 65be 54ae 90be
00000320: 899d 8f3c 824d 303e 5901 89bb cb49 1dbf
00000330: dfc4 abbd df26 b93d 0b19 08be a038 1ebe
00000340: c838 bbbe c5af 8abe be3d 80be 2c9e c8bc
00000350: 8936 e03d ca4c 19bf 7ea4 babd 22d0 a23d
00000360: 31a2 41be b0a4 2c3e 332e 0a3f 56d5 143c
00000370: e5a7 05bd bc76 bd3e 064e 99be 5801 eebe
00000380: e802 553e 54ca 8b3e e535 55bf e2ac 743d
00000390: 92dd f13c 1342 aebc 7516 8ebe 07fe 51be
000003a0: 3623 603d ac72 2a3e 3d1c 8abe de83 913c
000003b0: 46a0 76bd 8908 c8bd d720 ff3e 8904 023e
000003c0: f04c 00be dac8 603b 32f6 873e 3d47 e4bc
000003d0: fa52 5abe 482b 0dbe f604 3c3d 9eb9 92be
000003e0: cddf b03e 936e f8be 7f12 093e d0c1 4dbf
000003f0: b31c 61be 61d0 7cbd 900c fc3d 4f43 ad3d
