benchmark-nn/image-32-32-mobilenet-i8/ei-benchmark-image-32x32-0.05-grayscale-transfer-learning-tensorflow-lite-int8-quantized-model.lite (tflite, 233048 bytes, 54 tensors)

sequential/dense/Tensordot/MatMul;StatefulPartitionedCall/sequential/dense/Tensordot/MatMul i1 [10, 1280] scale=0.0006199686 zero_point=0
000000 15 a8 fb b4 cd 9a 6c ff a2 fe f7 34 60 dc 07 a8
       0.01301934 -0.054557234 -0.003099843 -0.047117613 -0.031618398 -0.063236795 0.06695661 -0.0006199686 -0.058277044 -0.0012399371 -0.005579717 0.032238364 0.05951698 -0.022318868 0.00433978 -0.054557234
000010 08 52 15 52 ea 97 98 a0 60 d9 0d f9 fd d6 fe e8
       0.0049597486 0.050837424 0.01301934 0.050837424 -0.0136393085 -0.0650967 -0.06447673 -0.05951698 0.05951698 -0.024178775 0.008059591 -0.00433978 -0.0018599057 -0.02603868 -0.0012399371 -0.014879245
000020 96 4f 15 13 a4 ba 45 2b ce dc 56 5f 01 c2 d0 d9
       -0.06571667 0.048977517 0.01301934 0.011779403 -0.057037108 -0.0433978 0.042777833 0.026658649 -0.03099843 -0.022318868 0.053317297 0.058897015 0.0006199686 -0.038438052 -0.02975849 -0.024178775
000030 38 f8 a7 95 13 13 be 4d 48 0b d5 ec c8 1f 68 48
       0.03471824 -0.0049597486 -0.055177204 -0.06633664 0.011779403 0.011779403 -0.040917926 0.04773758 0.044637736 0.0068196543 -0.026658649 -0.012399372 -0.03471824 0.019219026 0.06447673 0.044637736
000040 de f9 34 f3 33 2b 41 4d a3 3d e3 d6 20 b9 f3 96
       -0.021078931 -0.00433978 0.032238364 -0.008059591 0.031618398 0.026658649 0.04029796 0.04773758 -0.057657078 0.03781808 -0.01797909 -0.02603868 0.019838994 -0.04401777 -0.008059591 -0.06571667
000050 a1 5e 69 2e 0d 1f 48 96 18 2d 05 43 4f de ac aa
       -0.058897015 0.058277044 0.0650967 0.028518554 0.008059591 0.019219026 0.044637736 -0.06571667 0.014879245 0.027898585 0.003099843 0.041537896 0.048977517 -0.021078931 -0.05207736 -0.053317297
000060 43 f5 d5 06 fc 97 23 a2 b3 e4 28 51 d1 31 fb 17
       0.041537896 -0.0068196543 -0.026658649 0.0037198113 -0.0024798743 -0.0650967 0.0216989 -0.058277044 -0.04773758 -0.01735912 0.024798743 0.050217453 -0.029138522 0.03037846 -0.003099843 0.014259277
000070 c3 9a c5 18 92 18 23 c8 52 57 93 a7 ad 40 38 b3
       -0.03781808 -0.063236795 -0.036578145 0.014879245 -0.06819654 0.014879245 0.0216989 -0.03471824 0.050837424 0.053937268 -0.06757657 -0.055177204 -0.05145739 0.03967799 0.03471824 -0.04773758
000080 a4 49 5e f4 15 13 e2 43 4a e2 98 12 26 c8 17 36
       -0.057037108 0.045257706 0.058277044 -0.0074396227 0.01301934 0.011779403 -0.018599058 0.041537896 0.045877673 -0.018599058 -0.06447673 0.011159434 0.023558807 -0.03471824 0.014259277 0.033478305
000090 ed 1b 13 69 e6 55 f1 dc cb 0d 69 9d a6 c9 5e e9
       -0.011779403 0.016739152 0.011779403 0.0650967 -0.016119182 0.052697327 -0.009299529 -0.022318868 -0.032858334 0.008059591 0.0650967 -0.06137689 -0.05579717 -0.03409827 0.058277044 -0.014259277
0000a0 ab 50 6d a6 e9 ab 05 b2 dd 59 92 95 4a 05 4e ed
       -0.052697327 0.049597487 0.06757657 -0.05579717 -0.014259277 -0.052697327 0.003099843 -0.04835755 -0.0216989 0.055177204 -0.06819654 -0.06633664 0.045877673 0.003099843 0.04835755 -0.011779403
0000b0 2f 35 af a0 fd 44 59 f3 58 05 56 da f2 68 9f 55
       0.029138522 0.032858334 -0.050217453 -0.05951698 -0.0018599057 0.042157862 0.055177204 -0.008059591 0.054557234 0.003099843 0.053317297 -0.023558807 -0.00867956 0.06447673 -0.06013695 0.052697327
0000c0 ef 40 e3 d0 ed e9 e5 4c fd ae 49 0c ef 66 b4 4d
       -0.010539466 0.03967799 -0.01797909 -0.02975849 -0.011779403 -0.014259277 -0.016739152 0.047117613 -0.0018599057 -0.050837424 0.045257706 0.0074396227 -0.010539466 0.063236795 -0.047117613 0.04773758
0000d0 91 61 5f 56 07 a8 53 29 d9 e0 15 9d 3b 0e 9a 5c
       -0.06881651 0.06013695 0.058897015 0.053317297 0.00433978 -0.054557234 0.05145739 0.025418712 -0.024178775 -0.019838994 0.01301934 -0.06137689 0.036578145 0.00867956 -0.063236795 0.057037108
0000e0 f8 3f be 5f 32 4e 67 35 48 9b f8 b7 9c ef ef ac
       -0.0049597486 0.03905802 -0.040917926 0.058897015 0.03099843 0.04835755 0.063856766 0.032858334 0.044637736 -0.062616825 -0.0049597486 -0.045257706 -0.06199686 -0.010539466 -0.010539466 -0.05207736
0000f0 69 35 6c 0e 54 18 38 29 d0 16 d5 3d e5 bc c7 d6
       0.0650967 0.032858334 0.06695661 0.00867956 0.05207736 0.014879245 0.03471824 0.025418712 -0.02975849 0.0136393085 -0.026658649 0.03781808 -0.016739152 -0.042157862 -0.035338208 -0.02603868

sequential/dense_1/MatMul;StatefulPartitionedCall/sequential/dense_1/MatMul i1 [3, 10] scale=0.005395418 zero_point=0
000000 cb 7f c1 0e 6f c6 9e a1 49 01 5f c5 af 04 10 2f
       -0.28595716 0.6852181 -0.33991134 0.07553585 0.5988914 -0.31293425 -0.52875096 -0.5125647 0.39386553 0.005395418 0.5125647 -0.31832966 -0.43702886 0.021581672 0.08632669 0.25358465
000010 99 c5 c0 7a f6 a2 6f 68 02 48 94 39 e1 1f
       -0.5557281 -0.31832966 -0.34530675 0.658241 -0.05395418 -0.5071693 0.5988914 0.5611235 0.010790836 0.3884701 -0.58270514 0.30753884 -0.16725796 0.16725796

sequential/model/Conv1/Conv2D;StatefulPartitionedCall/sequential/model/Conv1/Conv2D i1 [8, 3, 3, 1]
000000 61 8a 0a 8f 7f fc 0e f1 00 14 1b 36 e7 81 20 03
       97 -118 10 -113 127 -4 14 -15 0 20 27 54 -25 -127 32 3
000010 06 14 81 66 12 e1 ec 3d fd fc 05 36 33 09 2f 42
       6 20 -127 102 18 -31 -20 61 -3 -4 5 54 51 9 47 66
000020 09 ab 81 ed da 3c ee ae 7f d3 f3 11 fc b3 be fc
       9 -85 -127 -19 -38 60 -18 -82 127 -45 -13 17 -4 -77 -66 -4
000030 7f 69 07 d1 d5 fd 39 77 b9 30 d4 81 1b 1b ea d3
       127 105 7 -47 -43 -3 57 119 -71 48 -44 -127 27 27 -22 -45
000040 81 24 5d 3d 0b 0e f5 03
       -127 36 93 61 11 14 -11 3

sequential/model/expanded_conv_project/Conv2D;StatefulPartitionedCall/sequential/model/expanded_conv_project/Conv2D i1 [8, 1, 1, 8]
000000 c3 6e 05 fd 07 07 81 fc 5b ee 17 2e 0d 7f fe f2
       -61 110 5 -3 7 7 -127 -4 91 -18 23 46 13 127 -2 -14
000010 7f c6 34 12 68 c8 4b 03 f2 26 01 ea ff ad ce 7f
       127 -58 52 18 104 -56 75 3 -14 38 1 -22 -1 -83 -50 127
000020 81 9e 95 c8 dd 31 6f 09 39 04 fe 81 f7 40 fc f1
       -127 -98 -107 -56 -35 49 111 9 57 4 -2 -127 -9 64 -4 -15
000030 66 39 7f 47 6d 1c b3 02 d5 c6 18 81 23 83 35 22
       102 57 127 71 109 28 -77 2 -43 -58 24 -127 35 -125 53 34

sequential/model/block_1_expand/Conv2D;StatefulPartitionedCall/sequential/model/block_1_expand/Conv2D i1 [48, 1, 1, 8]
000000 d5 ea d1 0d 81 fa 09 1f cc 13 1a b6 7f 03 c2 1c
       -43 -22 -47 13 -127 -6 9 31 -52 19 26 -74 127 3 -62 28
000010 f9 81 1a c5 bd 09 df d6 28 7f f6 77 2b e5 36 de
       -7 -127 26 -59 -67 9 -33 -42 40 127 -10 119 43 -27 54 -34
000020 05 fd dc 81 fb 8a f7 f1 e9 68 f3 ec 0a 7f 35 93
       5 -3 -36 -127 -5 -118 -9 -15 -23 104 -13 -20 10 127 53 -109
000030 1b f8 f4 a5 20 11 81 4a f6 7f 24 e6 5a 47 76 12
       27 -8 -12 -91 32 17 -127 74 -10 127 36 -26 90 71 118 18
000040 fc 81 10 d0 b8 10 df eb df 50 03 47 0f a1 29 81
       -4 -127 16 -48 -72 16 -33 -21 -33 80 3 71 15 -95 41 -127
000050 27 b2 0f a1 ff 0b e0 7f 81 04 fc f5 39 d0 d5 03
       39 -78 15 -95 -1 11 -32 127 -127 4 -4 -11 57 -48 -43 3
000060 fa ea 17 d2 d2 0c f6 81 ce 78 6f 3d d2 7f 1d f0
       -6 -22 23 -46 -46 12 -10 -127 -50 120 111 61 -46 127 29 -16
000070 82 b3 e4 fa 1b 0e 7f 01 7f e8 d4 05 b6 01 0d f1
       -126 -77 -28 -6 27 14 127 1 127 -24 -44 5 -74 1 13 -15
000080 b4 b3 81 1f ed f8 dc 1e d3 e9 95 07 81 05 39 14
       -76 -77 -127 31 -19 -8 -36 30 -45 -23 -107 7 -127 5 57 20
000090 fa c2 7f 07 29 1d 6a da 36 b3 04 bc f7 dd c8 7f
       -6 -62 127 7 41 29 106 -38 54 -77 4 -68 -9 -35 -56 127
0000a0 b3 47 2d fd 74 ef 81 f1 ea 81 09 08 c3 b9 db d2
       -77 71 45 -3 116 -17 -127 -15 -22 -127 9 8 -61 -71 -37 -46
0000b0 dc b3 ec 05 81 0f 4e 00 7f db eb 07 b5 f2 03 ed
       -36 -77 -20 5 -127 15 78 0 127 -37 -21 7 -75 -14 3 -19
0000c0 ee 81 12 05 f2 1b b2 de d1 6b 96 c5 05 1d 20 81
       -18 -127 18 5 -14 27 -78 -34 -47 107 -106 -59 5 29 32 -127
0000d0 44 de cf 10 81 0b 1f f8 28 ec 01 81 12 00 e8 37
       68 -34 -49 16 -127 11 31 -8 40 -20 1 -127 18 0 -24 55
0000e0 97 2c fa 02 7f e4 bb 04 23 9c d0 53 ba 1b 9c 7f
       -105 44 -6 2 127 -28 -69 4 35 -100 -48 83 -70 27 -100 127
0000f0 12 81 03 e2 9f 33 b4 ee e2 c3 81 17 c3 ab ae 28
       18 -127 3 -30 -97 51 -76 -18 -30 -61 -127 23 -61 -85 -82 40

sequential/model/block_1_project/Conv2D;StatefulPartitionedCall/sequential/model/block_1_project/Conv2D i1 [8, 1, 1, 48]
000000 24 45 23 df 12 06 d8 05 ee 35 b6 1f fa 26 09 1f
       36 69 35 -33 18 6 -40 5 -18 53 -74 31 -6 38 9 31
000010 21 59 03 14 81 30 e0 d2 e6 47 20 dd 67 27 2b ed
       33 89 3 20 -127 48 -32 -46 -26 71 32 -35 103 39 43 -19
000020 fd e1 1f 22 13 19 13 29 e2 64 2c 38 2b f5 4f e0
       -3 -31 31 34 19 25 19 41 -30 100 44 56 43 -11 79 -32
000030 c4 ee d3 e0 24 ba 3c 35 e1 0e 44 b3 15 09 7a c7
       -60 -18 -45 -32 36 -70 60 53 -31 14 68 -77 21 9 122 -57
000040 12 4d 1b 46 34 f0 e9 0f e9 27 da e6 3c bc cf a8
       18 77 27 70 52 -16 -23 15 -23 39 -38 -26 60 -68 -49 -88
000050 3f 19 28 d1 f9 2a 97 ea da 39 e0 b0 12 d8 7f 9d
       63 25 40 -47 -7 42 -105 -22 -38 57 -32 -80 18 -40 127 -99
000060 22 57 e3 d7 7f 57 ef cf c7 fe f6 27 c7 22 f4 17
       34 87 -29 -41 127 87 -17 -49 -57 -2 -10 39 -57 34 -12 23
000070 0a 10 fe 09 1e e1 d1 0c d1 d5 38 ce f8 ef ee e9
       10 16 -2 9 30 -31 -47 12 -47 -43 56 -50 -8 -17 -18 -23
000080 f1 3a 0e 28 ed 41 3c 11 e8 24 19 21 44 e1 12 e4
       -15 58 14 40 -19 65 60 17 -24 36 25 33 68 -31 18 -28
000090 0e f6 d4 e8 06 f3 15 10 d3 ae 17 17 f0 1e cb 02
       14 -10 -44 -24 6 -13 21 16 -45 -82 23 23 -16 30 -53 2
0000a0 d5 1b d0 d3 d4 fb e7 f7 e5 09 f4 e6 27 bf c6 44
       -43 27 -48 -45 -44 -5 -25 -9 -27 9 -12 -26 39 -65 -58 68
0000b0 20 e3 e5 01 c1 b6 f8 7c f1 03 03 7f c2 6b f3 44
       32 -29 -27 1 -63 -74 -8 124 -15 3 3 127 -62 107 -13 68
0000c0 d7 bd e8 f0 da f4 f5 d6 f0 da 48 c7 de f9 4a c6
       -41 -67 -24 -16 -38 -12 -11 -42 -16 -38 72 -57 -34 -7 74 -58
0000d0 e1 d3 49 0a 18 ef f2 58 f0 0f cf f0 2d ea e4 45
       -31 -45 73 10 24 -17 -14 88 -16 15 -49 -16 45 -22 -28 69
0000e0 cd 1c 02 ec f2 eb b9 a4 e5 e1 ff 81 eb 1d f2 42
       -51 28 2 -20 -14 -21 -71 -92 -27 -31 -1 -127 -21 29 -14 66
0000f0 da e8 cf 43 14 dc 49 17 29 e3 f2 d6 1d ad 91 ba
       -38 -24 -49 67 20 -36 73 23 41 -29 -14 -42 29 -83 -111 -70

sequential/model/block_2_expand/Conv2D;StatefulPartitionedCall/sequential/model/block_2_expand/Conv2D i1 [48, 1, 1, 8]
000000 19 5b 81 a2 32 e9 03 f4 10 31 96 1c 81 25 c6 ab
       25 91 -127 -94 50 -23 3 -12 16 49 -106 28 -127 37 -58 -85
000010 a1 4e 7f d8 81 55 e2 ab 49 d3 dc 0e 52 34 be 81
       -95 78 127 -40 -127 85 -30 -85 73 -45 -36 14 82 52 -66 -127
000020 5b 00 f9 c3 b5 e5 de 7f ef 07 9a 81 3d c1 07 f9
       91 0 -7 -61 -75 -27 -34 127 -17 7 -102 -127 61 -63 7 -7
000030 7f 0d 02 31 6e 33 f1 0c f7 52 81 9c 52 c2 db 4f
       127 13 2 49 110 51 -15 12 -9 82 -127 -100 82 -62 -37 79
000040 93 85 6c 7f 19 11 93 9c 37 1b f9 dc db 24 2d 7f
       -109 -123 108 127 25 17 -109 -100 55 27 -7 -36 -37 36 45 127
000050 2f 0c 7b 35 d9 f2 81 7a ca 2b 1f 45 66 5c 06 7f
       47 12 123 53 -39 -14 -127 122 -54 43 31 69 102 92 6 127
000060 da 49 7f a6 7c aa a0 20 de 9f 7f f1 c3 f5 da f8
       -38 73 127 -90 124 -86 -96 32 -34 -97 127 -15 -61 -11 -38 -8
000070 ec 62 bf cf 7f eb ff 29 81 44 e1 0c 92 ad 2b 3e
       -20 98 -65 -49 127 -21 -1 41 -127 68 -31 12 -110 -83 43 62
000080 cd dc ed e6 1b 21 7f c0 f6 ee 2b 1d 7f d7 30 64
       -51 -36 -19 -26 27 33 127 -64 -10 -18 43 29 127 -41 48 100
000090 05 16 cd fa 82 27 f7 81 2c 19 d7 0c 81 2b fb a4
       5 22 -51 -6 -126 39 -9 -127 44 25 -41 12 -127 43 -5 -92
0000a0 7e d1 3a c5 7f 7a 36 de a4 5a 57 ed 7f 06 42 ce
       126 -47 58 -59 127 122 54 -34 -92 90 87 -19 127 6 66 -50
0000b0 d3 81 cd c7 21 14 05 19 eb ff 7f 9b ed 0d 63 30
       -45 -127 -51 -57 33 20 5 25 -21 -1 127 -101 -19 13 99 48
0000c0 27 13 81 f4 d9 dd 19 9b eb 81 07 33 51 12 93 ba
       39 19 -127 -12 -39 -35 25 -101 -21 -127 7 51 81 18 -109 -70
0000d0 14 c6 7f 0e c1 f7 ee eb c2 e7 7f 36 28 28 19 4a
       20 -58 127 14 -63 -9 -18 -21 -62 -25 127 54 40 40 25 74
0000e0 81 39 bb 14 f6 94 33 63 09 28 7f 4c 5e bd f9 5d
       -127 57 -69 20 -10 -108 51 99 9 40 127 76 94 -67 -7 93
0000f0 ae c6 25 81 77 e1 18 d0 48 51 58 33 bd 81 ed 29
       -82 -58 37 -127 119 -31 24 -48 72 81 88 51 -67 -127 -19 41

sequential/model/block_2_project/Conv2D;StatefulPartitionedCall/sequential/model/block_2_project/Conv2D i1 [8, 1, 1, 48]
000000 a5 19 17 03 18 cd f1 49 f1 15 51 38 20 e6 31 44
       -91 25 23 3 24 -51 -15 73 -15 21 81 56 32 -26 49 68
000010 f7 0a 7f e3 bd 2b b1 df 37 b7 01 53 ed 00 cf 30
       -9 10 127 -29 -67 43 -79 -33 55 -73 1 83 -19 0 -49 48
000020 bc f8 fa 12 e2 0d 32 14 2b e9 a3 10 2e fd 00 e3
       -68 -8 -6 18 -30 13 50 20 43 -23 -93 16 46 -3 0 -29
000030 cf 1f df 59 33 00 02 1c e6 29 4f ca d9 60 bc 16
       -49 31 -33 89 51 0 2 28 -26 41 79 -54 -39 96 -68 22
000040 fc ee f3 e4 e1 d2 2f db 81 2b b7 cd f3 e5 fb e2
       -4 -18 -13 -28 -31 -46 47 -37 -127 43 -73 -51 -13 -27 -5 -30
000050 19 e4 d4 0d bb ca 93 47 13 12 22 e7 f4 da 32 18
       25 -28 -44 13 -69 -54 -109 71 19 18 34 -25 -12 -38 50 24
000060 21 e1 28 23 1d 1b 38 a8 fe f5 ea 19 cd bf f3 2b
       33 -31 40 35 29 27 56 -88 -2 -11 -22 25 -51 -65 -13 43
000070 1b da 1b f4 38 93 3b 17 eb 15 0d 7f 36 bb 09 10
       27 -38 27 -12 56 -109 59 23 -21 21 13 127 54 -69 9 16
000080 fc 9e 30 c2 1f 37 b4 f7 22 f5 09 2a 41 12 f7 20
       -4 -98 48 -62 31 55 -76 -9 34 -11 9 42 65 18 -9 32
000090 d5 15 f3 91 40 dc 0a e6 c8 db 24 c7 11 fb d8 ef
       -43 21 -13 -111 64 -36 10 -26 -56 -37 36 -57 17 -5 -40 -17
0000a0 0d f3 c5 ee ee 1c 1a e8 e4 f6 ee 21 0b e3 fa 0a
       13 -13 -59 -18 -18 28 26 -24 -28 -10 -18 33 11 -29 -6 10
0000b0 f2 7f 2c cc 32 0c f1 28 15 e3 f0 ee 32 f9 1a d3
       -14 127 44 -52 50 12 -15 40 21 -29 -16 -18 50 -7 26 -45
0000c0 e9 03 34 db 16 18 fb 0a f4 d0 f4 0e 09 1f 05 48
       -23 3 52 -37 22 24 -5 10 -12 -48 -12 14 9 31 5 72
0000d0 18 0d 7f 35 f7 c2 cd 13 1e e8 fc 07 17 f0 1d f4
       24 13 127 53 -9 -62 -51 19 30 -24 -4 7 23 -16 29 -12
0000e0 ff 09 17 fe 0f fd 20 08 1a e7 eb 01 f8 f8 4a 08
       -1 9 23 -2 15 -3 32 8 26 -25 -21 1 -8 -8 74 8
0000f0 49 d0 2e 19 1c 02 07 eb c8 12 06 c5 34 fd cb 60
       73 -48 46 25 28 2 7 -21 -56 18 6 -59 52 -3 -53 96

sequential/model/block_3_expand/Conv2D;StatefulPartitionedCall/sequential/model/block_3_expand/Conv2D i1 [48, 1, 1, 8]
000000 a7 fa 00 f7 7f f1 58 43 a3 3b 81 d7 26 e3 0c 00
       -89 -6 0 -9 127 -15 88 67 -93 59 -127 -41 38 -29 12 0
000010 e8 e9 97 00 ef 7f d3 cf 33 21 fa 9c 4a 51 a3 81
       -24 -23 -105 0 -17 127 -45 -49 51 33 -6 -100 74 81 -93 -127
000020 19 a8 88 81 37 99 33 e7 21 0c 8f 7f d1 ea be 95
       25 -88 -120 -127 55 -103 51 -25 33 12 -113 127 -47 -22 -66 -107
000030 e2 af c2 7f 92 15 fb e6 dd e4 92 81 f9 ad da c9
       -30 -81 -62 127 -110 21 -5 -26 -35 -28 -110 -127 -7 -83 -38 -55
000040 7f d9 a7 9a 32 2c b2 b3 0b 7f cd 13 29 14 1e da
       127 -39 -89 -102 50 44 -78 -77 11 127 -51 19 41 20 30 -38
000050 e7 d2 45 bf 06 22 2f 7f 33 b3 e5 41 d2 60 7f 53
       -25 -46 69 -65 6 34 47 127 51 -77 -27 65 -46 96 127 83
000060 df f4 81 ea 44 36 4e 00 fd 61 de 81 58 9f 84 01
       -33 -12 -127 -22 68 54 78 0 -3 97 -34 -127 88 -97 -124 1
000070 31 17 e0 c9 f3 0f 81 ab 01 7f 39 e9 f3 ee e0 91
       49 23 -32 -55 -13 15 -127 -85 1 127 57 -23 -13 -18 -32 -111
000080 06 06 0c e4 e5 f0 f5 81 dc 26 ff 60 02 c7 16 81
       6 6 12 -28 -27 -16 -11 -127 -36 38 -1 96 2 -57 22 -127
000090 fc 81 c4 fb 4d 03 5e 52 00 0d b9 4d 17 ca 6d 7f
       -4 -127 -60 -5 77 3 94 82 0 13 -71 77 23 -54 109 127
0000a0 81 0a 07 b0 15 ac fa ee e6 3b 7f 09 16 9f d2 21
       -127 10 7 -80 21 -84 -6 -18 -26 59 127 9 22 -97 -46 33
0000b0 22 27 7f 70 56 29 79 1e 47 81 42 d4 c2 d9 c2 fe
       34 39 127 112 86 41 121 30 71 -127 66 -44 -62 -39 -62 -2
0000c0 a3 cf 49 5e 74 7f 3e 52 e6 35 6b d2 2d c9 0a 7f
       -93 -49 73 94 116 127 62 82 -26 53 107 -46 45 -55 10 127
0000d0 ea d6 46 7f 24 5a 9e 61 fa 65 7f 60 22 da 32 4e
       -22 -42 70 127 36 90 -98 97 -6 101 127 96 34 -38 50 78
0000e0 e0 15 54 29 0b a7 1c 7f 3b 3e 44 81 23 10 fe 5f
       -32 21 84 41 11 -89 28 127 59 62 68 -127 35 16 -2 95
0000f0 d4 07 34 e0 81 f4 70 91 79 f3 7f 67 b7 cc dd 02
       -44 7 52 -32 -127 -12 112 -111 121 -13 127 103 -73 -52 -35 2

sequential/model/block_3_project/Conv2D;StatefulPartitionedCall/sequential/model/block_3_project/Conv2D i1 [8, 1, 1, 48]
000000 ef d6 7f 07 ed 19 02 1d 30 fa de 11 e2 0d 3c 42
       -17 -42 127 7 -19 25 2 29 48 -6 -34 17 -30 13 60 66
000010 28 d8 0d b9 f5 20 08 d9 e7 d2 12 f5 a6 37 cf 31
       40 -40 13 -71 -11 32 8 -39 -25 -46 18 -11 -90 55 -49 49
000020 19 0e fe 28 11 d5 01 dd a1 c8 30 bd 44 e1 ad 26
       25 14 -2 40 17 -43 1 -35 -95 -56 48 -67 68 -31 -83 38
000030 f0 20 11 24 c6 e8 49 4e 1a b6 16 27 01 81 1b 4b
       -16 32 17 36 -58 -24 73 78 26 -74 22 39 1 -127 27 75
000040 67 e7 2d 2e 2e d1 b3 d3 20 f7 df d4 e6 34 a8 66
       103 -25 45 46 46 -47 -77 -45 32 -9 -33 -44 -26 52 -88 102
000050 f3 29 ea 34 3f 7b 3a 29 e7 54 4c f7 d6 2b 23 5b
       -13 41 -22 52 63 123 58 41 -25 84 76 -9 -42 43 35 91
000060 1d f8 ff e1 16 18 e4 24 77 f5 2f fb f4 47 34 ea
       29 -8 -1 -31 22 24 -28 36 119 -11 47 -5 -12 71 52 -22
000070 9f 6e 61 2f 04 49 11 7f 0e 57 0f 15 00 9b 1c 1c
       -97 110 97 47 4 73 17 127 14 87 15 21 0 -101 28 28
000080 eb f0 e4 aa e7 11 02 e9 6a 10 e2 19 d3 15 b8 bc
       -21 -16 -28 -86 -25 17 2 -23 106 16 -30 25 -45 21 -72 -68
000090 cf 2f 4d 0f 01 23 07 47 c1 2f ff 20 fe f5 a7 f2
       -49 47 77 15 1 35 7 71 -63 47 -1 32 -2 -11 -89 -14
0000a0 11 ee 25 2d 0a 09 e8 81 ee 02 17 12 d4 ec e8 ef
       17 -18 37 45 10 9 -24 -127 -18 2 23 18 -44 -20 -24 -17
0000b0 02 f8 04 4a c3 f0 e4 4c 1a fe eb 1d eb 34 d0 41
       2 -8 4 74 -61 -16 -28 76 26 -2 -21 29 -21 52 -48 65
0000c0 d5 32 e8 ed f1 cd 10 b6 32 f2 e6 57 10 43 e5 1b
       -43 50 -24 -19 -15 -51 16 -74 50 -14 -26 87 16 67 -27 27
0000d0 03 11 21 f4 9f 31 de 56 3e f7 0d 00 0d 09 d4 b1
       3 17 33 -12 -97 49 -34 86 62 -9 13 0 13 9 -44 -79
0000e0 d5 35 56 09 3c 23 08 17 81 db 0d 20 db 23 15 bc
       -43 53 86 9 60 35 8 23 -127 -37 13 32 -37 35 21 -68
0000f0 1e 23 23 d6 22 e3 e6 2e 51 48 fc af 1a 10 73 f0
       30 35 35 -42 34 -29 -26 46 81 72 -4 -81 26 16 115 -16

sequential/model/block_4_expand/Conv2D;StatefulPartitionedCall/sequential/model/block_4_expand/Conv2D i1 [48, 1, 1, 8]
000000 e9 16 1b 3d 2c 81 37 e5 ff 52 7f 4b 0e 22 4c 90
       -23 22 27 61 44 -127 55 -27 -1 82 127 75 14 34 76 -112
000010 2f 18 27 1f 7f 4d db f7 b9 85 ad 7f 45 76 8d 94
       47 24 39 31 127 77 -37 -9 -71 -123 -83 127 69 118 -115 -108
000020 09 81 2d d8 18 52 25 da f7 33 e1 53 91 40 7f 51
       9 -127 45 -40 24 82 37 -38 -9 51 -31 83 -111 64 127 81
000030 a3 04 81 59 00 3a 07 c5 31 06 7f 29 1f da 03 09
       -93 4 -127 89 0 58 7 -59 49 6 127 41 31 -38 3 9
000040 42 13 13 bf e1 7f bd 0a 7f e7 f4 a5 53 38 f1 f9
       66 19 19 -65 -31 127 -67 10 127 -25 -12 -91 83 56 -15 -7
000050 cb 81 a7 43 96 2a 02 1f 89 fe 81 24 c8 c2 48 42
       -53 -127 -89 67 -106 42 2 31 -119 -2 -127 36 -56 -62 72 66
000060 b0 fe 81 a0 d3 47 e7 f3 89 81 4c 3b 9f 1c f3 2d
       -80 -2 -127 -96 -45 71 -25 -13 -119 -127 76 59 -97 28 -13 45
000070 a3 6c 0c 7f 18 76 0c 63 f1 a6 93 db 67 cf 81 98
       -93 108 12 127 24 118 12 99 -15 -90 -109 -37 103 -49 -127 -104
000080 cb 81 ea 51 44 2d d2 e9 6b 17 41 18 f8 5f 81 9b
       -53 -127 -22 81 68 45 -46 -23 107 23 65 24 -8 95 -127 -101
000090 e9 73 42 09 23 fe 9f 7f 0e 1d e6 ae 7f 9a e9 2f
       -23 115 66 9 35 -2 -97 127 14 29 -26 -82 127 -102 -23 47
0000a0 b8 df 81 e7 19 23 ca e5 e3 6d 26 7f bc 32 40 18
       -72 -33 -127 -25 25 35 -54 -27 -29 109 38 127 -68 50 64 24
0000b0 65 d5 32 25 7a 02 9c 81 81 3b 37 2e e0 2a 1f e7
       101 -43 50 37 122 2 -100 -127 -127 59 55 46 -32 42 31 -25
0000c0 83 f7 f7 7d 59 7f cd dd 17 ca ea 2a 48 1a a7 81
       -125 -9 -9 125 89 127 -51 -35 23 -54 -22 42 72 26 -89 -127
0000d0 81 18 82 97 97 54 f1 ee 48 81 0d ae fc c0 de da
       -127 24 -126 -105 -105 84 -15 -18 72 -127 13 -82 -4 -64 -34 -38
0000e0 a0 0a 81 5c 9e 48 89 15 5a 1d 81 0b 9f ed c0 ae
       -96 10 -127 92 -98 72 -119 21 90 29 -127 11 -97 -19 -64 -82
0000f0 f8 1c 67 17 81 58 65 e7 a8 69 a3 81 ed e5 1c 6a
       -8 28 103 23 -127 88 101 -25 -88 105 -93 -127 -19 -27 28 106

sequential/model/block_4_project/Conv2D;StatefulPartitionedCall/sequential/model/block_4_project/Conv2D i1 [8, 1, 1, 48]
000000 2d df ec cd 45 f7 2a b6 fc a2 37 e9 db 23 20 17
       45 -33 -20 -51 69 -9 42 -74 -4 -94 55 -23 -37 35 32 23
000010 dc 71 24 e1 31 d2 ba 64 14 cd fa 3d 32 f3 f8 39
       -36 113 36 -31 49 -46 -70 100 20 -51 -6 61 50 -13 -8 57
000020 81 07 db d9 19 1b 46 f0 2c fd 0a eb cb f1 c5 dc
       -127 7 -37 -39 25 27 70 -16 44 -3 10 -21 -53 -15 -59 -36
000030 34 d7 17 d9 4e 0c d3 1a e8 ec f9 36 de 36 96 81
       52 -41 23 -39 78 12 -45 26 -24 -20 -7 54 -34 54 -106 -127
000040 d6 ea 33 f1 11 cc 43 fd a3 3a 1d ff 4b e0 07 01
       -42 -22 51 -15 17 -52 67 -3 -93 58 29 -1 75 -32 7 1
000050 e3 d4 b6 ba ef 13 e9 dc 03 cb ca fe 23 9f ed 0f
       -29 -44 -74 -70 -17 19 -23 -36 3 -53 -54 -2 35 -97 -19 15
000060 6c 8c 51 d3 51 1b f3 d3 d8 c5 e7 9c de b4 3d e9
       108 -116 81 -45 81 27 -13 -45 -40 -59 -25 -100 -34 -76 61 -23
000070 28 4b 19 9e 02 7b cc 4e e3 06 e0 c7 c9 57 f3 d3
       40 75 25 -98 2 123 -52 78 -29 6 -32 -57 -55 87 -13 -45
000080 6e de 7f 5e 37 a2 f9 76 08 d6 c3 c9 34 35 ad ff
       110 -34 127 94 55 -94 -7 118 8 -42 -61 -55 52 53 -83 -1
000090 46 0d 2b 01 e5 14 15 10 2e de ea bf 3b cd b9 b3
       70 13 43 1 -27 20 21 16 46 -34 -22 -65 59 -51 -71 -77
0000a0 23 c6 18 3a d2 42 29 f0 e5 fa cb d0 f5 33 ff 44
       35 -58 24 58 -46 66 41 -16 -27 -6 -53 -48 -11 51 -1 68
0000b0 c4 c0 13 c8 81 0a 19 cc fb ff 0c 18 75 f6 24 fe
       -60 -64 19 -56 -127 10 25 -52 -5 -1 12 24 117 -10 36 -2
0000c0 a1 b0 1b ff 5e 41 1d d7 f4 12 20 e9 81 ee c4 fe
       -95 -80 27 -1 94 65 29 -41 -12 18 32 -23 -127 -18 -60 -2
0000d0 1f 0a 63 b9 e9 25 c5 47 09 ec aa 11 2f 18 1d e6
       31 10 99 -71 -23 37 -59 71 9 -20 -86 17 47 24 29 -26
0000e0 0e da fd 22 43 c0 1e 47 fb a3 db bf 02 bf 81 f7
       14 -38 -3 34 67 -64 30 71 -5 -93 -37 -65 2 -65 -127 -9
0000f0 35 fa 33 f2 3b 36 43 9d 95 39 dc cb c7 fe 90 da
       53 -6 51 -14 59 54 67 -99 -107 57 -36 -53 -57 -2 -112 -38

sequential/model/block_5_expand/Conv2D;StatefulPartitionedCall/sequential/model/block_5_expand/Conv2D i1 [48, 1, 1, 8]
000000 d6 db 81 78 7e a3 ca d3 f0 f5 7f 21 b9 da 1b 20
       -42 -37 -127 120 126 -93 -54 -45 -16 -11 127 33 -71 -38 27 32
000010 16 7f 2a 01 ce 40 ea 62 32 2e 4f aa 9d bd 53 7f
       22 127 42 1 -50 64 -22 98 50 46 79 -86 -99 -67 83 127
000020 ed 2f ed 33 fb 81 77 00 81 f8 77 23 d9 a9 db ec
       -19 47 -19 51 -5 -127 119 0 -127 -8 119 35 -39 -87 -37 -20
000030 d8 05 dc 06 08 e7 b7 81 ea 61 7f 01 a3 ca 21 34
       -40 5 -36 6 8 -25 -73 -127 -22 97 127 1 -93 -54 33 52
000040 fb 58 7d 71 fb ee a1 81 fa 0b 06 a6 10 f8 06 7f
       -5 88 125 113 -5 -18 -95 -127 -6 11 6 -90 16 -8 6 127
000050 7f e1 70 ed 2b 43 2a 8f 7f b3 cb 59 4d a0 71 fa
       127 -31 112 -19 43 67 42 -113 127 -77 -53 89 77 -96 113 -6
000060 81 46 fa 13 dd 13 34 d2 f9 0f ad 0d 7f d4 a1 be
       -127 70 -6 19 -35 19 52 -46 -7 15 -83 13 127 -44 -95 -66
000070 04 b3 a7 e8 78 a4 81 d4 21 df 5a f8 7f ef c6 c1
       4 -77 -89 -24 120 -92 -127 -44 33 -33 90 -8 127 -17 -58 -63
000080 cf f1 a2 6a 7f f8 9b d9 78 25 9d 1e b9 1e a6 7f
       -49 -15 -94 106 127 -8 -101 -39 120 37 -99 30 -71 30 -90 127
000090 47 7f 41 df 36 06 04 08 c6 24 e0 d2 19 97 45 81
       71 127 65 -33 54 6 4 8 -58 36 -32 -46 25 -105 69 -127
0000a0 b8 61 35 f1 81 66 47 c2 1c cf 18 d3 ff e6 35 7f
       -72 97 53 -15 -127 102 71 -62 28 -49 24 -45 -1 -26 53 127
0000b0 7f da 16 fb 4f ba cb 51 88 3c 9e 20 7f 39 92 b5
       127 -38 22 -5 79 -70 -53 81 -120 60 -98 32 127 57 -110 -75
0000c0 9a 22 eb bf 1a e6 81 5c d2 f0 2f f3 f3 7f ef f4
       -102 34 -21 -65 26 -26 -127 92 -46 -16 47 -13 -13 127 -17 -12
0000d0 7f e7 ec 0d 3c 1a 15 f6 dc a1 f9 7f 7a 3f c1 aa
       127 -25 -20 13 60 26 21 -10 -36 -95 -7 127 122 63 -63 -86
0000e0 c6 47 cf 7f 31 00 ba dc 1c 3a ef e0 9d 2f 81 00
       -58 71 -49 127 49 0 -70 -36 28 58 -17 -32 -99 47 -127 0
0000f0 55 0b 40 9a 81 d1 4f 14 4c 11 ec 81 36 4d cb c2
       85 11 64 -102 -127 -47 79 20 76 17 -20 -127 54 77 -53 -62

sequential/model/block_5_project/Conv2D;StatefulPartitionedCall/sequential/model/block_5_project/Conv2D i1 [8, 1, 1, 48]
000000 9a 01 ca 03 47 27 3f 6e 38 9f bc 08 81 f3 f6 d6
       -102 1 -54 3 71 39 63 110 56 -97 -68 8 -127 -13 -10 -42
000010 f5 02 14 97 41 b8 78 e3 b4 b1 b3 07 cf 30 83 46
       -11 2 20 -105 65 -72 120 -29 -76 -79 -77 7 -49 48 -125 70
000020 d4 71 da 11 32 19 a8 59 cb cb c4 38 c7 f8 e1 b9
       -44 113 -38 17 50 25 -88 89 -53 -53 -60 56 -57 -8 -31 -71
000030 01 e3 f5 c8 39 c5 15 22 fe d4 dc f8 0a bc c0 e2
       1 -29 -11 -56 57 -59 21 34 -2 -44 -36 -8 10 -68 -64 -30
000040 ed b9 32 0b 05 e0 f5 e2 00 dc d0 ff 81 1f 8e 3b
       -19 -71 50 11 5 -32 -11 -30 0 -36 -48 -1 -127 31 -114 59
000050 c1 34 09 c1 9c e3 e0 e7 c9 af e0 11 2e ce 9e da
       -63 52 9 -63 -100 -29 -32 -25 -55 -81 -32 17 46 -50 -98 -38
000060 cf 0a 23 0c e0 e4 0f af 7f 9f a7 4c e2 23 01 19
       -49 10 35 12 -32 -28 15 -81 127 -97 -89 76 -30 35 1 25
000070 f5 bb 4c ec cf 25 41 3d e1 e6 0c 15 eb 1f ac 24
       -11 -69 76 -20 -49 37 65 61 -31 -26 12 21 -21 31 -84 36
000080 1a 60 cd 22 d3 d8 05 4a cc f0 e8 3e 04 1c c5 1f
       26 96 -51 34 -45 -40 5 74 -52 -16 -24 62 4 28 -59 31
000090 7f 40 f5 c8 25 31 bb ba 21 00 dd de f1 00 e9 24
       127 64 -11 -56 37 49 -69 -70 33 0 -35 -34 -15 0 -23 36
0000a0 20 00 d7 3f ae 37 df 13 c4 c6 d8 e7 fa 07 15 f5
       32 0 -41 63 -82 55 -33 19 -60 -58 -40 -25 -6 7 21 -11
0000b0 c4 fb f2 c9 e5 20 26 b7 a9 ee ff d6 4a f8 b9 27
       -60 -5 -14 -55 -27 32 38 -73 -87 -18 -1 -42 74 -8 -71 39
0000c0 ef d3 f8 34 28 0d 11 e2 eb ce 34 4d fa a4 cb 96
       -17 -45 -8 52 40 13 17 -30 -21 -50 52 77 -6 -92 -53 -106
0000d0 6d f1 47 62 c4 f4 53 c2 c8 ea 11 0a 16 81 3f eb
       109 -15 71 98 -60 -12 83 -62 -56 -22 17 10 22 -127 63 -21
0000e0 d1 c5 a2 1e 1e af cb 03 4e 13 cf 5e 45 39 e7 26
       -47 -59 -94 30 30 -81 -53 3 78 19 -49 94 69 57 -25 38
0000f0 2c e3 6d f5 2c 2f 58 be 7f 09 29 0d 08 0c 0b 51
       44 -29 109 -11 44 47 88 -66 127 9 41 13 8 12 11 81

sequential/model/block_6_expand/Conv2D;StatefulPartitionedCall/sequential/model/block_6_expand/Conv2D i1 [48, 1, 1, 8]
000000 e6 81 25 e2 42 cf 02 b7 d3 c6 2a d3 b2 5b 81 5c
       -26 -127 37 -30 66 -49 2 -73 -45 -58 42 -45 -78 91 -127 92
000010 8a 01 dc 9d fe 81 14 9d ca eb 24 d4 7a ac 81 23
       -118 1 -36 -99 -2 -127 20 -99 -54 -21 36 -44 122 -84 -127 35
000020 46 f4 9e bf 12 c7 81 7b 31 cf 8f f8 6a a2 ee 81
       70 -12 -98 -65 18 -57 -127 123 49 -49 -113 -8 106 -94 -18 -127
000030 36 e2 7f 51 dd 14 bc 17 d1 e5 81 2d 10 74 de 27
       54 -30 127 81 -35 20 -68 23 -47 -27 -127 45 16 116 -34 39
000040 37 ff ad e1 c4 7f b8 ad b5 d5 17 f3 39 dc 81 17
       55 -1 -83 -31 -60 127 -72 -83 -75 -43 23 -13 57 -36 -127 23
000050 41 15 55 8b 7f 0d ed cb 26 f8 36 81 01 25 3d 19
       65 21 85 -117 127 13 -19 -53 38 -8 54 -127 1 37 61 25
000060 10 db d6 7f a9 f4 09 57 35 81 21 d2 ad 23 48 fc
       16 -37 -42 127 -87 -12 9 87 53 -127 33 -46 -83 35 72 -4
000070 d9 6e 01 2c 2d 66 81 ee e9 ea ef 9a 7f e0 86 94
       -39 110 1 44 45 102 -127 -18 -23 -22 -17 -102 127 -32 -122 -108
000080 3e f8 f3 40 79 47 81 e1 7f c9 4c 51 2f 27 f0 df
       62 -8 -13 64 121 71 -127 -31 127 -55 76 81 47 39 -16 -33
000090 43 09 71 6c 7f 94 0b 36 2f cc a2 f2 7a 81 ec c0
       67 9 113 108 127 -108 11 54 47 -52 -94 -14 122 -127 -20 -64
0000a0 cf 04 af 4c 7f d1 aa 18 e0 2f c4 ab 7f f8 55 08
       -49 4 -81 76 127 -47 -86 24 -32 47 -60 -85 127 -8 85 8
0000b0 30 03 28 a7 81 d8 76 5c b4 dd e0 b2 18 52 81 b1
       48 3 40 -89 -127 -40 118 92 -76 -35 -32 -78 24 82 -127 -79
0000c0 e5 e6 37 bf 07 d8 57 7f 7f d3 fa 4a 48 52 fd 19
       -27 -26 55 -65 7 -40 87 127 127 -45 -6 74 72 82 -3 25
0000d0 28 df d0 a1 99 81 f8 97 be ec 95 81 bd 51 d5 e3
       40 -33 -48 -95 -103 -127 -8 -105 -66 -20 -107 -127 -67 81 -43 -29
0000e0 fd 81 cd 50 47 ce 1b 52 81 cd 2d de da b9 8d 66
       -3 -127 -51 80 71 -50 27 82 -127 -51 45 -34 -38 -71 -115 102
0000f0 00 85 15 ca 6e dd 04 7f fd 14 01 2a e0 33 f5 7f
       0 -123 21 -54 110 -35 4 127 -3 20 1 42 -32 51 -11 127

sequential/model/block_6_project/Conv2D;StatefulPartitionedCall/sequential/model/block_6_project/Conv2D i1 [8, 1, 1, 48]
000000 f4 d5 25 46 de 75 9b 46 c8 bb 32 af 1f 10 11 04
       -12 -43 37 70 -34 117 -101 70 -56 -69 50 -81 31 16 17 4
000010 e3 ec 69 b0 f5 c3 08 19 c1 06 18 48 03 79 23 3b
       -29 -20 105 -80 -11 -61 8 25 -63 6 24 72 3 121 35 59
000020 b5 03 00 22 e4 31 ff 6b 81 18 fb db a7 2c 02 10
       -75 3 0 34 -28 49 -1 107 -127 24 -5 -37 -89 44 2 16
000030 3e 5d 15 40 03 d1 e2 17 03 c7 07 d4 dd fb 08 1c
       62 93 21 64 3 -47 -30 23 3 -57 7 -44 -35 -5 8 28
000040 3c fb 5d 40 0e 79 e9 b0 24 de 30 7f e2 d0 1d e2
       60 -5 93 64 14 121 -23 -80 36 -34 48 127 -30 -48 29 -30
000050 d8 e3 b6 1e c2 0c e6 fa 02 ec bf bf f6 12 57 68
       -40 -29 -74 30 -62 12 -26 -6 2 -20 -65 -65 -10 18 87 104
000060 47 11 d4 e8 0d 24 d0 43 e0 09 fb 3a c3 cb 58 2a
       71 17 -44 -24 13 36 -48 67 -32 9 -5 58 -61 -53 88 42
000070 31 b6 20 21 8d dd 58 a2 47 05 a3 70 7f eb cd dd
       49 -74 32 33 -115 -35 88 -94 71 5 -93 112 127 -21 -51 -35
000080 95 ea 4a 0d c0 e8 e4 e1 10 af c1 19 fe ad 05 04
       -107 -22 74 13 -64 -24 -28 -31 16 -81 -63 25 -2 -83 5 4
000090 1e 16 17 ec cb 0d eb 37 06 1a da 2a 16 da ec fe
       30 22 23 -20 -53 13 -21 55 6 26 -38 42 22 -38 -20 -2
0000a0 c5 21 fc fb b7 3a 2a fa 81 fe f6 34 dd fa 3e 05
       -59 33 -4 -5 -73 58 42 -6 -127 -2 -10 52 -35 -6 62 5
0000b0 cb 29 0b 08 14 db f7 e2 04 4f 2b 2b f7 27 1d cc
       -53 41 11 8 20 -37 -9 -30 4 79 43 43 -9 39 29 -52
0000c0 9f 2b 63 ec 99 47 0c 88 c1 23 ab 0e ec 13 78 2b
       -97 43 99 -20 -103 71 12 -120 -63 35 -85 14 -20 19 120 43
0000d0 00 aa 5f c2 f1 7f 0f b6 df b8 5f 3b 2e ed dc f8
       0 -86 95 -62 -15 127 15 -74 -33 -72 95 59 46 -19 -36 -8
0000e0 26 ae 9a 0e 62 41 e9 2f f4 42 bb 8a 09 71 bb ec
       38 -82 -102 14 98 65 -23 47 -12 66 -69 -118 9 113 -69 -20
0000f0 81 10 3a cc 29 31 2e f6 f0 08 4b e0 e9 14 19 23
       -127 16 58 -52 41 49 46 -10 -16 8 75 -32 -23 20 25 35

sequential/model/block_7_expand/Conv2D;StatefulPartitionedCall/sequential/model/block_7_expand/Conv2D i1 [48, 1, 1, 8]
000000 46 0a 50 20 1b 81 f8 e9 18 1b c9 7f 02 2f b3 f0
       70 10 80 32 27 -127 -8 -23 24 27 -55 127 2 47 -77 -16
000010 81 b4 fd 31 05 64 b0 48 ca f6 71 81 a5 e1 fb 37
       -127 -76 -3 49 5 100 -80 72 -54 -10 113 -127 -91 -31 -5 55
000020 9e cc 66 81 62 0f 41 a5 de 61 a2 99 e7 cb 3b 7f
       -98 -52 102 -127 98 15 65 -91 -34 97 -94 -103 -25 -53 59 127
000030 ea ff 33 b4 81 e8 3a 16 9b ea 5e 24 36 22 7f f9
       -22 -1 51 -76 -127 -24 58 22 -101 -22 94 36 54 34 127 -7
000040 05 b4 df a5 dd 81 da 2f f5 40 55 fb 04 7f f6 3e
       5 -76 -33 -91 -35 -127 -38 47 -11 64 85 -5 4 127 -10 62
000050 1d f9 57 de 5d 7f f3 06 ed 4a 35 1a 36 f5 81 44
       29 -7 87 -34 93 127 -13 6 -19 74 53 26 54 -11 -127 68
000060 0c 37 f6 81 5e db da c6 2f 42 13 b8 7f 53 c8 0c
       12 55 -10 -127 94 -37 -38 -58 47 66 19 -72 127 83 -56 12
000070 7f d9 11 fb f6 af 0f 1c 81 ca f1 ea 57 f8 28 eb
       127 -39 17 -5 -10 -81 15 28 -127 -54 -15 -22 87 -8 40 -21
000080 81 18 09 f6 14 7b c7 bf 5a 34 0e 7f eb a1 12 eb
       -127 24 9 -10 20 123 -57 -65 90 52 14 127 -21 -95 18 -21
000090 b3 e6 27 df 85 b4 7f 23 2a 78 0d 7f d2 a7 99 59
       -77 -26 39 -33 -123 -76 127 35 42 120 13 127 -46 -89 -103 89
0000a0 5a b0 85 fa 8e 7f 0f 84 de be 5c 7f ea 5f df 65
       90 -80 -123 -6 -114 127 15 -124 -34 -66 92 127 -22 95 -33 101
0000b0 d2 81 3b f2 40 b2 0d a1 65 72 e9 16 83 28 7f f7
       -46 -127 59 -14 64 -78 13 -95 101 114 -23 22 -125 40 127 -9
0000c0 22 e4 0f 3a 45 7f f0 cf d3 81 b4 f0 1b 0b 47 bb
       34 -28 15 58 69 127 -16 -49 -45 -127 -76 -16 27 11 71 -69
0000d0 9b f4 1a 0e 81 5e 88 35 28 a1 3d 7f a2 39 b4 bc
       -101 -12 26 14 -127 94 -120 53 40 -95 61 127 -94 57 -76 -68
0000e0 27 14 09 13 34 7f cf ec 81 01 d1 6d 26 f9 da f3
       39 20 9 19 52 127 -49 -20 -127 1 -47 109 38 -7 -38 -13
0000f0 38 3b f0 52 eb 7f 0c 0f 7f b7 c0 13 a6 a6 dc 30
       56 59 -16 82 -21 127 12 15 127 -73 -64 19 -90 -90 -36 48

sequential/model/block_7_project/Conv2D;StatefulPartitionedCall/sequential/model/block_7_project/Conv2D i1 [8, 1, 1, 48]
000000 e3 ef 07 35 ea f3 e3 dd f8 f9 00 d6 19 ef 15 0b
       -29 -17 7 53 -22 -13 -29 -35 -8 -7 0 -42 25 -17 21 11
000010 c1 17 f4 18 d5 06 13 21 fb de 35 0b 28 15 ce c8
       -63 23 -12 24 -43 6 19 33 -5 -34 53 11 40 21 -50 -56
000020 ed 09 d4 da 1c e4 0e 2b 02 e0 f3 81 f8 de 05 f6
       -19 9 -44 -38 28 -28 14 43 2 -32 -13 -127 -8 -34 5 -10
000030 dc f7 35 0e d3 22 e3 04 d7 e5 00 08 39 fb c6 cb
       -36 -9 53 14 -45 34 -29 4 -41 -27 0 8 57 -5 -58 -53
000040 f3 ef f2 39 09 02 91 7f 32 c4 f0 a8 c0 d3 bd 14
       -13 -17 -14 57 9 2 -111 127 50 -60 -16 -88 -64 -45 -67 20
000050 28 fc f8 b2 5e 16 fa 0b 38 06 e8 2a a5 0b 17 ea
       40 -4 -8 -78 94 22 -6 11 56 6 -24 42 -91 11 23 -22
000060 f1 2a c9 eb 1b 0a 30 fc df d3 0e 37 e1 e1 ee f5
       -15 42 -55 -21 27 10 48 -4 -33 -45 14 55 -31 -31 -18 -11
000070 13 22 0d 09 1b 42 0b 20 28 df e5 e6 d5 02 e7 d6
       19 34 13 9 27 66 11 32 40 -33 -27 -26 -43 2 -25 -42
000080 0f 21 2b da 2e 35 1b ed 1d 42 ed 81 1c 02 18 e2
       15 33 43 -38 46 53 27 -19 29 66 -19 -127 28 2 24 -30
000090 20 99 c9 1f a8 ff bb 1d 36 23 33 f5 de 4e f0 cc
       32 -103 -55 31 -88 -1 -69 29 54 35 51 -11 -34 78 -16 -52
0000a0 c3 f9 1c 5a 0e e0 18 08 bc c3 0e 7f 5d 4d ec 14
       -61 -7 28 90 14 -32 24 8 -68 -61 14 127 93 77 -20 20
0000b0 de b5 e4 41 1c d4 d4 22 d4 af 1d 2e 0d f1 e1 f4
       -34 -75 -28 65 28 -44 -44 34 -44 -81 29 46 13 -15 -31 -12
0000c0 cc 2a 40 76 5c 93 c6 50 36 f9 13 4e 0f de 7f 00
       -52 42 64 118 92 -109 -58 80 54 -7 19 78 15 -34 127 0
0000d0 f6 51 ae f4 f1 36 3c e7 22 ee 45 c4 c2 3c 18 27
       -10 81 -82 -12 -15 54 60 -25 34 -18 69 -60 -62 60 24 39
0000e0 11 46 04 3a 0a 00 32 fb 24 2c fc 72 fd 60 28 ce
       17 70 4 58 10 0 50 -5 36 44 -4 114 -3 96 40 -50
0000f0 05 e4 e0 39 0f ef fd fb be ea f6 d2 08 f0 d4 ee
       5 -28 -32 57 15 -17 -3 -5 -66 -22 -10 -46 8 -16 -44 -18

sequential/model/block_8_expand/Conv2D;StatefulPartitionedCall/sequential/model/block_8_expand/Conv2D i1 [48, 1, 1, 8]
000000 ce 81 dd 3f 84 76 19 28 39 ef 86 f8 f2 7f 30 39
       -50 -127 -35 63 -124 118 25 40 57 -17 -122 -8 -14 127 48 57
000010 ba 87 81 ed a3 f4 12 1c 9e 45 6d e1 38 87 33 7f
       -70 -121 -127 -19 -93 -12 18 28 -98 69 109 -31 56 -121 51 127
000020 d9 a6 63 e1 ff 00 7f 21 17 f8 7f f8 de cb f8 56
       -39 -90 99 -31 -1 0 127 33 23 -8 127 -8 -34 -53 -8 86
000030 da e1 1f 10 cd 81 ba cf 1a 2a 9d f3 7f 4e f7 e4
       -38 -31 31 16 -51 -127 -70 -49 26 42 -99 -13 127 78 -9 -28
000040 08 0e 81 07 e7 f0 9c 40 df 1d 17 b7 5b 81 d0 02
       8 14 -127 7 -25 -16 -100 64 -33 29 23 -73 91 -127 -48 2
000050 be 81 a1 07 8f ee ff 15 f5 86 7b 7f 0b f9 f6 f6
       -66 -127 -95 7 -113 -18 -1 21 -11 -122 123 127 11 -7 -10 -10
000060 81 37 f3 0e 24 e2 e9 ec e3 f5 f8 02 7f cd 14 1c
       -127 55 -13 14 36 -30 -23 -20 -29 -11 -8 2 127 -51 20 28
000070 21 46 81 49 2e e6 b9 a3 bd 6f d3 81 cd 9f 15 2e
       33 70 -127 73 46 -26 -71 -93 -67 111 -45 -127 -51 -97 21 46
000080 7f ed 5b fd 16 f9 ec 09 dd 13 81 c4 d3 60 51 37
       127 -19 91 -3 22 -7 -20 9 -35 19 -127 -60 -45 96 81 55
000090 ef 53 e4 d6 e8 4e 7f 5b ea 2b eb 30 8f 42 7f 82
       -17 83 -28 -42 -24 78 127 91 -22 43 -21 48 -113 66 127 -126
0000a0 3e 03 e5 e7 7f 00 ab b6 d9 f5 f1 97 f0 7f 3b 15
       62 3 -27 -25 127 0 -85 -74 -39 -11 -15 -105 -16 127 59 21
0000b0 00 71 4a da 7f d3 eb 24 cf 63 b0 aa d3 81 23 e7
       0 113 74 -38 127 -45 -21 36 -49 99 -80 -86 -45 -127 35 -25
0000c0 13 2b d6 3d 1f 20 29 7f 13 81 85 53 98 24 fa c2
       19 43 -42 61 31 32 41 127 19 -127 -123 83 -104 36 -6 -62
0000d0 0c e4 2a 33 19 21 81 b5 57 a4 e7 b7 d8 81 3e f3
       12 -28 42 51 25 33 -127 -75 87 -92 -25 -73 -40 -127 62 -13
0000e0 d8 59 ce 81 de b7 a1 dc 7f b0 e8 ef 2f 21 22 44
       -40 89 -50 -127 -34 -73 -95 -36 127 -80 -24 -17 47 33 34 68
0000f0 e2 f5 7f b2 1f 92 24 ef db e3 6e e3 7f 0c fc 69
       -30 -11 127 -78 31 -110 36 -17 -37 -29 110 -29 127 12 -4 105

sequential/model/block_8_project/Conv2D;StatefulPartitionedCall/sequential/model/block_8_project/Conv2D i1 [8, 1, 1, 48]
000000 10 1f 18 2f 1f 62 d7 dd ea 12 cb e4 81 d9 fb e7
       16 31 24 47 31 98 -41 -35 -22 18 -53 -28 -127 -39 -5 -25
000010 bf f1 c5 e2 14 b2 39 09 d9 23 2a 5f 06 00 cb f2
       -65 -15 -59 -30 20 -78 57 9 -39 35 42 95 6 0 -53 -14
000020 3f 00 2d 13 dd cf 4c 05 19 05 f1 fb fc f4 d7 04
       63 0 45 19 -35 -49 76 5 25 5 -15 -5 -4 -12 -41 4
000030 2c e0 3f cc d2 06 0f 01 fd 78 86 cb 08 f8 30 1f
       44 -32 63 -52 -46 6 15 1 -3 120 -122 -53 8 -8 48 31
000040 c8 c2 ec f4 e7 fb a1 81 dc 58 d2 f0 04 f4 fc 28
       -56 -62 -20 -12 -25 -5 -95 -127 -36 88 -46 -16 4 -12 -4 40
000050 f8 de 33 dc 25 c9 48 f1 e6 d6 00 5d e7 08 33 1e
       -8 -34 51 -36 37 -55 72 -15 -26 -42 0 93 -25 8 51 30
000060 e3 06 34 11 f1 1e fb 07 21 0a c4 e1 fd 45 0b 0f
       -29 6 52 17 -15 30 -5 7 33 10 -60 -31 -3 69 11 15
000070 3b 49 af de b8 15 f5 0f de 15 b1 04 b4 e5 da 6c
       59 73 -81 -34 -72 21 -11 15 -34 21 -79 4 -76 -27 -38 108
000080 c2 12 b8 a8 1f 46 11 da fd fc de 81 c8 d1 14 22
       -62 18 -72 -88 31 70 17 -38 -3 -4 -34 -127 -56 -47 20 34
000090 f9 15 24 f9 fd c2 da 0a 04 81 e0 26 11 e0 e1 bb
       -7 21 36 -7 -3 -62 -38 10 4 -127 -32 38 17 -32 -31 -69
0000a0 f4 41 0f 30 1d 27 01 66 fe e3 36 eb 02 17 03 11
       -12 65 15 48 29 39 1 102 -2 -29 54 -21 2 23 3 17
0000b0 f8 0f 21 0b c5 f9 da fa 14 e5 ff 13 fb 13 fc 12
       -8 15 33 11 -59 -7 -38 -6 20 -27 -1 19 -5 19 -4 18
0000c0 0e c6 28 03 ff b6 14 3c e8 7f e3 df 32 d5 2b 03
       14 -58 40 3 -1 -74 20 60 -24 127 -29 -33 50 -43 43 3
0000d0 0b 17 f4 e4 18 0c ea df df 12 ee 06 0f 0d 07 28
       11 23 -12 -28 24 12 -22 -33 -33 18 -18 6 15 13 7 40
0000e0 e1 13 f2 0a 1b 1f 3b d9 c6 f6 d6 dd e3 c2 34 fc
       -31 19 -14 10 27 31 59 -39 -58 -10 -42 -35 -29 -62 52 -4
0000f0 c1 c9 08 2c f9 ad ab b9 7a ac 06 b2 01 66 d9 dd
       -63 -55 8 44 -7 -83 -85 -71 122 -84 6 -78 1 102 -39 -35

sequential/model/block_9_expand/Conv2D;StatefulPartitionedCall/sequential/model/block_9_expand/Conv2D i1 [48, 1, 1, 8]
000000 42 e0 11 bd d5 33 12 81 51 bb 3a 0c 03 dd 81 14
       66 -32 17 -67 -43 51 18 -127 81 -69 58 12 3 -35 -127 20
000010 ba 26 94 81 d2 f7 b7 be 22 27 68 e6 25 db 81 cf
       -70 38 -108 -127 -46 -9 -73 -66 34 39 104 -26 37 -37 -127 -49
000020 f1 1e 28 8d 4d 81 18 e2 1e f7 bb 81 e4 d6 aa ce
       -15 30 40 -115 77 -127 24 -30 30 -9 -69 -127 -28 -42 -86 -50
000030 f2 10 1c e5 09 81 b1 01 8a 72 2d 7f 2e 3c f9 5d
       -14 16 28 -27 9 -127 -79 1 -118 114 45 127 46 60 -7 93
000040 c7 f4 0e c0 e3 81 fe d2 f5 0f fc 21 7f be 19 f7
       -57 -12 14 -64 -29 -127 -2 -46 -11 15 -4 33 127 -66 25 -9
000050 6a d3 81 4f ed 5a 93 1a 7f 29 2a 3e 04 f2 c0 83
       106 -45 -127 79 -19 90 -109 26 127 41 42 62 4 -14 -64 -125
000060 98 14 7f 03 b8 b3 3b 69 3e 4e 52 cc f1 11 81 f3
       -104 20 127 3 -72 -77 59 105 62 78 82 -52 -15 17 -127 -13
000070 59 ca 30 9e 44 81 09 df 54 4c 1d f8 81 18 2c bf
       89 -54 48 -98 68 -127 9 -33 84 76 29 -8 -127 24 44 -65
000080 1a 39 7f 41 51 b3 1b ff 7f 3e c4 6c 60 e3 bf 07
       26 57 127 65 81 -77 27 -1 127 62 -60 108 96 -29 -65 7
000090 24 e6 11 97 df 81 3e d0 db fc 7f 00 32 9b 37 fc
       36 -26 17 -105 -33 -127 62 -48 -37 -4 127 0 50 -101 55 -4
0000a0 2f dd ff df 21 81 07 00 23 85 3e 7f bd 4d cc 02
       47 -35 -1 -33 33 -127 7 0 35 -123 62 127 -67 77 -52 2
0000b0 e1 3d ab 17 81 0a f0 7c 44 db ca e6 1f 7f 8b ec
       -31 61 -85 23 -127 10 -16 124 68 -37 -54 -26 31 127 -117 -20
0000c0 8c 2c 6f ec 7f 34 c8 d4 b9 05 81 f7 d3 4c d9 3f
       -116 44 111 -20 127 52 -56 -44 -71 5 -127 -9 -45 76 -39 63
0000d0 7f c6 fd 0b 4f 44 ca 18 e3 81 eb 69 d3 20 c9 d4
       127 -58 -3 11 79 68 -54 24 -29 -127 -21 105 -45 32 -55 -44
0000e0 db 3e 1c ee 50 81 5c 5b d5 99 b8 b8 0f 81 78 1e
       -37 62 28 -18 80 -127 92 91 -43 -103 -72 -72 15 -127 120 30
0000f0 e3 d9 81 06 06 7d 48 10 0b dd ec 2f a4 51 7f bc
       -29 -39 -127 6 6 125 72 16 11 -35 -20 47 -92 81 127 -68

sequential/model/block_9_project/Conv2D;StatefulPartitionedCall/sequential/model/block_9_project/Conv2D i1 [8, 1, 1, 48]
000000 b4 6b c9 08 ef fe 1f 81 e3 39 10 5c f9 e0 17 ca
       -76 107 -55 8 -17 -2 31 -127 -29 57 16 92 -7 -32 23 -54
000010 18 ff 25 00 04 37 e3 a3 a5 33 b4 aa 2b 1b 35 05
       24 -1 37 0 4 55 -29 -93 -91 51 -76 -86 43 27 53 5
000020 46 37 b2 01 fd d6 e5 3f ff 1a 3d cb 54 f2 f5 d9
       70 55 -78 1 -3 -42 -27 63 -1 26 61 -53 84 -14 -11 -39
000030 0e e6 fe 2a f5 d6 0a 33 d2 3d ed f3 ce d7 d9 81
       14 -26 -2 42 -11 -42 10 51 -46 61 -19 -13 -50 -41 -39 -127
000040 75 15 d2 25 d7 a2 ff ed 37 d8 1f eb 65 07 f4 1e
       117 21 -46 37 -41 -94 -1 -19 55 -40 31 -21 101 7 -12 30
000050 30 d2 17 f6 e1 c6 ba 2d d0 02 ef db de 30 e1 e7
       48 -46 23 -10 -31 -58 -70 45 -48 2 -17 -37 -34 48 -31 -25
000060 01 c5 14 3c 1e f0 e3 1a cb 29 2b 52 8a eb d4 b9
       1 -59 20 60 30 -16 -29 26 -53 41 43 82 -118 -21 -44 -71
000070 2e a0 d5 72 c3 db c5 01 1e 24 d8 7f 37 bf db 1b
       46 -96 -43 114 -61 -37 -59 1 30 36 -40 127 55 -65 -37 27
000080 d1 db e6 fe c0 29 0f 29 be 4a 27 a6 30 1f 31 d2
       -47 -37 -26 -2 -64 41 15 41 -66 74 39 -90 48 31 49 -46
000090 08 ec b8 bf e5 54 2d fd 3d 4d fa e9 08 03 2b e5
       8 -20 -72 -65 -27 84 45 -3 61 77 -6 -23 8 3 43 -27
0000a0 46 22 ed fd 12 5f 10 19 f3 fe 36 62 44 cb 82 cb
       70 34 -19 -3 18 95 16 25 -13 -2 54 98 68 -53 -126 -53
0000b0 81 22 15 51 22 ea 90 e8 de ae cf 24 b6 08 3d 32
       -127 34 21 81 34 -22 -112 -24 -34 -82 -49 36 -74 8 61 50
0000c0 4a f5 5b e5 1d b0 c6 9e d2 72 36 36 15 0b aa 4a
       74 -11 91 -27 29 -80 -58 -98 -46 114 54 54 21 11 -86 74
0000d0 42 00 23 38 97 b3 ac d3 6c 60 df 38 7f ee 04 15
       66 0 35 56 -105 -77 -84 -45 108 96 -33 56 127 -18 4 21
0000e0 0e 15 1f 26 b2 fd 67 31 bc 48 1c a6 5d 8c 15 2a
       14 21 31 38 -78 -3 103 49 -68 72 28 -90 93 -116 21 42
0000f0 e8 fb ca df a3 2a 13 7f df f5 4c e9 13 c4 e4 d3
       -24 -5 -54 -33 -93 42 19 127 -33 -11 76 -23 19 -60 -28 -45

sequential/model/block_10_expand/Conv2D;StatefulPartitionedCall/sequential/model/block_10_expand/Conv2D i1 [48, 1, 1, 8]
000000 fc 81 f9 77 d8 6d cd 5a 37 63 17 02 f1 81 f9 cd
       -4 -127 -7 119 -40 109 -51 90 55 99 23 2 -15 -127 -7 -51
000010 22 e1 09 e4 4a ed 0e 81 7f c5 da e0 20 86 45 5e
       34 -31 9 -28 74 -19 14 -127 127 -59 -38 -32 32 -122 69 94
000020 81 09 95 29 fe 31 2c cc 19 eb c5 7f ae 96 be 1b
       -127 9 -107 41 -2 49 44 -52 25 -21 -59 127 -82 -106 -66 27
000030 d6 fb 7f 1b 21 93 c0 18 01 d8 50 81 14 cc e9 50
       -42 -5 127 27 33 -109 -64 24 1 -40 80 -127 20 -52 -23 80
000040 1a 62 23 1a 7f c5 5a 47 30 eb 52 81 2c c1 01 3c
       26 98 35 26 127 -59 90 71 48 -21 82 -127 44 -63 1 60
000050 36 16 35 1b 63 ee 81 a1 f5 7a 17 1b 52 db 35 7f
       54 22 53 27 99 -18 -127 -95 -11 122 23 27 82 -37 53 127
000060 d2 35 25 69 41 af 81 3c d4 81 e6 14 23 1b ae c8
       -46 53 37 105 65 -81 -127 60 -44 -127 -26 20 35 27 -82 -56
000070 ec 3a ef 0a 15 81 e8 25 b7 d5 81 08 ab 1e 27 5e
       -20 58 -17 10 21 -127 -24 37 -73 -43 -127 8 -85 30 39 94
000080 10 81 b0 d2 f7 16 19 aa ee f7 29 b2 0b f0 81 a7
       16 -127 -80 -46 -9 22 25 -86 -18 -9 41 -78 11 -16 -127 -89
000090 fe 87 31 2a d3 54 81 0b 98 42 f3 7f 31 24 f1 9f
       -2 -121 49 42 -45 84 -127 11 -104 66 -13 127 49 36 -15 -97
0000a0 d3 78 c7 5f 63 f9 4e 7f 19 61 d1 52 04 d6 81 37
       -45 120 -57 95 99 -7 78 127 25 97 -47 82 4 -42 -127 55
0000b0 ef 7b dc 81 28 a9 fd 00 40 bb 7f 01 c4 d5 b6 90
       -17 123 -36 -127 40 -87 -3 0 64 -69 127 1 -60 -43 -74 -112
0000c0 70 bf 81 c4 9f cf 2b 00 1f 0d cc cd 53 90 04 81
       112 -65 -127 -60 -97 -49 43 0 31 13 -52 -51 83 -112 4 -127
0000d0 cb d3 87 9f f7 67 7f d4 8e ee e5 3a e9 ed 3c 81
       -53 -45 -121 -97 -9 103 127 -44 -114 -18 -27 58 -23 -19 60 -127
0000e0 59 6f 22 81 d8 3e b1 da eb 16 0a 19 7f dd ea 0d
       89 111 34 -127 -40 62 -79 -38 -21 22 10 25 127 -35 -22 13
0000f0 93 7f d5 ca 44 37 19 de b7 7f 7b f9 54 57 fc e9
       -109 127 -43 -54 68 55 25 -34 -73 127 123 -7 84 87 -4 -23

sequential/model/block_10_project/Conv2D;StatefulPartitionedCall/sequential/model/block_10_project/Conv2D i1 [8, 1, 1, 48]
000000 00 3f 20 dd 67 81 b2 29 10 5d f2 08 1a b8 f0 60
       0 63 32 -35 103 -127 -78 41 16 93 -14 8 26 -72 -16 96
000010 00 ff f7 de e9 0b e7 e8 93 13 92 0b 26 dc cb fa
       0 -1 -9 -34 -23 11 -25 -24 -109 19 -110 11 38 -36 -53 -6
000020 17 25 e3 08 d8 37 08 1d dc e8 09 c9 f6 ef bd f1
       23 37 -29 8 -40 55 8 29 -36 -24 9 -55 -10 -17 -67 -15
000030 e3 10 01 26 ed e1 d2 14 0b d0 b9 17 07 af dd 6b
       -29 16 1 38 -19 -31 -46 20 11 -48 -71 23 7 -81 -35 107
000040 44 18 16 69 00 0a 47 44 3d 27 85 0f 1b ee 34 76
       68 24 22 105 0 10 71 68 61 39 -123 15 27 -18 52 118
000050 bf 1d 1e 7f 9f e2 dd da 94 e3 f3 7e 2f b4 13 1e
       -65 29 30 127 -97 -30 -35 -38 -108 -29 -13 126 47 -76 19 30
000060 02 0d 39 38 2a ef d0 18 04 62 a3 f5 c6 17 df 3b
       2 13 57 56 42 -17 -48 24 4 98 -93 -11 -58 23 -33 59
000070 48 fe d4 7f 10 f8 ca dd 7c bc 92 e5 22 d2 01 3f
       72 -2 -44 127 16 -8 -54 -35 124 -68 -110 -27 34 -46 1 63
000080 14 c3 31 19 fb 39 17 19 4f f2 0e 39 4c 2b e9 1a
       20 -61 49 25 -5 57 23 25 79 -14 14 57 76 43 -23 26
000090 05 02 11 e2 da 72 58 93 17 90 d6 17 29 28 21 eb
       5 2 17 -30 -38 114 88 -109 23 -112 -42 23 41 40 33 -21
0000a0 f7 17 f5 09 fd fb e0 0e 3a 17 dc 16 e1 f1 05 09
       -9 23 -11 9 -3 -5 -32 14 58 23 -36 22 -31 -15 5 9
0000b0 f0 fc 27 d1 bc da e9 07 04 4c f0 3c e1 7f ed 06
       -16 -4 39 -47 -68 -38 -23 7 4 76 -16 60 -31 127 -19 6
0000c0 11 cb 57 b9 ea 1c 81 0b fb 4b a5 e4 c8 fa ce 2d
       17 -53 87 -71 -22 28 -127 11 -5 75 -91 -28 -56 -6 -50 45
0000d0 6b 21 1b 47 57 d7 f2 16 47 21 b1 e1 f6 af 39 16
       107 33 27 71 87 -41 -14 22 71 33 -79 -31 -10 -81 57 22
0000e0 54 ed dc e1 5a f9 0e 0c a0 0f fb d4 4b 27 3d f8
       84 -19 -36 -31 90 -7 14 12 -96 15 -5 -44 75 39 61 -8
0000f0 fd f2 e5 0e f2 81 f1 fe e8 f6 fa e3 ff 07 06 04
       -3 -14 -27 14 -14 -127 -15 -2 -24 -10 -6 -29 -1 7 6 4

sequential/model/block_11_expand/Conv2D;StatefulPartitionedCall/sequential/model/block_11_expand/Conv2D i1 [48, 1, 1, 8]
000000 c1 7f c6 29 ed 4b 5f 0a b7 02 b7 cf 3b 41 7f 18
       -63 127 -58 41 -19 75 95 10 -73 2 -73 -49 59 65 127 24
000010 ac af 81 fe 69 0f 73 4c 7f a3 05 36 c3 bc f3 f0
       -84 -81 -127 -2 105 15 115 76 127 -93 5 54 -61 -68 -13 -16
000020 02 3b c4 47 d8 7f c9 e2 08 09 4f f4 10 81 9d a0
       2 59 -60 71 -40 127 -55 -30 8 9 79 -12 16 -127 -99 -96
000030 1c 44 2d 37 1a 7f cf 69 81 e3 28 f9 68 b7 16 11
       28 68 45 55 26 127 -49 105 -127 -29 40 -7 104 -73 22 17
000040 3f b1 46 f3 de dd 02 81 89 7f 08 0b 38 b4 5f 59
       63 -79 70 -13 -34 -35 2 -127 -119 127 8 11 56 -76 95 89
000050 0c 82 9f 8c aa 1a 3d 7f 0c 51 31 58 ee f2 d0 7f
       12 -126 -97 -116 -86 26 61 127 12 81 49 88 -18 -14 -48 127
000060 3f b1 81 bc d4 da 02 45 81 9e 1c c9 fb f0 a1 30
       63 -79 -127 -68 -44 -38 2 69 -127 -98 28 -55 -5 -16 -95 48
000070 45 26 42 8e 8d 55 ba 81 00 7f 30 08 02 20 28 cc
       69 38 66 -114 -115 85 -70 -127 0 127 48 8 2 32 40 -52
000080 8c 0d 46 d6 34 7f 40 a9 81 cb 3a 1c 24 1b 21 71
       -116 13 70 -42 52 127 64 -87 -127 -53 58 28 36 27 33 113
000090 01 0d 47 f0 cb a1 f7 7f f0 f7 b8 95 29 bc 81 df
       1 13 71 -16 -53 -95 -9 127 -16 -9 -72 -107 41 -68 -127 -33
0000a0 40 4f 81 4e 98 4e 55 f5 4f 49 2b 79 e4 59 7f be
       64 79 -127 78 -104 78 85 -11 79 73 43 121 -28 89 127 -66
0000b0 7f 02 21 9a 25 ca 03 3e 72 de 5a 17 40 81 4b 1f
       127 2 33 -102 37 -54 3 62 114 -34 90 23 64 -127 75 31
0000c0 fb d4 db fe 44 f8 81 25 0c 03 0b d2 a9 81 09 50
       -5 -44 -37 -2 68 -8 -127 37 12 3 11 -46 -87 -127 9 80
0000d0 f6 e8 7f 16 38 86 93 23 81 50 ee 14 03 d1 e1 21
       -10 -24 127 22 56 -122 -109 35 -127 80 -18 20 3 -47 -31 33
0000e0 a1 93 ea ff ce 1f 7f b1 8b bc 8f 7c f0 7f 8d 5b
       -95 -109 -22 -1 -50 31 127 -79 -117 -68 -113 124 -16 127 -115 91
0000f0 21 bc 7f c9 02 09 cf e8 f3 c4 3f 81 6e 03 e5 43
       33 -68 127 -55 2 9 -49 -24 -13 -60 63 -127 110 3 -27 67

sequential/model/block_11_project/Conv2D;StatefulPartitionedCall/sequential/model/block_11_project/Conv2D i1 [8, 1, 1, 48]
000000 df e4 0c 14 81 fa 0b c4 17 a6 ce e5 12 cb 22 0f
       -33 -28 12 20 -127 -6 11 -60 23 -90 -50 -27 18 -53 34 15
000010 05 06 ec f8 d3 0d 17 47 fb 25 2f c0 ee ef af 1c
       5 6 -20 -8 -45 13 23 71 -5 37 47 -64 -18 -17 -81 28
000020 dc 2a 41 32 ff fb 66 f8 98 e2 fe 02 06 12 55 e2
       -36 42 65 50 -1 -5 102 -8 -104 -30 -2 2 6 18 85 -30
000030 53 0e 19 e9 fc ed d0 d8 b6 38 2d fd e3 ba 0e 5a
       83 14 25 -23 -4 -19 -48 -40 -74 56 45 -3 -29 -70 14 90
000040 f2 12 f4 f3 db 08 e4 d8 25 e8 cb 5c bf 24 5f cf
       -14 18 -12 -13 -37 8 -28 -40 37 -24 -53 92 -65 36 95 -49
000050 ff f9 e6 da f0 0e 54 c2 7f fc 0a fc c7 42 90 06
       -1 -7 -26 -38 -16 14 84 -62 127 -4 10 -4 -57 66 -112 6
000060 29 eb cb fb 81 47 da ee 2b 09 20 e4 d6 1f e9 cf
       41 -21 -53 -5 -127 71 -38 -18 43 9 32 -28 -42 31 -23 -49
000070 ae 40 03 c1 3b fa cb 03 e3 88 1b 08 f6 13 d4 3c
       -82 64 3 -63 59 -6 -53 3 -29 -120 27 8 -10 19 -44 60
000080 38 fd c1 20 1d 18 53 11 45 2b fd 32 1f 00 3a 31
       56 -3 -63 32 29 24 83 17 69 43 -3 50 31 0 58 49
000090 f0 f3 0a f2 5f 05 f1 0b 3d 23 7f 40 07 ed f4 3b
       -16 -13 10 -14 95 5 -15 11 61 35 127 64 7 -19 -12 59
0000a0 19 f9 52 e6 f1 59 3a 00 07 ca bc f0 da ee ec 8e
       25 -7 82 -26 -15 89 58 0 7 -54 -68 -16 -38 -18 -20 -114
0000b0 ed fc e5 9e fc e1 fa e1 23 33 bb f1 13 b6 06 54
       -19 -4 -27 -98 -4 -31 -6 -31 35 51 -69 -15 19 -74 6 84
0000c0 4d 31 7b d6 91 28 bc 2b f8 49 f5 d2 db b8 ef e3
       77 49 123 -42 -111 40 -68 43 -8 73 -11 -46 -37 -72 -17 -29
0000d0 c1 11 e4 e8 2b 09 e7 2b 43 e4 74 0d 06 91 1d 57
       -63 17 -28 -24 43 9 -25 43 67 -28 116 13 6 -111 29 87
0000e0 ce ee 1d 03 e0 e4 50 8a 7f d9 ee 1a 12 14 d9 fd
       -50 -18 29 3 -32 -28 80 -118 127 -39 -18 26 18 20 -39 -3
0000f0 3f c4 eb 25 00 f1 fd c9 db d5 f1 e5 d1 09 46 13
       63 -60 -21 37 0 -15 -3 -55 -37 -43 -15 -27 -47 9 70 19

sequential/model/block_12_expand/Conv2D;StatefulPartitionedCall/sequential/model/block_12_expand/Conv2D i1 [48, 1, 1, 8]
000000 24 03 30 ae e2 f3 a0 81 a9 04 77 81 d6 99 53 07
       36 3 48 -82 -30 -13 -96 -127 -87 4 119 -127 -42 -103 83 7
000010 c8 06 8c d0 05 6a 7f b4 79 c9 81 a1 cd 38 0d 69
       -56 6 -116 -48 5 106 127 -76 121 -55 -127 -95 -51 56 13 105
000020 39 b9 26 43 3f 25 81 ee 81 dc e1 63 0b c2 10 1a
       57 -71 38 67 63 37 -127 -18 -127 -36 -31 99 11 -62 16 26
000030 39 23 7f 15 26 47 17 7e 09 d2 91 5c 7f 4c d2 8f
       57 35 127 21 38 71 23 126 9 -46 -111 92 127 76 -46 -113
000040 bf db 81 53 fd 11 0d b7 38 30 25 6e e9 ce a0 7f
       -65 -37 -127 83 -3 17 13 -73 56 48 37 110 -23 -50 -96 127
000050 b3 cd d8 ea 14 a0 7f 0c 77 2e c5 e5 e0 f0 7f 6b
       -77 -51 -40 -22 20 -96 127 12 119 46 -59 -27 -32 -16 127 107
000060 bf 7f 74 15 30 6b 0a f8 fe 30 0c a0 4a eb 7f 0f
       -65 127 116 21 48 107 10 -8 -2 48 12 -96 74 -21 127 15
000070 ff c4 33 f7 7f dd 15 64 db 38 7f 29 2a d5 c4 08
       -1 -60 51 -9 127 -35 21 100 -37 56 127 41 42 -43 -60 8
000080 01 51 94 54 81 d4 26 99 ce 0b 7f f9 1f e8 ee 41
       1 81 -108 84 -127 -44 38 -103 -50 11 127 -7 31 -24 -18 65
000090 2a dc 81 20 19 4d af a6 17 5b 55 81 30 b2 2d 45
       42 -36 -127 32 25 77 -81 -90 23 91 85 -127 48 -78 45 69
0000a0 25 f9 0a 14 fc e1 81 36 2b 93 de 59 81 c9 bf 4d
       37 -7 10 20 -4 -31 -127 54 43 -109 -34 89 -127 -55 -65 77
0000b0 3e 37 5a 81 9b ad 29 f4 bf f7 47 15 9e 56 7f d3
       62 55 90 -127 -101 -83 41 -12 -65 -9 71 21 -98 86 127 -45
0000c0 99 81 b1 39 0c 14 a5 22 a3 4d 27 93 e8 81 79 87
       -103 -127 -79 57 12 20 -91 34 -93 77 39 -109 -24 -127 121 -121
0000d0 55 92 7f 1a ee df e1 bd 81 b0 c1 d7 25 ff 97 20
       85 -110 127 26 -18 -33 -31 -67 -127 -80 -63 -41 37 -1 -105 32
0000e0 81 f9 4a 2e 04 1e 43 aa 0a 13 34 81 e5 f1 25 22
       -127 -7 74 46 4 30 67 -86 10 19 52 -127 -27 -15 37 34
0000f0 81 55 42 05 51 ef 0e ed 9c cc 81 b9 e4 62 05 66
       -127 85 66 5 81 -17 14 -19 -100 -52 -127 -71 -28 98 5 102
