benchmark-nn/gestures-large-f32/ei-benchmark-gestures-large-nn-classifier-tensorflow-lite-float32-model.lite (tflite, 41660 bytes, 10 tensors)

unknown_0 f4 [100]
-0.009960033 0.21498837 -0.0010278559 -0.026001683 0.24891354 0.21795346 0.044095963 0.17348857
0.18398122 -0.0027239036 -0.0022867033 0.0264695 -0.055030487 -0.013588851 0.004753262 0.034387354
0.16480273 0.21279745 0.2054581 -0.009711477 -0.01239398 0.2856954 0.24754171 -0.0040713907
-0.013101629 -0.03140578 -0.018570902 0.15276892 0.25170228 0.0018578899 -0.035361093 -0.01127776
0.055533916 0.12875442 0.27740723 0.05805499 0.21677391 0.12516278 -0.04534623 -0.06986825
0.20668063 -0.021910863 -0.006347104 0.13915777 -0.020238765 -0.01766519 -0.023731569 0.23856793
0.22045372 -0.004818259 -0.037283923 0.1742588 0.0005391174 -0.052596077 -0.025022866 0.00072019274
0.1868758 -0.03661875 -0.0036172436 -0.03415749 -0.012236703 -0.0071311705 -0.006767347 -0.04427069
-0.0071270345 0.07797628 -0.01696451 0.09193403 0.0010677201 0.0007377808 -0.010590529 -0.011095211
-0.03147323 0.11962953 -0.0049031484 -0.016040241 -0.04666778 0.15248214 0.27590367 0.13083886
-0.0022754897 0.00056318665 0.18199149 -0.038666382 0.15744057 0.18700752 -0.016830357 0.2531794
0.15017343 0.11831654 -0.002996194 0.026914975 0.18732826 -0.029044159 0.2954245 0.21879798
0.03258741 -0.01806666 0.0952087 -0.015889073
00000000: 682f 23bc e925 5c3e 1fb9 86ba 7b01 d5bc
00000010: 31e3 7e3e 312f 5f3e f89d 343d fda6 313e
00000020: 9365 3c3e 8583 32bb 84dc 15bb 91d6 d83c
00000030: a667 61bd c6a3 5ebc 40c1 9b3b c1d9 0c3d
00000040: 0cc2 283e 93e7 593e 9c63 523e e31c 1fbc
00000050: 1f10 4bbc ab46 923e 937b 7d3e 4d69 85bb
00000060: 37a8 56bc 59a3 00bd 0122 98bc 756f 1c3e
00000070: 1fdf 803e 7184 f33a cbd6 10bd 5bc6 38bc
00000080: 8877 633d 33d8 033e 5208 8e3e 12cb 6d3d
00000090: fbf9 5d3e ac2a 003e f8bc 39bd 1617 8fbd
000000a0: 16a4 533e 697e b3bc 5efb cfbb 607f 0e3e
000000b0: c4cb a5bc 97b6 90bc b568 c2bc 274b 743e
000000c0: 9fbe 613e 7ce2 9dbb 07b7 18bd e670 323e
000000d0: 8e53 0d3a fc6e 57bd c1fc ccbc 51cb 3c3a
000000e0: 5f5c 3f3e 8bfd 15bd 470f 6dbb b9e8 0bbd
000000f0: 747c 48bc 98ac e9bb 9fc0 ddbb 2f55 35bd
00000100: e689 e9bb 07b2 9f3d 28f9 8abc e947 bc3d
00000110: bef2 8b3a a267 413a e683 2dbc b0c8 35bc
00000120: 13ea 00bd 5400 f53d 97aa a0bb d366 83bc
00000130: b726 3fbd 4724 1c3e 3f43 8d3e 9ffa 053e
00000140: 6220 15bb d1a2 133a fa5b 3a3e a460 1ebd
00000150: 1a38 213e e67e 3f3e d1df 89bc bba0 813e
00000160: 10c7 193e f14f f23d cb5b 44bb cb7c dc3c
00000170: fbd2 3f3e 04ee edbc e141 973e 940c 603e
00000180: 607a 053d 8800 94bc c7fc c23d cd29 82bc

unknown_2 f4 [50]
0.17394944 -0.004005059 0.12374849 0.020469423 0.015423648 0.17400725 -0.04193713 -0.02201571
0.13030335 0.15229595 0.085639134 -0.025369214 0.035962526 0.1368474 0.09632253 -0.0055438587
0.08363301 0.076584734 0.020240348 0.014157047 0.009536716 -0.01819203 0.07626526 0.14948907
0.013115834 0.18491042 0.0040953727 -0.051152434 -0.014028031 -0.015902882 0.015348783 0.027877752
-0.03251382 0.18306911 0.1680349 0.0013430663 0.007785712 -0.016705135 0.060241044 0.17202993
-0.007390149 0.024851292 0.04815875 0.09425701 -0.008945797 -0.01725053 0.20354149 0.02323029
0.0 -0.011172431
00000000: cd1f 323e df3c 83bb d96f fd3d 7eaf a73c
00000010: 78b3 7c3c f52e 323e 45c6 2bbd 4a5a b4bc
00000020: 3e6e 053e 78f3 1b3e 9263 af3d 19d3 cfbc
00000030: 714d 133d ba21 0c3e bf44 c53d 42a9 b5bb
00000040: c947 ab3d 75d8 9c3d 16cf a53c f5f2 673c
00000050: e33f 1c3c 7407 95bc f630 9c3d aa13 193e
00000060: cce3 563c 2859 3d3e 7a32 863b 3785 51bd
00000070: d4d5 65bc c346 82bc 7679 7b3c e25f e43c
00000080: 362d 05bd 7876 3b3e 5711 2c3e d409 b03a
00000090: 491f ff3b 35d9 88bc 50bf 763d 9d28 303e
000000a0: 1029 f2bb f094 cb3c 1c42 453d d209 c13d
000000b0: 6491 12bc fc50 8dbc 2e6d 503e 734d be3c
000000c0: 0000 0000 920c 37bc

unknown_4 f4 [20]
-0.025788683 0.02629082 -0.0375604 0.14430965 0.006416674 0.024166599 0.09735178 -0.0028601028
-0.0013109273 -0.03366171 0.0 0.0967412 0.11727912 0.10106239 -0.01742261 0.009275895
-0.029425424 -0.061022546 0.18002598 -0.023490049
00000000: ca42 d3bc d95f d73c efd8 19bd e9c5 133e
00000010: f642 d23b 08f9 c53c 5f60 c73d 9070 3bbb
00000020: 6cd3 abba dce0 09bd 0000 0000 4020 c63d
00000030: 0930 f03d ccf9 ce3d ddb9 8ebc ecf9 173c
00000040: 960d f1bc c7f2 79bd bb58 383e 346e c0bc

unknown_6 f4 [10]
-0.0059207766 0.14284246 0.093742006 0.0 0.023647439 0.004320055 -0.0025572702 0.007345729
0.019098416 -0.059026055
00000000: 1303 c2bb 4b45 123e cffb bf3d 0000 0000
00000010: 46b8 c13c 3f8f 8d3b e097 27bb 71b4 f03b
00000020: 4874 9c3c 4ec5 71bd

unknown_8 f4 [4]
0.15377311 -0.099544525 -0.06268344 -0.076191254
00000000: b376 1d3e 00de cbbd 2d60 80bd 290a 9cbd

sequential/dense/MatMul;StatefulPartitionedCall/sequential/dense/MatMul f4 [100, 33]
-0.13936114 0.006587367 0.20368677 0.2316171 0.19594942 -0.10567869 -0.11325689 -0.09368958
0.12117495 0.030541716 0.12199449 0.062723756 0.013343256 -0.048084352 0.1862236 0.1681508
0.12371364 0.058325034 0.17007591 -0.028118726 -0.29137346 -0.21632765 0.0706993 0.0130432155
0.19483018 -0.17203884 0.19146392 -0.034353804 0.18174 0.24071988 0.18089715 0.16708547
-0.026381083 -0.011974268 0.16363196 0.07426593 -0.11227976 -0.03861524 -0.11906207 0.14287077
0.1294491 -0.10580778 -0.19361898 0.10759108 -0.033970956 0.16061543 -0.10112374 -0.21787123
0.038742654 0.17755765 -0.03592655 0.20150788 0.20419283 -0.007305947 0.20536916 -0.06282733
-0.21730766 0.13722542 -0.17027445 0.03751137 0.13186142 0.07707903 -0.0016414934 0.09293019
0.00025801142 0.0052839136 -0.01544567 0.047235906 -0.08433483 -0.1893285 0.12826549 0.16610561
-0.14767972 0.0546207 0.15979576 0.010420732 0.18193129 0.087874 0.07522861 -0.17573509
0.14478464 0.11477312 0.050727732 0.19581506 -0.10146448 0.035011716 -0.1457243 0.16161513
-0.025922999 0.02531947 0.19430505 -0.096474774 0.09225649 -0.035918087 -0.037251875 -0.19813155
0.12336077 -0.049313936 -0.0032132631 -0.20390058 0.03150619 0.0035173302 -0.12111366 -0.21414141
0.1719023 -0.012339729 0.164479 0.015879814 -0.12682895 0.17766166 -0.14545175 -0.21236417
0.038577717 0.06987206 -0.16548772 0.110410005 0.10316694 -0.016169725 -0.19771399 -0.05837823
0.041032135 0.057067946 0.11553863 0.05325939 -0.16952808 -0.1356393 -0.08780573 0.04656142
0.13748905 0.09476225 -0.074633375 -0.033626206 -0.037973765 0.26587996 0.022921402 -0.007517416
0.062384695 -0.048016496 0.02846818 -0.13451849 0.05141641 -0.048440948 0.052706897 -0.018045785
-0.057532627 0.019380841 -0.035927903 0.14634109 -0.015367757 -0.0070945686 -0.23246689 -0.011832273
-0.042344116 0.11500833 0.078236535 0.092367485 -0.12813827 0.2189992 -0.07156565 -0.11600748
0.07480989 -0.00335115 -0.18450569 -0.105030224 -0.062329378 0.091587156 0.08684251 -0.11696331
0.031578474 -0.11213332 0.10047144 0.07966645 0.11824696 -0.0209257 0.12038969 -0.05341728
0.11291159 -0.05135996 -0.017029533 -0.22783059 -0.2133252 -0.21137594 0.1624689 0.044432715
-0.016077032 -0.017121593 -0.12793231 0.011756539 -0.12501812 -0.14274152 0.098499425 -0.08616183
-0.18946992 -0.033765767 0.19043049 -0.01809473 -0.16893463 0.032689624 -0.18172963 0.05268068
-0.1979738 0.02101052 0.007508295 -0.016039765 0.0679265 -0.10362438 0.15697642 -0.017590938
0.04996684 0.06639567 0.08052693 -0.2153012 -0.19884276 -0.13587244 0.1059569 -0.12698448
-0.09386594 0.010121549 0.040787525 -0.18520172 0.17009299 0.07972147 0.11526747 0.021116758
-0.10688575 0.13311753 0.102481216 0.11489432 -0.061106052 0.041442856 -0.21909751 -0.09155605
0.28584445 0.086387634 0.021013495 -0.03374178 -0.16166072 -0.16801383 -0.022605093 -0.08189787
0.10381922 0.1545239 0.08378887 0.061846104 0.1297772 -0.13386762 0.1657501 0.17947288
0.09193234 -0.26720873 -0.1279829 -0.21413468 0.12479983 0.1630692 0.19758663 0.021116782
00000000: b0b4 0ebe d7da d73b 4493 503e 082d 6d3e
00000010: f7a6 483e 126e d8bd 3af3 e7bd 53e0 bfbd
00000020: 922a f83d 9f32 fa3c 3fd8 f93d 5075 803d
00000030: ac9d 5a3c 19f4 44bd 66b1 3e3e b92f 2c3e
00000040: 945d fd3d 3be6 6e3d 6128 2e3e 3e59 e6bc
00000050: e72e 95be ff84 5dbe cbca 903d 36b3 553c
00000060: 9081 473e f32a 30be 1e0f 443e 93b6 0cbd
00000070: 0d1a 3a3e 467f 763e 1a3d 393e 7418 2b3e
00000080: 241d d8bc b82f 44bc 238f 273e bc18 983d
00000090: eef2 e5bd 042b 1ebd d1d6 f3bd b74c 123e
000000a0: 4e8e 043e c0b1 d8bd 0e44 46be b658 dc3d
000000b0: 2125 0bbd 5f78 243e f719 cfbd a319 5fbe
000000c0: 9eb0 1e3d acd1 353e b827 13bd 1558 4e3e
000000d0: ed17 513e ba66 efbb 4b4c 523e 9dab 80bd
000000e0: e685 5ebe d284 0c3e 6d5c 2ebe 86a5 193d
000000f0: ae06 073e 9cdb 9d3d 6127 d7ba 2f52 be3d
00000100: b545 8739 ae24 ad3b d60f 7dbc 707a 413d
00000110: bdb7 acbd 55df 41be 0758 033e 9717 2a3e
00000120: 5a39 17be f5b9 5f3d 80a1 233e b8bb 2a3c
00000130: 324c 3a3e 49f7 b33d 7511 9a3d e6f3 33be
00000140: 6d42 143e 2b0e eb3d e2c7 4f3d be83 483e
00000150: 9ccc cfbd 7268 0f3d c038 15be 707e 253e
00000160: 785c d4bc c76a cf3c e7f7 463e 9194 c5bd
00000170: f8f0 bc3d d81e 13bd 6c95 18bd ffe2 4abe
00000180: 92a4 fc3d 69fd 49bd 9c95 52bb 50cb 50be
00000190: a20c 013d 0283 663b 700a f8bd e347 5bbe
000001a0: 2807 303e 932c 4abc 2f6d 283e 6216 823c
000001b0: 73df 01be f0ec 353e 4ef1 14be fe75 59be
000001c0: ab03 1e3d 1519 8f3d 9d75 29be a41e e23d
000001d0: 3049 d33d 5f76 84bc 8975 4abe 031e 6fbd
000001e0: 5011 283d 14c0 693d 849f ec3d 8526 5a3d
000001f0: c598 2dbe 07e5 0abe 7ed3 b3bd 30b7 3e3d
00000200: eec9 0c3e b612 c23d 62d9 98bd a2bb 09bd
00000210: 618a 1bbd 6b21 883e aac5 bb3c a854 f6bb
00000220: 1887 7f3d f2ac 44bd 1a36 e93c 37bf 09be
00000230: 039a 523d 046a 46bd 30e3 573d c1d4 93bc
00000240: 55a7 6bbd 92c4 9e3c 2329 13bd 70da 153e
00000250: 0bc9 7bbc 8e79 e8bb cd0b 6ebe 26dc 41bc
00000260: 0671 2dbd 7d89 eb3d 7a3a a03d 2a2b bd3d
00000270: ae36 03be 5441 603e 0391 92bd 5495 edbd
00000280: ed35 993d f89e 5bbb 0fef 3cbe 161a d7bd
00000290: 174d 7fbd 0c92 bb3d 7cda b13d 768a efbd
000002a0: 6e58 013d 27a6 e5bd f8c3 cd3d 2a28 a33d
000002b0: 762b f23d 606c abbc df8e f63d 14cc 5abd
000002c0: 313e e73d d25e 52bd 8581 8bbc 6c4c 69be
000002d0: ec71 5abe ef72 58be 3f5e 263e 14ff 353d
000002e0: fbb3 83bc 9542 8cbc b000 03be 809e 403c
000002f0: c004 00be d52a 12be 11ba c93d 9d75 b0bd
00000300: 6704 42be f94d 0abd 3600 433e 663b 94bc
00000310: 33fd 2cbe 8ee5 053d 5517 3abe b2c7 573d
00000320: a5b9 4abe 411e ac3c 2508 f63b d365 83bc
00000330: 0d1d 8b3d 0539 d4bd 6dbe 203e df1a 90bc
00000340: 07aa 4c3d 74fa 873d 4eeb a43d eb77 5cbe
00000350: 709d 4bbe 2522 0bbe eeff d83d 3808 02be
00000360: c93c c0bd dad4 253c d210 273d 85a5 3dbe
00000370: db2c 2e3e 0345 a33d 5a11 ec3d 0dfd ac3c
00000380: ebe6 dabd f64f 083e ace1 d13d b74d eb3d
00000390: 574a 7abd fcbf 293d 195b 60be bd81 bbbd
000003a0: 345a 923e 00ec b03d 7e24 ac3c d234 0abd
000003b0: 638a 25be d10b 2cbe 512e b9bc 12ba a7bd
000003c0: 2c9f d43d 833b 1e3e 8099 ab3d 5752 7d3d
000003d0: 50e4 043e 9814 09be 65ba 293e bdc7 373e
000003e0: 0647 bc3d 95cf 88be f30d 03be 1f46 5bbe
000003f0: 0e97 ff3d 9dfb 263e 2654 4a3e 1afd ac3c

sequential/dense_1/MatMul;StatefulPartitionedCall/sequential/dense_1/MatMul f4 [50, 100]
-0.16353127 -0.046507657 -0.032998994 -0.052868526 0.24447037 -0.009901845 -0.06709567 0.1167779
-0.0488049 0.10333832 -0.15733983 -0.19399533 0.09783781 -0.25729337 -0.056313977 0.123162374
-0.093946464 0.29886332 0.09880419 -0.08772472 -0.169798 0.25601083 0.14872813 -0.120143615
0.08922465 -0.20402744 0.10470172 0.110640936 0.35583603 0.089613385 0.14950882 0.07213719
0.060294226 -0.16627696 0.2637164 0.04177227 0.010488154 0.065048255 -0.09279528 0.15209763
0.21885394 -0.050186913 -0.04787314 0.25021935 -0.0864097 -0.11795393 0.042203493 0.44460288
0.085747376 -0.24379426 -0.10371114 -0.07155908 0.10746267 -0.1344849 0.09565338 -0.2596386
0.17558096 0.010049799 -0.2910198 0.052606877 -0.16319095 0.100049175 -0.099216476 -0.14882988
-0.24850078 -0.058972914 0.022929385 0.12970568 -0.09906141 0.008263713 0.021044096 0.1116911
-0.20933622 0.18928617 0.1067559 -0.1411116 -0.04520133 0.0153964935 0.34992236 0.16121727
-0.122212455 0.035781235 0.17333895 -0.23526879 -0.07187492 0.121983856 -0.06794556 0.26659176
0.23926035 -0.09202528 0.006573452 -0.08345882 0.32104144 0.013144047 0.20666973 0.011636276
-0.075132646 -0.1735614 0.14234242 -0.21894348 -0.11620322 0.0015644578 0.02193087 -0.15868363
0.07268986 0.20344059 -0.11320174 0.10708611 -0.18953462 0.15943766 0.16921824 0.21376845
0.17186816 0.12600334 -0.10391146 0.18628226 0.13045625 0.12937936 0.02157021 0.16486272
0.09423133 0.004702935 0.024652587 0.17840034 -0.064765796 0.120397955 0.10728444 0.18372649
-0.13073736 0.23258887 0.052249715 -0.120813884 0.08827033 -0.06813429 0.12758178 0.057230294
-0.22467421 0.009511906 -0.19303146 -0.16149068 -0.027855668 -0.111374065 0.19091593 0.153099
0.06813338 0.11351103 0.009957362 -0.2943603 -0.018079119 -0.24718255 0.14935195 -0.049683522
-0.07167582 -0.15161173 0.14990172 -0.10295394 0.20241089 0.19678508 0.13645124 0.112000495
-0.019608038 0.16540584 -0.080615245 0.13296585 -0.0017089534 -0.12823735 0.05395441 -0.01984594
0.21655524 -0.07326533 -0.12669896 0.06393091 -0.11327347 -0.13451344 0.059469834 0.1379545
-0.09739975 0.090834975 0.11054418 -0.14902586 0.036732353 -0.043968603 0.07350189 -0.10718119
-0.041194778 -0.16631976 -0.04468704 -0.019278595 -0.0610789 0.17027763 0.07481906 0.2270485
0.021235788 0.085309796 -0.23595516 -0.13581657 0.17986926 0.013338274 -0.0029420562 0.106023505
-0.1748063 0.03209053 -0.10602538 -0.073754564 0.29569608 0.16340953 0.08982859 0.17306502
0.14785185 -0.10952236 -0.14742555 0.009307852 -0.11143214 0.1926178 0.17455705 0.07281721
0.13800462 -0.010101511 0.16171093 -0.12525333 -0.037636362 0.31413868 0.30975062 -0.13761151
0.0103223305 -0.018890517 -0.108499736 0.03736523 -0.103909984 -0.15545876 0.042414296 -0.11361307
0.0273893 0.1248904 0.34461558 -0.0045732674 0.2342501 0.18883546 0.11089327 0.0039081997
0.15058978 -0.048117675 0.0025900935 0.06409997 -0.023018396 0.10109053 -0.16649143 0.31242228
-0.095183834 0.0020668772 -0.039447006 0.16416432 0.08705249 -0.011853595 0.11021318 -0.08031002
00000000: be74 27be d07e 3ebd f429 07bd ab8c 58bd
00000010: 7156 7a3e 593b 22bc 7469 89bd 4029 ef3d
00000020: a6e7 47bd 0ba3 d33d b11d 21be b6a6 46be
00000030: 315f c83d f5bb 83be 7ca9 66bd 8e3c fc3d
00000040: 0167 c0bd 9d04 993e da59 ca3d 05a9 b3bd
00000050: 87df 2dbe da13 833e 304c 183e db0d f6bd
00000060: 6abb b63d 92ec 50be db6d d63d b797 e23d
00000070: 2430 b63e 3987 b73d d718 193e aabc 933d
00000080: 14f7 763d 8244 2abe d605 873e 6619 2b3d
00000090: 82d6 2b3c 0538 853d 740b bebd 7bbf 1b3e
000000a0: 3f1b 603e cb90 4dbd a016 44bd c01c 803e
000000b0: 92f7 b0bd d491 f1bd 92dd 2c3d fda2 e33e
000000c0: 529c af3d 34a5 79be 8266 d4bd 918d 92bd
000000d0: 6315 dc3d 69b6 09be ebe5 c33d 5aef 84be
000000e0: 7fcb 333e eaa7 243c 8c00 95be 4f7a 573d
000000f0: 871b 27be 95e6 cc3d 0232 cbbd dc66 18be
00000100: fd76 7ebe 958d 71bd 68d6 bb3c 91d1 043e
00000110: b5e0 cabd 8664 073c ab64 ac3c 4ebe e43d
00000120: 3c5c 56be 3cd4 413e d6a2 da3d 8f7f 10be
00000130: 0825 39bd 9341 7c3c 0629 b33e 2416 253e
00000140: 864a fabd 588f 123d c47f 313e 4dea 70be
00000150: 2833 93bd acd2 f93d 0b27 8bbd b77e 883e
00000160: aa00 753e c077 bcbd 1d66 d73b 75ec aabd
00000170: 8b5f a43e 215a 573c 3ba1 533e 14a6 3e3c
00000180: 25df 99bd 14ba 31be 36c2 113e b832 60be
00000190: f4fb edbd 7e0e cd3a 5ea8 b33c f67d 22be
000001a0: 6cde 943d bb52 503e 50d6 e7bd f64f db3d
000001b0: 5d15 42be a043 233e 8c47 2d3e 1ee6 5a3e
000001c0: 35fe 2f3e 0507 013e 88cf d4bd c7c0 3e3e
000001d0: 5396 053e 067c 043e 02b4 b03c c6d1 283e
000001e0: 5bfc c03d 141b 9a3b 39f4 c93c 94ae 363e
000001f0: eea3 84bd 3493 f63d f2b7 db3d cc22 3c3e
00000200: 04e0 05be c72b 6e3e cc03 563d 456d f7bd
00000210: 13c7 b43d fe89 8bbd cca4 023e 506a 6a3d
00000220: ff10 66be d3d7 1b3c 0aaa 45be d05d 25be
00000230: 9231 e4bc 1618 e4bd 777f 433e fcc5 1c3e
00000240: 8389 8b3d 7978 e83d 3424 233c 65b6 96be
00000250: a91a 94bc 6c1d 7dbe b8ef 183e f380 4bbd
00000260: c6ca 92bd 1b40 1bbe d67f 193e 84d9 d2bd
00000270: cd44 4f3e 0782 493e e0b9 0b3e 8460 e53d
00000280: 09a1 a0bc 2660 293e 9b19 a5bd 3328 083e
00000290: f6fe dfba a750 03be 4dff 5c3d f493 a2bc
000002a0: a8c0 5d3e 220c 96bd 5fbd 01be 35ee 823d
000002b0: ecfb e7bd e4bd 09be a496 733d f243 0d3e
000002c0: 8579 c7bd b007 ba3d fd64 e23d 3c9a 18be
000002d0: aa74 163d 6c18 34bd 2988 963d d081 dbbd
000002e0: dbbb 28bd ba4f 2abe c209 37bd 25ee 9dbc
000002f0: de2d 7abd 425d 2e3e bc3a 993d 677f 683e
00000300: adf6 ad3c e7b6 ae3d 3b9e 71be 8013 0bbe
00000310: a62f 383e c788 5a3c 83cf 40bb da22 d93d
00000320: 6c00 33be 5c71 033d d623 d9bd a20c 97bd
00000330: 7a65 973e d454 273e 0df8 b73d f537 313e
00000340: 7a66 173e 424d e0bd b9f6 16be f67f 183c
00000350: 8936 e4bd 9a3d 453e 15bf 323e 3021 953d
00000360: 1551 0d3e cf80 25bc 8d97 253e 6942 00be
00000370: 9628 1abd c9d6 a03e a297 9e3e 08ea 0cbe
00000380: fe1e 293c 49c0 9abc 1c35 debd 490c 193d
00000390: c2ce d4bd 9530 1fbe 9dba 2d3d f8ad e8bd
000003a0: 865f e03c 8ac6 ff3d 7471 b03e 59db 95bb
000003b0: 42df 6f3e 155e 413e 031c e33d 5b10 803b
000003c0: 3534 1a3e 0a17 45bd 8fbe 293b d846 833d
000003d0: 1391 bcbc 8d08 cf3d bb7c 2abe d0f5 9f3e
000003e0: beef c2bd 7274 073b 2f93 21bd b11a 283e
000003f0: 9348 b23d 9535 42bc 73b7 e13d 9479 a4bd

sequential/dense_2/MatMul;StatefulPartitionedCall/sequential/dense_2/MatMul f4 [20, 50]
-0.09986589 0.010462254 0.14256524 -0.009322072 -0.25410166 0.32008323 0.05618534 0.07990275
-0.109479606 -0.48754996 0.10508988 -0.19899258 0.13863489 0.17307802 0.28630584 -0.18823306
-0.01073543 -0.008829108 -0.15217447 0.14903444 0.2085295 0.22064596 -0.17315516 -0.018563474
-0.04258647 0.06560775 -0.25782245 0.31788447 -0.12037424 0.043657698 -0.033182204 0.34193233
-0.14236675 0.07655631 -0.261401 0.10733201 -0.037565645 0.031055795 0.2739386 -0.0840936
0.26131967 0.2399972 -0.020407958 -0.061154302 0.06415801 -0.048196904 0.14139684 0.30346602
-0.27386722 -0.10258106 0.27362883 0.071868606 -0.24116609 0.10494648 -0.084289305 -0.004885845
-0.058857054 0.19656831 -0.01162661 0.41706157 -0.016939677 0.27656665 0.15578625 0.08614893
-0.20664167 0.16201164 0.040442698 0.30638254 -0.25999865 -0.22325735 0.23035806 0.057524115
0.3015949 0.107109874 -0.21796393 0.2491679 0.122659236 0.014156427 -0.19598489 0.0021381725
0.07817057 0.22698826 -0.06989879 -0.12549892 0.10407184 -0.31061667 -0.07658702 -0.22935207
-0.2125952 0.03413568 0.24938138 0.07913669 0.22013582 -0.10687361 -0.2800028 -0.014074683
0.3159237 0.16891313 -0.22878326 -0.2507602 -0.32060733 0.1546349 0.34797427 0.28109807
0.037503235 0.1363225 -0.13820747 0.27732372 0.043480437 -0.2542519 -0.1750159 -0.1242945
-0.088765435 0.25301474 0.2852486 0.128692 0.08097693 -0.04370311 -0.02054847 0.22309472
-0.012772895 0.14994279 0.18486793 -0.023938164 -0.064715065 -0.07868698 0.23388602 0.017395156
0.30813208 0.14641121 -0.31034204 0.05336418 0.2660102 0.058600415 0.20852314 0.11848836
0.25587 0.08310121 -0.08435663 -0.40127838 0.14643472 -0.12075493 -0.14942376 -0.045496542
-0.15673296 -0.150834 -0.062560044 -0.11802876 0.22802675 -0.17394419 -0.04094168 0.05902282
-0.1022935 0.11483735 0.20565787 0.3371382 -0.24180248 0.02410184 0.2947755 -0.21626693
0.41257513 0.16487266 0.24874015 0.35674796 0.26704744 -0.3413189 0.3364824 -0.09117327
0.021237278 -0.03996679 0.017139602 -0.22565535 -0.23810528 -0.1127582 0.20294257 0.038533896
0.314403 0.12541592 -0.22063464 -0.1208363 -0.027325345 0.020648593 0.26948863 -0.1319588
0.22271897 -0.07844315 -0.09284074 -0.28131926 -0.17973515 0.45881093 0.17276414 -0.21594818
-0.038093235 -0.042841863 0.27476713 -0.26656023 0.38100228 0.09812492 0.24816334 -0.13152902
-0.04714662 -0.14276235 -0.040363934 0.1627934 -0.06414503 0.35209307 0.022274 -0.07849207
0.056177165 -0.4358307 0.3539771 0.22913677 0.052879132 0.27384034 0.20234568 0.05702289
0.12323733 -0.25224438 0.27131733 -0.1651871 -0.15028721 -0.22782929 0.06179314 0.0123464605
-0.034293346 -0.010790127 0.20084618 0.26354137 0.1915414 -0.33214584 -0.22483262 -0.11838153
-0.15598522 -0.17022094 0.058092374 0.19734311 0.22146778 0.07868722 0.30312452 0.055365443
0.16478021 0.3214101 -0.21370432 0.3279392 -0.26718748 -0.17818639 -0.024755523 0.30572784
0.18470189 0.11497072 0.056218874 0.2248972 -0.11746974 -0.21781908 0.15656084 -0.14354691
00000000: 7d86 ccbd e069 2b3c 9ffc 113e 9bbb 18bc
00000010: 9d19 82be f3e1 a33e 9922 663d 0ea4 a33d
00000020: d836 e0bd 26a0 f9be 5d39 d73d b6c4 4bbe
00000030: 4ef6 0d3e 5d3b 313e ae96 923e 2bc0 40be
00000040: a8e3 2fbc f7a7 10bc a0d3 1bbe 7c9c 183e
00000050: c288 553e 04f1 613e 964f 31be 6d12 98bc
00000060: 266f 2ebd 5b5d 863d 4e01 84be c1c1 a23e
00000070: c586 f6bd 6ad2 323d 10ea 07bd c111 af3e
00000080: 97c8 11be 8ec9 9c3d 5ad6 85be e3d0 db3d
00000090: 6fde 19bd b968 fe3c ae41 8c3e 4439 acbd
000000a0: b1cb 853e d3c1 753e 972e a7bc ef7c 7abd
000000b0: 4665 833d 1e6a 45bd 55ca 103e e65f 9b3e
000000c0: 5338 8cbe 0516 d2bd 1419 8c3e d92f 933d
000000d0: 3ef4 76be 2eee d63d df9f acbd 7019 a0bb
000000e0: 1814 71bd 3449 493e 897d 3ebc 1889 d53e
000000f0: 14c5 8abc 259a 8d3e 6e86 1f3e da6e b03d
00000100: e099 53be 61e6 253e 3ea7 253d 2cde 9c3e
00000110: 8b1e 85be 939d 64be fce2 6b3e 689e 6b3d
00000120: a66a 9a3e 6c5c db3d f031 5fbe df25 7f3e
00000130: c434 fb3d 5cf0 673c 43b0 48be 9520 0c3b
00000140: e417 a03d 9c6f 683e 1927 8fbd ca82 00be
00000150: 9e23 d53d 2609 9fbe a8d9 9cbd 45db 6abe
00000160: 8eb2 59be dbd1 0b3d d55d 7f3e 6b12 a23d
00000170: 496b 613e 8de0 dabd 875c 8fbe 8099 66bc
00000180: c0c0 a13e 90f7 2c3e 2946 6abe a463 80be
00000190: a526 a4be 9c58 1e3e af29 b23e 16ec 8f3e
000001a0: fe9c 193d 2098 0b3e 4286 0dbe 60fd 8d3e
000001b0: 8b18 323d 4e2d 82be 5e37 33be 1d8e febd
000001c0: a7ca b5bd 268b 813e 1b0c 923e d6c7 033e
000001d0: 3cd7 a53d 0802 33bd 4455 a8bc f172 643e
000001e0: 6845 51bc 9a8a 193e 054e 3d3e f819 c4bc
000001f0: 5589 84bd a426 a1bd d17f 6f3e 4980 8e3c
00000200: 7dc3 9d3e d2ec 153e 27e5 9ebe 6694 5a3d
00000210: 7d32 883e fd06 703d 1787 553e 06aa f23d
00000220: 6501 833e f830 aa3d 2bc3 acbd 5c74 cdbe
00000230: fcf2 153e 5c4e f7bd 8b02 19be 955a 3abd
00000240: 9b7e 20be 3a74 1abe 7b1f 80bd 10b9 f1bd
00000250: d87f 693e 6d1e 32be 77b2 27bd eac1 713d
00000260: 417f d1bd d82f eb3d fa97 523e 619d ac3e
00000270: 129b 77be 3971 c53c d0ec 963e 1475 5dbe
00000280: 0c3d d33e 61d4 283e bdb5 7e3e aba7 b63e
00000290: 71ba 883e 5ac1 aebe 6c47 ac3e 0db9 babd
000002a0: cdf9 ad3c 37b4 23bd 5a68 8c3c 3212 67be
000002b0: dfd1 73be c5ed e6bd 2dd0 4f3e b8d5 1d3d
000002c0: 6ef9 a03e 086d 003e 0cee 61be 0679 f7bd
000002d0: 67d9 dfbc 3d27 a93c 6afa 893e 3520 07be
000002e0: 7110 643e cda6 a0bd 4923 bebd 1409 90be
000002f0: 7e0c 38be 44e9 ea3e 15e9 303e 8521 5dbe
00000300: a707 1cbd f37a 2fbd 47ae 8c3e 957a 88be
00000310: bb12 c33e b8f5 c83d 881e 7e3e 8baf 06be
00000320: d01c 41bd 4b30 12be a754 25bd 50b3 263e
00000330: 785e 83bd 8b45 b43e f777 b63c 73c0 a0bd
00000340: 071a 663d 3425 dfbe 7d3c b53e d4a2 6a3e
00000350: ca97 583d cd34 8c3e b533 4f3e d590 693d
00000360: da63 fc3d 2d26 81be 1bea 8a3e cf26 29be
00000370: e4e4 19be 154c 69be ce1a 7d3d cf48 4a3c
00000380: 2e77 0cbd 13c9 30bc 9faa 4d3e e5ee 863e
00000390: 6e23 443e 050f aabe 863a 66be 0472 f2bd
000003a0: 97ba 1fbe 664e 2ebe 45f2 6d3d 5014 4a3e
000003b0: 73c8 623e c426 a13d 2333 9b3e e0c6 623d
000003c0: 25bc 283e dd8f a43e 4ed5 5abe a6e7 a73e
000003d0: cccc 88be 7e76 36be 18cc cabc 5c88 9c3e
000003e0: 7e22 3d3e c575 eb3d c345 663d 744b 663e
000003f0: fa93 f0bd f70b 5fbe 7c51 203e f6fd 12be

sequential/dense_3/MatMul;StatefulPartitionedCall/sequential/dense_3/MatMul f4 [10, 20]
0.12258011 -0.4023013 -0.43747646 -0.044649035 -0.39893433 -0.08254671 -0.2506594 0.11418229
0.38351592 -0.06921406 0.06600499 0.29889712 -0.37170374 -0.11540654 0.3845368 -0.025221987
-0.19255847 0.17594598 -0.09135631 0.06372715 -0.2735383 0.2811627 -0.4464487 0.02308772
-0.29268566 -0.262356 0.3664715 0.009115414 -0.29172644 -0.2977307 0.339818 0.23846315
0.28745905 0.49506855 -0.32306007 0.30295137 0.25900668 -0.29805246 0.63984627 -0.4534202
-0.17334631 -0.15618175 -0.4713729 0.6748081 0.31650028 0.5031367 0.5034936 -0.16024987
-0.3475209 -0.39054546 0.3133126 0.21909414 0.4088682 0.37871525 -0.024680505 0.3551099
-0.45139182 0.22693458 0.18128139 -0.13136952 0.17015374 -0.34544063 0.070213616 0.064539194
-0.3663076 -0.27333197 -0.36736244 -0.2659905 0.2841637 0.033492625 -0.35028756 -0.26972306
-0.07117143 -0.271455 0.17802918 -0.11499402 0.25443327 0.349715 0.16928655 -0.26021627
0.44864163 -0.42583656 0.3382332 0.213615 0.266517 0.19671057 -0.08588793 -0.15078889
-0.1278858 0.24504887 -0.318174 -0.2639916 0.13368326 0.47588095 -0.35016578 -0.68840563
0.015657172 0.1704822 0.053763565 -0.16336419 -0.32731482 -0.36921877 0.2133183 -0.22692966
0.055626787 -0.40982673 0.3500951 0.4115543 -0.41561967 -0.019197317 0.07566148 -0.17445132
-0.1578992 -0.2658033 -0.3579561 0.068251595 0.39847258 0.0792369 -0.04717729 -0.2607894
-0.15462852 -0.107069895 -0.39066797 -0.22058144 -0.006143987 0.43614316 -0.13118859 0.19234544
0.14715508 0.44177118 0.057454467 -0.4462957 -0.3717764 -0.36187342 0.09707171 -0.35636345
-0.27064055 -0.39586887 0.2543558 -0.3330989 0.6027277 -0.5364134 0.02508435 0.09626206
0.37683365 -0.30154717 0.21468338 -0.17677228 -0.04211741 -0.2548622 -0.27671546 0.17072263
-0.07991225 -0.34525996 0.3593076 -0.25016305 -0.06969389 -0.1380958 0.25652304 0.4263906
-0.36244774 0.07830665 0.3809076 -0.19071464 -0.039581858 -0.15618992 0.055745933 0.10574883
-0.2846069 0.38947448 0.19601738 -0.31447294 -0.1216583 -0.49801466 0.049227454 -0.31675097
-0.3672265 0.50764114 0.046129305 0.4802473 -0.0020906846 0.22318147 0.22744255 -0.43558046
-0.30739343 -0.3685324 0.43255422 0.01796087 -0.22516215 -0.19242886 -0.3478349 0.14597128
0.024616882 -0.06628074 0.04829322 -0.10789118 0.31228638 0.037557267 -0.19700034 0.29077214
00000000: 480b fb3d 70fa cdbe eafc dfbe e8e1 36bd
00000010: 1f41 ccbe 400e a9bd 6e56 80be 68d8 e93d
00000020: 335c c43e 1ac0 8dbd a02d 873d 0b09 993e
00000030: f44f bebe 445a ecbd 02e2 c43e 579e cebc
00000040: 0c2e 45be 2f2b 343e 0419 bbbd 6183 823d
00000050: 360d 8cbe 8ff4 8f3e ed94 e4be 7522 bd3c
00000060: e5da 95be 8753 86be 27a2 bb3e d158 153c
00000070: 2b5d 95be 2970 98be a0fc ad3e af2f 743e
00000080: d52d 933e a079 fd3e 2168 a5be 711c 9b3e
00000090: 869c 843e 559a 98be f7cc 233f b126 e8be
000000a0: b281 31be 1cee 1fbe ca57 f1be 39c0 2c3f
000000b0: 530c a23e 91cd 003f f5e4 003f 8b18 24be
000000c0: 42ee b1be 93f5 c7be 826a a03e 375a 603e
000000d0: 2c57 d13e f7e6 c13e c52e cabc f7d0 b53e
000000e0: d41c e7be 8a61 683e d4a1 393e bb85 06be
000000f0: c83c 2e3e 98dd b0be 28cc 8f3d 202d 843d
00000100: ab8c bbbe 2bf2 8bbe ee16 bcbe e82f 88be
00000110: e87d 913e 902f 093d e458 b3be 2419 8abe
00000120: 54c2 91bd 26fc 8abe 484d 363e fc81 ebbd
00000130: 1445 823e d80d b33e 7459 2d3e 113b 85be
00000140: 5bb4 e53e 4007 dabe e72c ad3e e4bd 5a3e
00000150: eb74 883e 7f6e 493e 03e6 afbd 6768 1abe
00000160: 7ff4 02be 17ee 7a3e b4e7 a2be e829 87be
00000170: 44e4 083e aba6 f33e ee48 b3be 5a3b 30bf
00000180: 7843 803c e392 2e3e 2f37 5c3d f148 27be
00000190: cf95 a7be 3e0a bdbe 1d70 5a3e 4060 68be
000001a0: ead8 633d cfd4 d1be aa3f b33e 3fb7 d23e
000001b0: 1acc d4be b143 9dbc 68f4 9a3d 5ea3 32be
000001c0: 54b0 21be 5f17 88be 0646 b7be 7ec7 8b3d
000001d0: 9904 cc3e f546 a23d f93c 41bd 3086 85be
000001e0: f056 1ebe 7647 dbbd a205 c8be 1ae0 61be
000001f0: 8053 c9bb 284e df3e 4d56 06be 34f6 443e
00000200: d2af 163e d52f e23e 6055 6b3d df80 e4be
00000210: 7a59 bebe 7947 b9be 88cd c63d 4575 b6be
00000220: 6691 8abe 53af cabe ec3a 823e f08b aabe
00000230: 5d4c 1a3f 6352 09bf b27d cd3c 0b25 c53d
00000240: 57f0 c03e 6464 9abe f6d5 5b3e cb03 35be
00000250: 4e83 2cbd 4c7d 82be a6ad 8dbe ead1 2e3e
00000260: 09a9 a3bd eac5 b0be 2af7 b73e 5f15 80be
00000270: acbb 8ebd fc68 0dbe fd56 833e de4f da3e
00000280: c092 b9be 3d5f a03d 5206 c33e b34a 43be
00000290: 9620 22bd 40f0 1fbe d955 643d d892 d83d
000002a0: ffb7 91be 3369 c73e c8b8 483e 9902 a1be
000002b0: fd27 f9bd c7fb febe baa2 493d 2f2d a2be
000002c0: 1d05 bcbe c5f4 013f 15f2 3c3d f9e2 f53e
000002d0: de03 09bb af89 643e b3e6 683e 6704 dfbe
000002e0: ac62 9dbe 47b0 bcbe bf77 dd3e ad22 933c
000002f0: e890 66be 120c 45be 6a17 b2be 7f79 153e
00000300: 58a9 c93c 32be 87bd 1dcf 453d 0df6 dcbd
00000310: 00e4 9f3e a6d5 193d 75ba 49be 16e0 943e

sequential/y_pred/MatMul;StatefulPartitionedCall/sequential/y_pred/MatMul f4 [4, 10]
-0.5018388 0.49085242 0.57102406 -0.2393992 0.15834202 -0.41574898 0.26780483 -0.7369272
-0.5333132 -0.38863736 -0.51289546 -0.2682601 0.4003384 0.11945158 0.68480855 -0.5389139
0.6099058 0.08529889 -0.64443874 -0.19565353 0.61038554 -0.7382304 0.4763531 0.2174496
-0.64178157 -0.14132905 0.63120174 0.24627988 0.3294928 0.4471742 -0.5707514 0.34553623
-0.28638574 -0.29771408 -0.50534505 0.64353347 -0.23005673 0.020161642 0.43859473 0.56874645
00000000: 8278 00bf 0251 fb3e a22e 123f 1025 75be
00000010: 6924 223e 0ddd d4be b71d 893e 43a7 3cbf
00000020: 3787 08bf 7afb c6be 1e4d 03bf 6359 89be
00000030: 28f9 cc3e 08a3 f43d 9d4f 2f3f 43f6 09bf
00000040: c922 1c3f 2fb1 ae3d f0f9 24bf 6659 48be
00000050: 3a42 1c3f abfc 3cbf 8ee4 f33e 1cab 5e3e
00000060: cc4b 24bf 90b8 10be 7096 213f cb30 7c3e
00000070: 48b3 a83e 04f4 e43e c41c 12bf 20ea b03e
00000080: 27a1 92be fb6d 98be 4b5e 01bf 9cbe 243f
00000090: fe93 6bbe 072a a53c 7d8f e03e 5e99 113f
