benchmark-nn/gestures-large-i8/ei-benchmark-gestures-large-nn-classifier-tensorflow-lite-int8-quantized-model.lite (tflite, 14144 bytes, 5 tensors)

sequential/dense/MatMul;StatefulPartitionedCall/sequential/dense/MatMul i1 [100, 33] scale=0.0028066793 zero_point=0
0	0xce	-0.14033397
1	0x02	0.0056133587
2	0x49	0.2048876
3	0x53	0.23295438
4	0x46	0.19646755
5	0xda	-0.10665382
6	0xd8	-0.112267174
7	0xdf	-0.09262042
8	0x2b	0.12068721
9	0x0b	0.030873474
10	0x2b	0.12068721
11	0x16	0.061746947
12	0x05	0.014033397
13	0xef	-0.047713548
14	0x42	0.18524083
15	0x3c	0.16840076
16	0x2c	0.123493895
17	0x15	0.058940265
18	0x3d	0.17120744
19	0xf6	-0.028066793
20	0x98	-0.29189464
21	0xb3	-0.21611431
22	0x19	0.07016698
23	0x05	0.014033397
24	0x45	0.19366087
25	0xc3	-0.17120744
26	0x44	0.19085419
27	0xf4	-0.033680152
28	0x41	0.18243416
29	0x56	0.24137442
30	0x40	0.17962748
31	0x3c	0.16840076
32	0xf7	-0.025260113
33	0xfc	-0.011226717
34	0x3a	0.16278741
35	0x1a	0.07297366
36	0xd8	-0.112267174
37	0xf2	-0.039293513
38	0xd6	-0.11788053
39	0x33	0.14314064
40	0x2e	0.12910725
41	0xda	-0.10665382
42	0xbb	-0.19366087
43	0x26	0.10665382
44	0xf4	-0.033680152
45	0x39	0.15998073
46	0xdc	-0.10104045
47	0xb2	-0.21892099
48	0x0e	0.039293513
49	0x3f	0.1768208
50	0xf3	-0.03648683
51	0x48	0.2020809
52	0x49	0.2048876
53	0xfd	-0.008420038
54	0x49	0.2048876
55	0xea	-0.061746947
56	0xb3	-0.21611431
57	0x31	0.13752729
58	0xc3	-0.17120744
59	0x0d	0.03648683
60	0x2f	0.13191393
61	0x1b	0.07578034
62	0xff	-0.0028066793
63	0x21	0.09262042
64	0x00	0.0
65	0x02	0.0056133587
66	0xfa	-0.016840076
67	0x11	0.047713548
68	0xe2	-0.08420038
69	0xbd	-0.18804751
70	0x2e	0.12910725
71	0x3b	0.16559409
72	0xcb	-0.148754
73	0x13	0.05332691
74	0x39	0.15998073
75	0x04	0.011226717
76	0x41	0.18243416
77	0x1f	0.08700706
78	0x1b	0.07578034
79	0xc1	-0.1768208
80	0x34	0.14594732
81	0x29	0.11507385
82	0x12	0.050520226
83	0x46	0.19646755
84	0xdc	-0.10104045
85	0x0c	0.033680152
86	0xcc	-0.14594732
87	0x3a	0.16278741
88	0xf7	-0.025260113
89	0x09	0.025260113
90	0x45	0.19366087
91	0xde	-0.095427096
92	0x21	0.09262042
93	0xf3	-0.03648683
94	0xf3	-0.03648683
95	0xb9	-0.19927423
96	0x2c	0.123493895
97	0xee	-0.050520226
98	0xff	-0.0028066793
99	0xb7	-0.2048876
100	0x0b	0.030873474
101	0x01	0.0028066793
102	0xd5	-0.12068721
103	0xb4	-0.21330763
104	0x3d	0.17120744
105	0xfc	-0.011226717
106	0x3b	0.16559409
107	0x06	0.016840076
108	0xd3	-0.12630057
109	0x3f	0.1768208
110	0xcc	-0.14594732
111	0xb4	-0.21330763
112	0x0e	0.039293513
113	0x19	0.07016698
114	0xc5	-0.16559409
115	0x27	0.109460495
116	0x25	0.10384714
117	0xfa	-0.016840076
118	0xba	-0.19646755
119	0xeb	-0.058940265
120	0x0f	0.04210019
121	0x14	0.056133587
122	0x29	0.11507385
123	0x13	0.05332691
124	0xc4	-0.16840076
125	0xd0	-0.13472061
126	0xe1	-0.08700706
127	0x11	0.047713548
128	0x31	0.13752729
129	0x22	0.095427096
130	0xe5	-0.07578034
131	0xf4	-0.033680152
132	0xf2	-0.039293513
133	0x5f	0.26663452
134	0x08	0.022453435
135	0xfd	-0.008420038
136	0x16	0.061746947
137	0xef	-0.047713548
138	0x0a	0.028066793
139	0xd0	-0.13472061
140	0x12	0.050520226
141	0xef	-0.047713548
142	0x13	0.05332691
143	0xfa	-0.016840076
144	0xec	-0.056133587
145	0x07	0.019646756
146	0xf3	-0.03648683
147	0x34	0.14594732
148	0xfb	-0.014033397
149	0xfd	-0.008420038
150	0xad	-0.23295438
151	0xfc	-0.011226717
152	0xf1	-0.04210019
153	0x29	0.11507385
154	0x1c	0.078587025
155	0x21	0.09262042
156	0xd2	-0.12910725
157	0x4e	0.21892099
158	0xe7	-0.07016698
159	0xd7	-0.11507385
160	0x1b	0.07578034
161	0xff	-0.0028066793
162	0xbe	-0.18524083
163	0xdb	-0.10384714
164	0xea	-0.061746947
165	0x21	0.09262042
166	0x1f	0.08700706
167	0xd6	-0.11788053
168	0x0b	0.030873474
169	0xd8	-0.112267174
170	0x24	0.10104045
171	0x1c	0.078587025
172	0x2a	0.11788053
173	0xf9	-0.019646756
174	0x2b	0.12068721
175	0xed	-0.05332691
176	0x28	0.112267174
177	0xee	-0.050520226
178	0xfa	-0.016840076
179	0xaf	-0.22734103
180	0xb4	-0.21330763
181	0xb5	-0.21050096
182	0x3a	0.16278741
183	0x10	0.04490687
184	0xfa	-0.016840076
185	0xfa	-0.016840076
186	0xd2	-0.12910725
187	0x04	0.011226717
188	0xd3	-0.12630057
189	0xcd	-0.14314064
190	0x23	0.098233774
191	0xe1	-0.08700706
192	0xbc	-0.19085419
193	0xf4	-0.033680152
194	0x44	0.19085419
195	0xfa	-0.016840076
196	0xc4	-0.16840076
197	0x0c	0.033680152
198	0xbf	-0.18243416
199	0x13	0.05332691
200	0xb9	-0.19927423
201	0x07	0.019646756
202	0x03	0.008420038
203	0xfa	-0.016840076
204	0x18	0.067360304
205	0xdb	-0.10384714
206	0x38	0.15717405
207	0xfa	-0.016840076
208	0x12	0.050520226
209	0x18	0.067360304
210	0x1d	0.081393704
211	0xb3	-0.21611431
212	0xb9	-0.19927423
213	0xd0	-0.13472061
214	0x26	0.10665382
215	0xd3	-0.12630057
216	0xdf	-0.09262042
217	0x04	0.011226717
218	0x0f	0.04210019
219	0xbe	-0.18524083
220	0x3d	0.17120744
221	0x1c	0.078587025
222	0x29	0.11507385
223	0x08	0.022453435
224	0xda	-0.10665382
225	0x2f	0.13191393
226	0x25	0.10384714
227	0x29	0.11507385
228	0xea	-0.061746947
229	0x0f	0.04210019
230	0xb2	-0.21892099
231	0xdf	-0.09262042
232	0x66	0.2862813
233	0x1f	0.08700706
234	0x07	0.019646756
235	0xf4	-0.033680152
236	0xc6	-0.16278741
237	0xc4	-0.16840076
238	0xf8	-0.022453435
239	0xe3	-0.081393704
240	0x25	0.10384714
241	0x37	0.15436736
242	0x1e	0.08420038
243	0x16	0.061746947
244	0x2e	0.12910725
245	0xd0	-0.13472061
246	0x3b	0.16559409
247	0x40	0.17962748
248	0x21	0.09262042
249	0xa1	-0.26663452
250	0xd2	-0.12910725
251	0xb4	-0.21330763
252	0x2c	0.123493895
253	0x3a	0.16278741
254	0x46	0.19646755
255	0x08	0.022453435

sequential/dense_1/MatMul;StatefulPartitionedCall/sequential/dense_1/MatMul i1 [50, 100] scale=0.0035008101 zero_point=0
0	0xd1	-0.16453807
1	0xf3	-0.04551053
2	0xf7	-0.03150729
3	0xf1	-0.05251215
4	0x46	0.2450567
5	0xfd	-0.010502431
6	0xed	-0.06651539
7	0x21	0.115526736
8	0xf2	-0.049011342
9	0x1e	0.1050243
10	0xd3	-0.15753646
11	0xc9	-0.19254455
12	0x1c	0.098022684
13	0xb7	-0.25555915
14	0xf0	-0.056012962
15	0x23	0.12252835
16	0xe5	-0.09452187
17	0x55	0.29756886
18	0x1c	0.098022684
19	0xe7	-0.08752026
20	0xcf	-0.1715397
21	0x49	0.25555915
22	0x2a	0.14703402
23	0xde	-0.11902755
24	0x19	0.08752026
25	0xc6	-0.20304699
26	0x1e	0.1050243
27	0x20	0.112025924
28	0x66	0.35708264
29	0x1a	0.09102106
30	0x2b	0.15053484
31	0x15	0.07351701
32	0x11	0.059513774
33	0xd1	-0.16453807
34	0x4b	0.26256076
35	0x0c	0.042009722
36	0x03	0.010502431
37	0x13	0.06651539
38	0xe5	-0.09452187
39	0x2b	0.15053484
40	0x3f	0.22055104
41	0xf2	-0.049011342
42	0xf2	-0.049011342
43	0x47	0.24855752
44	0xe7	-0.08752026
45	0xde	-0.11902755
46	0x0c	0.042009722
47	0x7f	0.44460288
48	0x18	0.084019445
49	0xba	-0.2450567
50	0xe2	-0.1050243
51	0xec	-0.070016205
52	0x1f	0.10852511
53	0xda	-0.13303079
54	0x1b	0.09452187
55	0xb6	-0.25905994
56	0x32	0.17504051
57	0x03	0.010502431
58	0xad	-0.29056725
59	0x0f	0.05251215
60	0xd1	-0.16453807
61	0x1d	0.101523496
62	0xe4	-0.098022684
63	0xd5	-0.15053484
64	0xb9	-0.24855752
65	0xef	-0.059513774
66	0x07	0.024505671
67	0x25	0.12952997
68	0xe4	-0.098022684
69	0x02	0.0070016203
70	0x06	0.021004861
71	0x20	0.112025924
72	0xc4	-0.2100486
73	0x36	0.18904375
74	0x1e	0.1050243
75	0xd8	-0.14003241
76	0xf3	-0.04551053
77	0x04	0.0140032405
78	0x64	0.35008103
79	0x2e	0.16103727
80	0xdd	-0.12252835
81	0x0a	0.035008103
82	0x32	0.17504051
83	0xbd	-0.23455428
84	0xeb	-0.07351701
85	0x23	0.12252835
86	0xed	-0.06651539
87	0x4c	0.26606157
88	0x44	0.2380551
89	0xe6	-0.09102106
90	0x02	0.0070016203
91	0xe8	-0.084019445
92	0x5c	0.32207453
93	0x04	0.0140032405
94	0x3b	0.2065478
95	0x03	0.010502431
96	0xeb	-0.07351701
97	0xce	-0.17504051
98	0x29	0.14353321
99	0xc1	-0.22055104
100	0xdf	-0.115526736
101	0x00	0.0
102	0x06	0.021004861
103	0xd3	-0.15753646
104	0x15	0.07351701
105	0x3a	0.20304699
106	0xe0	-0.112025924
107	0x1f	0.10852511
108	0xca	-0.18904375
109	0x2e	0.16103727
110	0x30	0.16803889
111	0x3d	0.21354942
112	0x31	0.1715397
113	0x24	0.12602916
114	0xe2	-0.1050243
115	0x35	0.18554294
116	0x25	0.12952997
117	0x25	0.12952997
118	0x06	0.021004861
119	0x2f	0.16453807
120	0x1b	0.09452187
121	0x01	0.0035008101
122	0x07	0.024505671
123	0x33	0.17854132
124	0xed	-0.06651539
125	0x22	0.11902755
126	0x1f	0.10852511
127	0x34	0.18204212
128	0xdb	-0.12952997
129	0x42	0.23105347
130	0x0f	0.05251215
131	0xdd	-0.12252835
132	0x19	0.08752026
133	0xed	-0.06651539
134	0x24	0.12602916
135	0x10	0.056012962
136	0xc0	-0.22405185
137	0x03	0.010502431
138	0xc9	-0.19254455
139	0xd2	-0.16103727
140	0xf8	-0.028006481
141	0xe0	-0.112025924
142	0x37	0.19254455
143	0x2c	0.15403564
144	0x13	0.06651539
145	0x20	0.112025924
146	0x03	0.010502431
147	0xac	-0.29406804
148	0xfb	-0.017504051
149	0xb9	-0.24855752
150	0x2b	0.15053484
151	0xf2	-0.049011342
152	0xec	-0.070016205
153	0xd5	-0.15053484
154	0x2b	0.15053484
155	0xe3	-0.101523496
156	0x3a	0.20304699
157	0x38	0.19604537
158	0x27	0.13653159
159	0x20	0.112025924
160	0xfa	-0.021004861
161	0x2f	0.16453807
162	0xe9	-0.08051863
163	0x26	0.13303079
164	0x00	0.0
165	0xdb	-0.12952997
166	0x0f	0.05251215
167	0xfa	-0.021004861
168	0x3e	0.21705022
169	0xeb	-0.07351701
170	0xdc	-0.12602916
171	0x12	0.06301458
172	0xe0	-0.112025924
173	0xda	-0.13303079
174	0x11	0.059513774
175	0x27	0.13653159
176	0xe4	-0.098022684
177	0x1a	0.09102106
178	0x20	0.112025924
179	0xd5	-0.15053484
180	0x0a	0.035008103
181	0xf3	-0.04551053
182	0x15	0.07351701
183	0xe1	-0.10852511
184	0xf4	-0.042009722
185	0xd0	-0.16803889
186	0xf3	-0.04551053
187	0xfa	-0.021004861
188	0xef	-0.059513774
189	0x31	0.1715397
190	0x15	0.07351701
191	0x41	0.22755265
192	0x06	0.021004861
193	0x18	0.084019445
194	0xbd	-0.23455428
195	0xd9	-0.13653159
196	0x33	0.17854132
197	0x04	0.0140032405
198	0xff	-0.0035008101
199	0x1e	0.1050243
200	0xce	-0.17504051
201	0x09	0.03150729
202	0xe2	-0.1050243
203	0xeb	-0.07351701
204	0x54	0.29406804
205	0x2f	0.16453807
206	0x1a	0.09102106
207	0x31	0.1715397
208	0x2a	0.14703402
209	0xe1	-0.10852511
210	0xd6	-0.14703402
211	0x03	0.010502431
212	0xe0	-0.112025924
213	0x37	0.19254455
214	0x32	0.17504051
215	0x15	0.07351701
216	0x27	0.13653159
217	0xfd	-0.010502431
218	0x2e	0.16103727
219	0xdc	-0.12602916
220	0xf5	-0.03850891
221	0x5a	0.31507292
222	0x58	0.3080713
223	0xd9	-0.13653159
224	0x03	0.010502431
225	0xfb	-0.017504051
226	0xe1	-0.10852511
227	0x0b	0.03850891
228	0xe2	-0.1050243
229	0xd4	-0.15403564
230	0x0c	0.042009722
231	0xe0	-0.112025924
232	0x08	0.028006481
233	0x24	0.12602916
234	0x62	0.3430794
235	0xff	-0.0035008101
236	0x43	0.23455428
237	0x36	0.18904375
238	0x20	0.112025924
239	0x01	0.0035008101
240	0x2b	0.15053484
241	0xf2	-0.049011342
242	0x01	0.0035008101
243	0x12	0.06301458
244	0xf9	-0.024505671
245	0x1d	0.101523496
246	0xd0	-0.16803889
247	0x59	0.3115721
248	0xe5	-0.09452187
249	0x01	0.0035008101
250	0xf5	-0.03850891
251	0x2f	0.16453807
252	0x19	0.08752026
253	0xfd	-0.010502431
254	0x1f	0.10852511
255	0xe9	-0.08051863

sequential/dense_2/MatMul;StatefulPartitionedCall/sequential/dense_2/MatMul i1 [20, 50] scale=0.004101305 zero_point=0
0	0xe8	-0.09843132
1	0x03	0.012303915
2	0x23	0.14354567
3	0xfe	-0.00820261
4	0xc2	-0.2542809
5	0x4e	0.31990176
6	0x0e	0.05741827
7	0x13	0.07792479
8	0xe5	-0.11073523
9	0x89	-0.48805526
10	0x1a	0.106633924
11	0xcf	-0.20096393
12	0x22	0.13944437
13	0x2a	0.1722548
14	0x46	0.28709134
15	0xd2	-0.18866003
16	0xfd	-0.012303915
17	0xfe	-0.00820261
18	0xdb	-0.15174828
19	0x24	0.14764698
20	0x33	0.20916654
21	0x36	0.22147046
22	0xd6	-0.1722548
23	0xfb	-0.020506524
24	0xf6	-0.041013047
25	0x10	0.06562088
26	0xc1	-0.2583822
27	0x4e	0.31990176
28	0xe3	-0.11893784
29	0x0b	0.045114353
30	0xf8	-0.03281044
31	0x53	0.3404083
32	0xdd	-0.14354567
33	0x13	0.07792479
34	0xc0	-0.2624835
35	0x1a	0.106633924
36	0xf7	-0.036911745
37	0x08	0.03281044
38	0x43	0.27478743
39	0xeb	-0.0861274
40	0x40	0.2624835
41	0x3b	0.24197698
42	0xfb	-0.020506524
43	0xf1	-0.06151957
44	0x10	0.06562088
45	0xf4	-0.04921566
46	0x22	0.13944437
47	0x4a	0.30349657
48	0xbd	-0.27478743
49	0xe7	-0.10253262
50	0x43	0.27478743
51	0x12	0.07382349
52	0xc5	-0.24197698
53	0x1a	0.106633924
54	0xeb	-0.0861274
55	0xff	-0.004101305
56	0xf2	-0.05741827
57	0x30	0.19686264
58	0xfd	-0.012303915
59	0x66	0.41833308
60	0xfc	-0.01640522
61	0x43	0.27478743
62	0x26	0.15584958
63	0x15	0.0861274
64	0xce	-0.20506524
65	0x28	0.16405219
66	0x0a	0.041013047
67	0x4b	0.30759785
68	0xc1	-0.2583822
69	0xca	-0.22147046
70	0x38	0.22967307
71	0x0e	0.05741827
72	0x4a	0.30349657
73	0x1a	0.106633924
74	0xcb	-0.21736915
75	0x3d	0.2501796
76	0x1e	0.12303914
77	0x03	0.012303915
78	0xd0	-0.19686264
79	0x01	0.004101305
80	0x13	0.07792479
81	0x37	0.22557177
82	0xef	-0.06972218
83	0xe1	-0.12714045
84	0x19	0.10253262
85	0xb4	-0.31169915
86	0xed	-0.07792479
87	0xc8	-0.22967307
88	0xcc	-0.21326785
89	0x08	0.03281044
90	0x3d	0.2501796
91	0x13	0.07792479
92	0x36	0.22147046
93	0xe6	-0.106633924
94	0xbc	-0.27888873
95	0xfd	-0.012303915
96	0x4d	0.31580046
97	0x29	0.1681535
98	0xc8	-0.22967307
99	0xc3	-0.2501796
100	0xb2	-0.31990176
101	0x26	0.15584958
102	0x55	0.3486109
103	0x45	0.28299004
104	0x09	0.036911745
105	0x21	0.13534306
106	0xde	-0.13944437
107	0x44	0.27888873
108	0x0b	0.045114353
109	0xc2	-0.2542809
110	0xd5	-0.1763561
111	0xe2	-0.12303914
112	0xea	-0.09022871
113	0x3e	0.2542809
114	0x46	0.28709134
115	0x1f	0.12714045
116	0x14	0.082026094
117	0xf5	-0.045114353
118	0xfb	-0.020506524
119	0x36	0.22147046
120	0xfd	-0.012303915
121	0x25	0.15174828
122	0x2d	0.18455872
123	0xfa	-0.02460783
124	0xf0	-0.06562088
125	0xed	-0.07792479
126	0x39	0.23377438
127	0x04	0.01640522
128	0x4b	0.30759785
129	0x24	0.14764698
130	0xb4	-0.31169915
131	0x0d	0.053316962
132	0x41	0.2665848
133	0x0e	0.05741827
134	0x33	0.20916654
135	0x1d	0.11893784
136	0x3e	0.2542809
137	0x14	0.082026094
138	0xeb	-0.0861274
139	0x9e	-0.40192786
140	0x24	0.14764698
141	0xe3	-0.11893784
142	0xdc	-0.14764698
143	0xf5	-0.045114353
144	0xda	-0.15584958
145	0xdb	-0.15174828
146	0xf1	-0.06151957
147	0xe3	-0.11893784
148	0x38	0.22967307
149	0xd6	-0.1722548
150	0xf6	-0.041013047
151	0x0e	0.05741827
152	0xe7	-0.10253262
153	0x1c	0.11483654
154	0x32	0.20506524
155	0x52	0.336307
156	0xc5	-0.24197698
157	0x06	0.02460783
158	0x48	0.29529396
159	0xcb	-0.21736915
160	0x65	0.41423178
161	0x28	0.16405219
162	0x3d	0.2501796
163	0x57	0.35681352
164	0x41	0.2665848
165	0xad	-0.3404083
166	0x52	0.336307
167	0xea	-0.09022871
168	0x05	0.020506524
169	0xf6	-0.041013047
170	0x04	0.01640522
171	0xc9	-0.22557177
172	0xc6	-0.23787569
173	0xe5	-0.11073523
174	0x31	0.20096393
175	0x09	0.036911745
176	0x4d	0.31580046
177	0x1f	0.12714045
178	0xca	-0.22147046
179	0xe3	-0.11893784
180	0xf9	-0.028709134
181	0x05	0.020506524
182	0x42	0.27068612
183	0xe0	-0.13124175
184	0x36	0.22147046
185	0xed	-0.07792479
186	0xe9	-0.09433001
187	0xbb	-0.28299004
188	0xd4	-0.18045741
189	0x70	0.45934615
190	0x2a	0.1722548
191	0xcb	-0.21736915
192	0xf7	-0.036911745
193	0xf6	-0.041013047
194	0x43	0.27478743
195	0xbf	-0.2665848
196	0x5d	0.38142136
197	0x18	0.09843132
198	0x3d	0.2501796
199	0xe0	-0.13124175
200	0xf5	-0.045114353
201	0xdd	-0.14354567
202	0xf6	-0.041013047
203	0x28	0.16405219
204	0xf0	-0.06562088
205	0x56	0.3527122
206	0x05	0.020506524
207	0xed	-0.07792479
208	0x0e	0.05741827
209	0x96	-0.4347383
210	0x56	0.3527122
211	0x38	0.22967307
212	0x0d	0.053316962
213	0x43	0.27478743
214	0x31	0.20096393
215	0x0e	0.05741827
216	0x1e	0.12303914
217	0xc2	-0.2542809
218	0x42	0.27068612
219	0xd8	-0.16405219
220	0xdb	-0.15174828
221	0xc8	-0.22967307
222	0x0f	0.06151957
223	0x03	0.012303915
224	0xf8	-0.03281044
225	0xfd	-0.012303915
226	0x31	0.20096393
227	0x40	0.2624835
228	0x2f	0.19276133
229	0xaf	-0.33220568
230	0xc9	-0.22557177
231	0xe3	-0.11893784
232	0xda	-0.15584958
233	0xd6	-0.1722548
234	0x0e	0.05741827
235	0x30	0.19686264
236	0x36	0.22147046
237	0x13	0.07792479
238	0x4a	0.30349657
239	0x0d	0.053316962
240	0x28	0.16405219
241	0x4e	0.31990176
242	0xcc	-0.21326785
243	0x50	0.32810438
244	0xbf	-0.2665848
245	0xd5	-0.1763561
246	0xfa	-0.02460783
247	0x4b	0.30759785
248	0x2d	0.18455872
249	0x1c	0.11483654
250	0x0e	0.05741827
251	0x37	0.22557177
252	0xe3	-0.11893784
253	0xcb	-0.21736915
254	0x26	0.15584958
255	0xdd	-0.14354567

sequential/dense_3/MatMul;StatefulPartitionedCall/sequential/dense_3/MatMul i1 [10, 20] scale=0.0054205167 zero_point=0
0	0x17	0.124671884
1	0xb6	-0.40111825
2	0xaf	-0.43906185
3	0xf8	-0.043364134
4	0xb6	-0.40111825
5	0xf1	-0.081307754
6	0xd2	-0.24934377
7	0x15	0.11383085
8	0x47	0.3848567
9	0xf3	-0.07046672
10	0x0c	0.0650462
11	0x37	0.29812843
12	0xbb	-0.37401566
13	0xeb	-0.11383085
14	0x47	0.3848567
15	0xfb	-0.027102584
16	0xdc	-0.1951386
17	0x20	0.17345653
18	0xef	-0.09214878
19	0x0c	0.0650462
20	0xce	-0.27102584
21	0x34	0.28186688
22	0xae	-0.44448236
23	0x04	0.021682067
24	0xca	-0.2927079
25	0xd0	-0.2601848
26	0x44	0.36859512
27	0x02	0.010841033
28	0xca	-0.2927079
29	0xc9	-0.29812843
30	0x3f	0.34149256
31	0x2c	0.23850274
32	0x35	0.28728738
33	0x5b	0.49326703
34	0xc4	-0.32523102
35	0x38	0.30354893
36	0x30	0.2601848
37	0xc9	-0.29812843
38	0x76	0.63962096
39	0xac	-0.4553234
40	0xe0	-0.17345653
41	0xe3	-0.15719499
42	0xa9	-0.47158495
43	0x7c	0.67214406
44	0x3a	0.31438997
45	0x5d	0.5041081
46	0x5d	0.5041081
47	0xe2	-0.16261551
48	0xc0	-0.34691307
49	0xb8	-0.3902772
50	0x3a	0.31438997
51	0x28	0.21682067
52	0x4b	0.40653875
53	0x46	0.37943617
54	0xfb	-0.027102584
55	0x42	0.3577541
56	0xad	-0.4499029
57	0x2a	0.2276617
58	0x21	0.17887706
59	0xe8	-0.1300924
60	0x1f	0.16803601
61	0xc0	-0.34691307
62	0x0d	0.07046672
63	0x0c	0.0650462
64	0xbc	-0.36859512
65	0xce	-0.27102584
66	0xbc	-0.36859512
67	0xcf	-0.26560533
68	0x34	0.28186688
69	0x06	0.0325231
70	0xbf	-0.35233358
71	0xce	-0.27102584
72	0xf3	-0.07046672
73	0xce	-0.27102584
74	0x21	0.17887706
75	0xeb	-0.11383085
76	0x2f	0.2547643
77	0x41	0.35233358
78	0x1f	0.16803601
79	0xd0	-0.2601848
80	0x53	0.4499029
81	0xb1	-0.4282208
82	0x3e	0.33607203
83	0x27	0.21140015
84	0x31	0.26560533
85	0x24	0.1951386
86	0xf0	-0.08672827
87	0xe4	-0.15177447
88	0xe8	-0.1300924
89	0x2d	0.24392325
90	0xc5	-0.31981048
91	0xcf	-0.26560533
92	0x19	0.13551292
93	0x58	0.47700548
94	0xbf	-0.35233358
95	0x81	-0.68840563
96	0x03	0.01626155
97	0x1f	0.16803601
98	0x0a	0.054205168
99	0xe2	-0.16261551
100	0xc4	-0.32523102
101	0xbc	-0.36859512
102	0x27	0.21140015
103	0xd6	-0.2276617
104	0x0a	0.054205168
105	0xb4	-0.41195926
106	0x41	0.35233358
107	0x4c	0.41195926
108	0xb3	-0.4173798
109	0xfc	-0.021682067
110	0x0e	0.07588723
111	0xe0	-0.17345653
112	0xe3	-0.15719499
113	0xcf	-0.26560533
114	0xbe	-0.3577541
115	0x0d	0.07046672
116	0x4a	0.40111825
117	0x0f	0.081307754
118	0xf7	-0.04878465
119	0xd0	-0.2601848
120	0xe3	-0.15719499
121	0xec	-0.108410336
122	0xb8	-0.3902772
123	0xd7	-0.22224118
124	0xff	-0.0054205167
125	0x50	0.43364134
126	0xe8	-0.1300924
127	0x23	0.18971808
128	0x1b	0.14635395
129	0x51	0.43906185
130	0x0b	0.059625685
131	0xae	-0.44448236
132	0xbb	-0.37401566
133	0xbd	-0.36317462
134	0x12	0.0975693
135	0xbe	-0.3577541
136	0xce	-0.27102584
137	0xb7	-0.3956977
138	0x2f	0.2547643
139	0xc3	-0.33065152
140	0x6f	0.60167736
141	0x9d	-0.53663117
142	0x05	0.027102584
143	0x12	0.0975693
144	0x46	0.37943617
145	0xc8	-0.30354893
146	0x28	0.21682067
147	0xdf	-0.17887706
148	0xf8	-0.043364134
149	0xd1	-0.2547643
150	0xcd	-0.27644634
151	0x1f	0.16803601
152	0xf1	-0.081307754
153	0xc0	-0.34691307
154	0x42	0.3577541
155	0xd2	-0.24934377
156	0xf3	-0.07046672
157	0xe7	-0.13551292
158	0x2f	0.2547643
159	0x4f	0.4282208
160	0xbd	-0.36317462
161	0x0e	0.07588723
162	0x46	0.37943617
163	0xdd	-0.18971808
164	0xf9	-0.037943617
165	0xe3	-0.15719499
166	0x0a	0.054205168
167	0x14	0.108410336
168	0xcb	-0.28728738
169	0x48	0.3902772
170	0x24	0.1951386
171	0xc6	-0.31438997
172	0xea	-0.11925137
173	0xa4	-0.49868754
174	0x09	0.04878465
175	0xc6	-0.31438997
176	0xbc	-0.36859512
177	0x5e	0.5095286
178	0x09	0.04878465
179	0x59	0.482426
180	0x00	0.0
181	0x29	0.22224118
182	0x2a	0.2276617
183	0xb0	-0.43364134
184	0xc7	-0.30896944
185	0xbc	-0.36859512
186	0x50	0.43364134
187	0x03	0.01626155
188	0xd6	-0.2276617
189	0xdc	-0.1951386
190	0xc0	-0.34691307
191	0x1b	0.14635395
192	0x05	0.027102584
193	0xf4	-0.0650462
194	0x09	0.04878465
195	0xec	-0.108410336
196	0x3a	0.31438997
197	0x07	0.037943617
198	0xdc	-0.1951386
199	0x36	0.2927079

sequential/y_pred/MatMul;StatefulPartitionedCall/sequential/y_pred/MatMul i1 [4, 10] scale=0.0058128377 zero_point=0
0	0xaa	-0.49990404
1	0x54	0.48827836
2	0x62	0.5696581
3	0xd7	-0.23832634
4	0x1b	0.15694661
5	0xb8	-0.41852432
6	0x2e	0.26739055
7	0x81	-0.7382304
8	0xa4	-0.5347811
9	0xbd	-0.38946012
10	0xa8	-0.51152974
11	0xd2	-0.26739055
12	0x45	0.4010858
13	0x15	0.12206959
14	0x76	0.6859149
15	0xa3	-0.5405939
16	0x69	0.610348
17	0x0f	0.087192565
18	0x91	-0.645225
19	0xde	-0.19763649
20	0x69	0.610348
21	0x81	-0.7382304
22	0x52	0.47665268
23	0x25	0.215075
24	0x92	-0.63941216
25	0xe8	-0.1395081
26	0x6d	0.63359934
27	0x2a	0.24413918
28	0x39	0.33133176
29	0x4d	0.4475885
30	0x9e	-0.5696581
31	0x3b	0.34295744
32	0xcf	-0.28482905
33	0xcd	-0.29645473
34	0xa9	-0.50571686
35	0x6f	0.645225
36	0xd8	-0.23251352
37	0x03	0.017438512
38	0x4b	0.43596283
39	0x62	0.5696581
