benchmark-nn/image-32-32-mobilenet-f32/ei-benchmark-image-32x32-0.05-grayscale-transfer-learning-tensorflow-lite-float32-model.lite (tflite, 289232 bytes, 108 tensors)

unknown_260 f4 [10]
0	0xbb38bddd	-0.002818934
1	0x38f149fa	0.00011505555
2	0x3bd75c4a	0.006572281
3	0x3b887719	0.004164588
4	0xbbb94ad9	-0.0056546745
5	0x3bde1346	0.0067772
6	0xb7df0efc	-2.659065e-05
7	0xbb86ea09	-0.0041172546
8	0xbbb7823e	-0.005600243
9	0x3a5e4bc9	0.0008479921

unknown_262 f4 [3]
0	0xbc0e4fa7	-0.008685983
1	0x3a4a7066	0.0007722437
2	0x3b947be9	0.004531373

sequential/model/bn_Conv1/FusedBatchNormV3;StatefulPartitionedCall/sequential/model/bn_Conv1/FusedBatchNormV3 f4 [8]
0	0xbd6efe5f	-0.058348056
1	0x40418fc3	3.0243995
2	0x3e274c85	0.16337784
3	0x4017ab50	2.369831
4	0x40333860	2.8003159
5	0xbc859f67	-0.01631136
6	0x400aa152	2.1660962
7	0x4021de70	2.5292015

sequential/model/block_7_expand_BN/FusedBatchNormV3;StatefulPartitionedCall/sequential/model/block_7_expand_BN/FusedBatchNormV3 f4 [48]
0	0x3db823a4	0.08991173
1	0xbe172aa9	-0.14762367
2	0x3f5c9cd8	0.86176825
3	0x3ed2164c	0.41032636
4	0x3f6add23	0.9174368
5	0x3eea43e1	0.45754912
6	0x3f00b878	0.50281477
7	0x3f3fc9ed	0.7491749
8	0x3f4c3e5f	0.7978267
9	0x3ecb88f3	0.3975292
10	0x3f0b0d58	0.54317236
11	0x3f7656c3	0.9622614
12	0x3f1000c2	0.56251156
13	0x3ec3a956	0.3821513
14	0x3f10600c	0.56396556
15	0x3eb4fc19	0.35348585
16	0x3f2ea093	0.68213767
17	0x3f2d22e9	0.67631394
18	0x3e97693d	0.29572478
19	0x3f2cb4cf	0.6746339
20	0x3e869b08	0.26290154
21	0x3f39165a	0.7229973
22	0x3f385b4b	0.720143
23	0x3e91b0a8	0.2845509
24	0x3f3e15b5	0.7425187
25	0x3f6423ad	0.89116937
26	0xbc0574ee	-0.008145554
27	0x3f5d5c23	0.86468714
28	0x3eb73497	0.3578231
29	0xbf0ed850	-0.55798817
30	0x3f4a0eac	0.7892864
31	0x3ea2fc55	0.3183314
32	0x3d457a2f	0.048212226
33	0x3f57ef01	0.84349066
34	0x3eec2cb9	0.4612787
35	0x3f5a8576	0.85359895
36	0x3f5ef9ba	0.870998
37	0xbf06dfc3	-0.52685183
38	0xbe4748b4	-0.19461328
39	0xbd87cc12	-0.0663072
40	0x3f4b94ff	0.79524225
41	0x3f53911d	0.826433
42	0xbea77c78	-0.3271215
43	0x3f7cd408	0.98761034
44	0x3e8d6eac	0.27623498
45	0x3f2d9dd0	0.6781893
46	0x3e5804e0	0.2109561
47	0x3be3d79e	0.006953194

sequential/model/block_7_depthwise_BN/FusedBatchNormV3;StatefulPartitionedCall/sequential/model/block_7_depthwise_BN/FusedBatchNormV3 f4 [48]
0	0xbe4084cc	-0.18800658
1	0xbcfe5138	-0.031044587
2	0x3d86397d	0.06553934
3	0x3f3ad464	0.7298033
4	0x3b6fc740	0.0036587268
5	0xbf62cc8c	-0.88593364
6	0xbeb812f8	-0.35951972
7	0x3f913938	1.1345587
8	0xbd9c8b5f	-0.076437704
9	0x3fba2303	1.4541935
10	0x3f83f4ab	1.0309042
11	0x3e5f051d	0.21779294
12	0x3db912ae	0.09036766
13	0x3f8080e8	1.0039339
14	0xbe0e5dcb	-0.13902967
15	0x3f8ae6b9	1.0851661
16	0x3fb5d648	1.4206018
17	0x3f55f822	0.83581746
18	0xbd45214e	-0.048127465
19	0xbf1dff34	-0.61717534
20	0xbc899eb8	-0.016799316
21	0x3e94791a	0.28998643
22	0xbb182a00	-0.0023218393
23	0xbf6d55fb	-0.9270932
24	0xbe8cd68e	-0.27507442
25	0x3fcb3f38	1.5878668
26	0x3cd6ef30	0.0262371
27	0xbfbc99d5	-1.4734446
28	0xbf30c03b	-0.6904332
29	0xbf19cd5a	-0.60078967
30	0xbecf58f9	-0.40497568
31	0x3f4a2c4c	0.7897384
32	0xbbf96a80	-0.0076115727
33	0x3e75830c	0.23975772
34	0x3f8f15fe	1.1178586
35	0xbe9e4020	-0.30908298
36	0x3f52ca44	0.8233988
37	0xbef7ef25	-0.4842464
38	0x3f598dee	0.8498219
39	0xbf2e6fcc	-0.6813934
40	0x3fdff288	1.749589
41	0x3cb07660	0.02154082
42	0x3aebbd00	0.0017985404
43	0x3fd45e58	1.6591291
44	0xbf877dae	-1.0585229
45	0x3f454ed3	0.770734
46	0xbd48e7dc	-0.049049243
47	0x3f8c166b	1.0944341

sequential/model/block_8_expand_BN/FusedBatchNormV3;StatefulPartitionedCall/sequential/model/block_8_expand_BN/FusedBatchNormV3 f4 [48]
0	0x3ea5fcf3	0.32419547
1	0x3f1ff118	0.62477255
2	0x3e36189d	0.17782827
3	0xbe926e0e	-0.2859959
4	0x3e837a67	0.25679323
5	0x3f3b0031	0.7304717
6	0x3e035b6f	0.12827848
7	0x3f1005c1	0.5625878
8	0x3de6b169	0.11264307
9	0x3f333b99	0.70012814
10	0x3e8e964f	0.2784905
11	0x3f002476	0.50055635
12	0xbe497b98	-0.19676054
13	0x3eeb4b8e	0.4595608
14	0x3f3c204c	0.7348678
15	0x3ee4c04b	0.44677958
16	0x3f2f75d6	0.6853918
17	0x3f58bcba	0.84662974
18	0x3f00a0d4	0.50245404
19	0x3ed31cb2	0.4123283
20	0xbce52017	-0.027969403
21	0x3e3ba976	0.18326363
22	0x3f14a402	0.58062756
23	0x3f18788a	0.5955893
24	0xbf272fe7	-0.6530747
25	0x3dd15ac7	0.102223925
26	0x3f337ce0	0.7011242
27	0x3ea27fe4	0.31738198
28	0x3f3d75c9	0.7400785
29	0xbba847c2	-0.0051355073
30	0x3f02770b	0.50962895
31	0x3f4d3514	0.80159116
32	0x3f46b3ed	0.77618295
33	0x3de61ebe	0.11236332
34	0x3f463881	0.7742997
35	0x3e4706bf	0.19436167
36	0x3eb41f6e	0.3518023
37	0x3e84a965	0.25910488
38	0x3f290bb6	0.66033494
39	0xbe244b79	-0.16044416
40	0x3e8048b1	0.2505546
41	0xbec9683d	-0.3933734
42	0x3e5143c1	0.20436002
43	0xbe1bd331	-0.15217282
44	0x3efa1e85	0.4885141
45	0xbe9d419d	-0.3071412
46	0xbed1fa1f	-0.4101114
47	0x3df3bf51	0.11901725

sequential/model/block_8_depthwise_BN/FusedBatchNormV3;StatefulPartitionedCall/sequential/model/block_8_depthwise_BN/FusedBatchNormV3 f4 [48]
0	0xbcefe000	-0.029281616
1	0x3f2fdb66	0.6869415
2	0xbd801ee2	-0.062558904
3	0x3fa11f86	1.2587745
4	0xbe9e8ee3	-0.3096839
5	0x3f3278a5	0.6971534
6	0x3efdb58e	0.49552578
7	0xbf96df8c	-1.1786971
8	0xbe992542	-0.29911238
9	0x3f2093f5	0.62725765
10	0xbf0c2bba	-0.5475422
11	0xbebcb94d	-0.36860123
12	0xbf9efc48	-1.242074
13	0x3fe3b294	1.7788873
14	0x3faa4098	1.3300962
15	0xbeff082b	-0.4981092
16	0x3f9fc285	1.2481238
17	0x3d868a14	0.06569305
18	0xbe363cff	-0.17796706
19	0xbefd21d0	-0.4943986
20	0x3e8ec227	0.278825
21	0xbe677b41	-0.22605611
22	0xbfabecf0	-1.3431683
23	0xbf54b6b8	-0.83091307
24	0xbef0afc9	-0.47009113
25	0xbe4208d0	-0.18948674
26	0x3cb67580	0.022272825
27	0x3e96336c	0.29336107
28	0x3e753ade	0.23948237
29	0x3d14b3f4	0.03630443
30	0xbed761e2	-0.42066866
31	0xbc1247c0	-0.008928239
32	0xbec02bb8	-0.37533355
33	0x3e9b7504	0.30362713
34	0x3feb34a2	1.8375437
35	0x3f36a44e	0.7134446
36	0xbec011ce	-0.37513584
37	0xbc5eb580	-0.013593078
38	0xbea7e882	-0.32794577
39	0xbf3c17e5	-0.7347396
40	0xbdcb2d8c	-0.09920797
41	0x3e01240d	0.12611409
42	0x3fb37e32	1.4022887
43	0x3ef04248	0.4692557
44	0x3f9d55f5	1.2291857
45	0xbf1ba519	-0.60798794
46	0xbf0c7cda	-0.5487801
47	0xbe9fe0c8	-0.31226182

sequential/model/block_9_expand_BN/FusedBatchNormV3;StatefulPartitionedCall/sequential/model/block_9_expand_BN/FusedBatchNormV3 f4 [48]
0	0x3e8cb171	0.27479127
1	0x3f747570	0.95491695
2	0x3e9a77b3	0.30169448
3	0x3ec89dea	0.3918298
4	0x3e8d8ba0	0.27645588
5	0x3dd43560	0.10361743
6	0xbe890690	-0.2676282
7	0x3f7c3a54	0.985265
8	0x3f4b516d	0.7942112
9	0x3e411f60	0.18859625
10	0x3f075e20	0.52878
11	0x3f115f6d	0.56786233
12	0x3ecb2568	0.39676976
13	0x3da11cab	0.07866796
14	0x3ea59006	0.32336444
15	0xbe955b5d	-0.29171267
16	0x3f5081b0	0.8144789
17	0x3e9dc605	0.3081514
18	0x3f631100	0.88697815
19	0x3ef57c6d	0.47946492
20	0x3ee0fd30	0.43943167
21	0x3f132780	0.5748215
22	0x3f05d3b3	0.5227615
23	0x3d93fd08	0.07225996
24	0x3f2b513d	0.66920835
25	0x3eb1d639	0.3473375
26	0xbdab69ad	-0.083697654
27	0x3f3cd89e	0.7376803
28	0x3f06563e	0.52475345
29	0x3e20b9c9	0.15695871
30	0x3f58a94c	0.84633327
31	0x3e0dec51	0.13859679
32	0x3f34df1c	0.7065294
33	0x3f516737	0.8179812
34	0x3ef27bea	0.47360164
35	0xbde6ff20	-0.1127913
36	0x3e0ada63	0.1355987
37	0xbcef0e10	-0.02918151
38	0x3ebbe52b	0.3669828
39	0xbd83be63	-0.06432798
40	0x3ee3aee7	0.44469377
41	0x3f0e06da	0.55479205
42	0x3f20196c	0.6253879
43	0x3e936079	0.2878454
44	0x3ede2352	0.43386322
45	0xbeb3845a	-0.35061914
46	0x3f32b55b	0.69807976
47	0x3e4131f1	0.18866707

sequential/model/block_9_depthwise_BN/FusedBatchNormV3;StatefulPartitionedCall/sequential/model/block_9_depthwise_BN/FusedBatchNormV3 f4 [48]
0	0x3ce00920	0.027348101
1	0x40007945	2.0074017
2	0x3fb38ece	1.4027956
3	0xbf5a316a	-0.8523165
4	0xbd1c8498	-0.03821239
5	0xbf4430af	-0.76636785
6	0xbeceb634	-0.40373385
7	0xbe9e8ec7	-0.30968305
8	0x3e8250c0	0.25452232
9	0xbf0620f5	-0.5239404
10	0x3f49c82d	0.7882107
11	0x3fcf1c7d	1.6180569
12	0x3fba524b	1.4556364
13	0x3f93a3c0	1.1534348
14	0xbec2cd8c	-0.38047445
15	0x3e7e3b72	0.24827364
16	0x3eaa021e	0.3320474
17	0x3fa691c0	1.3013229
18	0x3d1858ad	0.037193943
19	0xbf907dc1	-1.1288377
20	0xbf2f9c26	-0.6859764
21	0x3fc5cb80	1.5452728
22	0x3f9e503d	1.2368237
23	0x3f7c13ec	0.984679
24	0xbdf118dc	-0.1177232
25	0xbcdca800	-0.026935577
26	0xbf127b3c	-0.5721929
27	0x3fca9fd9	1.5830032
28	0x3f3190b5	0.6936143
29	0xbeeeca51	-0.4663873
30	0xbdb4ced8	-0.08828515
31	0x3f768746	0.9630016
32	0xbd74ac10	-0.059734404
33	0xbd97704a	-0.07394464
34	0xbe9705de	-0.29496664
35	0x3e8141f6	0.25245637
36	0x3fa4038c	1.2813582
37	0xbe211e94	-0.15734321
38	0xbe949a4d	-0.29023972
39	0xbe8d2977	-0.27570698
40	0xbccd47d4	-0.025058664
41	0x3f8d1b36	1.1023929
42	0xbd0770bd	-0.0330665
43	0xbe91f74a	-0.2850898
44	0x3fad57e0	1.3542442
45	0xbe7388bc	-0.23782629
46	0x3fcd5b21	1.6043435
47	0xbf022cf6	-0.50849855

sequential/model/block_1_expand_BN/FusedBatchNormV3;StatefulPartitionedCall/sequential/model/block_1_expand_BN/FusedBatchNormV3 f4 [48]
0	0x4059906d	3.39944
1	0xbf4ab895	-0.791879
2	0x40b19d26	5.550433
3	0xbf6d0e81	-0.92600256
4	0x407ecbc3	3.9811866
5	0xbf95c1d0	-1.1699772
6	0x3fefcf1b	1.8735079
7	0xc0d97c35	-6.796412
8	0x40baf4d3	5.842386
9	0xbfdfa8ea	-1.7473423
10	0x400ce096	2.2012076
11	0x3ca26ca8	0.019827202
12	0x415cf64c	13.810131
13	0xbf3b894c	-0.73256373
14	0xbf754f25	-0.9582389
15	0x40045ff9	2.0683577
16	0x3fe1b51f	1.7633399
17	0x40138f2e	2.305614
18	0xbf6126ec	-0.87950015
19	0x4030b494	2.7610216
20	0xbf8327b1	-1.0246488
21	0x40a6017a	5.1876802
22	0x3fe4bd46	1.7870262
23	0x400d901d	2.211921
24	0x4055b6b7	3.339277
25	0x3f64def8	0.89402723
26	0x404a7143	3.163163
27	0x3fcb9d82	1.5907443
28	0xc0334768	-2.8012333
29	0x3fc1e352	1.5147498
30	0x40ba48cd	5.821387
31	0x4077bd89	3.8709433
32	0x4077aa75	3.8697789
33	0x3fcd1dc6	1.6024711
34	0xbf7d4e4e	-0.9894761
35	0x4071b0ac	3.7764082
36	0x40114d87	2.270357
37	0x40170cb2	2.3601499
38	0xbf86202e	-1.047857
39	0x40fac381	7.836365
40	0x3fbed09e	1.4907415
41	0x401c4a2b	2.4420269
42	0xbee69fea	-0.4504388
43	0xbf9327be	-1.1496503
44	0x3f8ebe83	1.115189
45	0xc0bab673	-5.8347716
46	0x3f4bd493	0.7962124
47	0xc10829a7	-8.510169

sequential/model/block_10_expand_BN/FusedBatchNormV3;StatefulPartitionedCall/sequential/model/block_10_expand_BN/FusedBatchNormV3 f4 [48]
0	0xbe8f782c	-0.2802137
1	0xbd9837ab	-0.07432493
2	0x3f2a61fd	0.6655577
3	0x3e867dbe	0.2626781
4	0x3e6c67a2	0.23086408
5	0x3f749afb	0.9554898
6	0x3ee693c0	0.450346
7	0x3ecc1d90	0.39866304
8	0xbd90bed7	-0.0706765
9	0x3f3b184e	0.7308396
10	0x3f3f7718	0.747911
11	0xbd77c9ec	-0.060495302
12	0x3ed06b56	0.4070689
13	0x3f496653	0.7867176
14	0x3db40743	0.087904476
15	0x3f1036ed	0.5633381
16	0xbcdf954f	-0.027292876
17	0x3e94b5e2	0.29045016
18	0x3e8051f1	0.25062516
19	0x3f71475b	0.94249505
20	0x3e0b76fd	0.13619609
21	0x3f389e10	0.72116184
22	0x3edb1765	0.42791286
23	0xbe348c8e	-0.17631742
24	0x3f5c9dfe	0.86178577
25	0x3e9b9991	0.303906
26	0x3f1f0b20	0.6212635
27	0x3e4b3900	0.19845963
28	0xbe6ce193	-0.23132925
29	0x3f5a1369	0.8518587
30	0x3f439107	0.7639317
31	0x3f2001b5	0.62502605
32	0x3d4c9063	0.049942385
33	0x3e1488e1	0.1450534
34	0x3e1f4912	0.15555218
35	0x3bcf2713	0.0063217967
36	0x3f428bf5	0.7599481
37	0x3f0caf53	0.54955024
38	0xbe4621de	-0.19348857
39	0xbd1a75ac	-0.037709877
40	0xbeb85b4f	-0.36007163
41	0x3f674ef4	0.9035485
42	0xbf39027e	-0.7226943
43	0x3f6c24ac	0.92243457
44	0x3f1ddf10	0.6166849
45	0x3f7b9bdf	0.98284715
46	0xbe19ba57	-0.1501249
47	0xbe0ecad0	-0.13944554

sequential/model/block_10_depthwise_BN/FusedBatchNormV3;StatefulPartitionedCall/sequential/model/block_10_depthwise_BN/FusedBatchNormV3 f4 [48]
0	0xbcb31d2e	-0.0218645
1	0xbf0e40b4	-0.5556748
2	0x3b5e6400	0.0033934116
3	0xbeed0216	-0.46290654
4	0xbd0b9c20	-0.03408444
5	0x3ea1b91a	0.31586534
6	0x3eba75dc	0.36418045
7	0x3e41247f	0.18861578
8	0x3e456524	0.19276863
9	0xbf86dbac	-1.0535789
10	0x3fd57696	1.6676815
11	0xbe5b1c68	-0.21397555
12	0xbf17b0c4	-0.592541
13	0x3fd60f51	1.6723424
14	0xbe0ab1de	-0.13544413
15	0xbf8e0cb4	-1.1097627
16	0xbf89d8d6	-1.0769298
17	0x3df1c198	0.11804503
18	0xbf18b8fa	-0.5965725
19	0xbfe48db8	-1.7855749
20	0x3f947b40	1.1600113
21	0xbe22d4f0	-0.15901542
22	0xbf6d5e1b	-0.9272172
23	0xbddce062	-0.10784985
24	0xbf8675d0	-1.0504704
25	0x3e544bc2	0.20732024
26	0xbf70751d	-0.939287
27	0xbec4a3b0	-0.38406134
28	0xbf4033a0	-0.75078773
29	0x3fce8ef7	1.613738
30	0x3fee0589	1.8595439
31	0xbe31d906	-0.17367944
32	0x3eeb8ada	0.46004373
33	0x3fa7a0a4	1.3095899
34	0x3f936572	1.1515334
35	0xbf51a526	-0.8189262
36	0x3fc60860	1.5471306
37	0x3d9a32f6	0.07529251
38	0xbf0cab3c	-0.5494878
39	0xbb300980	-0.0026861131
40	0xbf8e17a9	-1.110097
41	0xbe443bf7	-0.191635
42	0xbf3d0f7d	-0.7385176
43	0xbecd2de2	-0.40074068
44	0x3fa38c20	1.2777138
45	0xbfe45b4f	-1.7840365
46	0xbe2e9f03	-0.17052846
47	0xbe8a7ac6	-0.27046794

sequential/model/block_11_expand_BN/FusedBatchNormV3;StatefulPartitionedCall/sequential/model/block_11_expand_BN/FusedBatchNormV3 f4 [48]
0	0x3f38140d	0.71905595
1	0x3ea1bca3	0.3158923
2	0x3dc183e7	0.094489865
3	0xbcddbe76	-0.027068358
4	0x3f4cd907	0.8001866
5	0xbeb907ef	-0.36138865
6	0x3f3d9506	0.74055517
7	0xbefd0e33	-0.49424896
8	0x3f3f0d86	0.7463001
9	0x3f0992c8	0.53739595
10	0x3f3fb744	0.74889016
11	0x3f18c65e	0.59677684
12	0x3f255a83	0.64591235
13	0x3e477d97	0.19481502
14	0x3e8a4cf1	0.27011827
15	0x3f18c10f	0.59669584
16	0x3ee6314f	0.44959494
17	0x3e9de5d1	0.30839399
18	0x3e90baf7	0.28267643
19	0x3ec2dab1	0.38057473
20	0x3e4dbc6a	0.20091406
21	0x3dc43633	0.0958065
22	0xbda3199d	-0.0796387
23	0x3f418a28	0.75601435
24	0x3e57cb20	0.2107358
25	0x3eaf5899	0.34247282
26	0x3f0ab426	0.54181135
27	0x3e610b09	0.21976866
28	0x3f1bfb59	0.609304
29	0xbe99e5e4	-0.30058205
30	0x3f421718	0.7581649
31	0x3f655251	0.8957873
32	0x3d2fa883	0.042885315
33	0xbe846628	-0.2585919
34	0x3eff42e0	0.4985571
35	0x3ef5b01d	0.47985926
36	0xbda60332	-0.08106078
37	0x3f528d98	0.82247305
38	0x3f50e1b1	0.8159438
39	0x3f21fe9e	0.6327914
40	0x3f5d7adf	0.8651561
41	0x3ef9c51c	0.48783195
42	0x3d25989f	0.040428754
43	0xbe153657	-0.1457151
44	0x3f35cc9e	0.71015346
45	0xbebeb50b	-0.372475
46	0x3ee623a3	0.44949064
47	0x3c174c43	0.009234491

sequential/model/block_11_depthwise_BN/FusedBatchNormV3;StatefulPartitionedCall/sequential/model/block_11_depthwise_BN/FusedBatchNormV3 f4 [48]
0	0x3fd7ad6a	1.6849797
1	0x3d79dc3d	0.06100105
2	0xbfaffe04	-1.3749394
3	0xbea7115d	-0.32630435
4	0xbfe15f0c	-1.7607131
5	0xbf83fcbd	-1.0311505
6	0xbef4c51e	-0.47806638
7	0xbf3dd738	-0.7415652
8	0x3eea6a23	0.457841
9	0x3fb94b9f	1.4476203
10	0xbf18111e	-0.5940112
11	0xbe0d4d9e	-0.1379914
12	0xbe1745d4	-0.14772731
13	0xbea8e1fd	-0.32984915
14	0xbebb6a0d	-0.36604348
15	0x3ecc44e2	0.39896303
16	0xbf0d6410	-0.5523081
17	0x3fa8ce34	1.3187928
18	0xbdc489d6	-0.095966026
19	0xbef6ce02	-0.48204046
20	0xbf06b3de	-0.52618206
21	0xbf22b4ef	-0.6355733
22	0xbe958fca	-0.29211265
23	0x3e324afb	0.17411415
24	0xbebfadf3	-0.374374
25	0xbe450cef	-0.19243215
26	0x3e28fd7c	0.16502947
27	0xbf3492ca	-0.7053648
28	0x3f9db2bc	1.232017
29	0xbf054259	-0.52054363
30	0x3ff79c56	1.9344585
31	0x3da2f044	0.07955983
32	0xbe33b75c	-0.17550415
33	0xbf4c1c5e	-0.79730785
34	0xbf1b9436	-0.60773027
35	0x3fbe13a2	1.4849741
36	0x3fad9e62	1.356396
37	0x3e844a0d	0.25837746
38	0x3fe1368f	1.7594775
39	0x3fb25478	1.3932028
40	0x3ed848a0	0.42242908
41	0xbf2f6370	-0.68511105
42	0xbe717030	-0.23577952
43	0x3f51e5fe	0.81991565
44	0xbf84947d	-1.0357815
45	0xbe3ef633	-0.18648605
46	0xbf7eaec6	-0.99485433
47	0xbd46e7e4	-0.048560992

sequential/model/block_12_expand_BN/FusedBatchNormV3;StatefulPartitionedCall/sequential/model/block_12_expand_BN/FusedBatchNormV3 f4 [48]
0	0x3f217055	0.6306203
1	0x3eec8a3c	0.46199214
2	0x3e2e551d	0.17024656
3	0x3f05dfc3	0.5229456
4	0x3ee9cbda	0.4566334
5	0x3def663e	0.11689423
6	0x3f30d38f	0.6907281
7	0xbd56fd7d	-0.05248784
8	0x3b20267c	0.0024437
9	0x3f06f03a	0.52710307
10	0xbe9aa2e6	-0.30202407
11	0x3f01db72	0.5072547
12	0x3e40e843	0.18838601
13	0x3e61b247	0.22040664
14	0x3ebfc85b	0.37457547
15	0x3f20b3e5	0.627745
16	0x3f6bf63c	0.921726
17	0x3f6b05e2	0.9180585
18	0x3f04be66	0.51853025
19	0x3f18188e	0.5941247
20	0x3ed00bfb	0.4063414
21	0x3edfe6b6	0.43730706
22	0xbd001d23	-0.031277787
23	0x3bdac5c2	0.0066764066
24	0xbd9da201	-0.076969154
25	0xbeab442f	-0.33450457
26	0x3f1def93	0.61693686
27	0x3f4e6826	0.8062767
28	0x3d87feb9	0.06640381
29	0x3e9359c1	0.28779414
30	0x3eb9b43e	0.36270326
31	0x3f3c7760	0.7361965
32	0x3f550707	0.8321385
33	0x3f388fb5	0.7209428
34	0x3e756810	0.23965478
35	0xbd3c29cf	-0.04593831
36	0xbd2f08b7	-0.04273292
37	0xbc80038f	-0.015626697
38	0x3e7c2499	0.24623336
39	0x3ec46eb9	0.38365725
40	0x3f3bf132	0.7341491
41	0x3edccc95	0.43124834
42	0x3d64f3ba	0.0558965
43	0x3f0795e5	0.52963096
44	0x3ecc8819	0.39947584
45	0x3f45e712	0.7730571
46	0x3f1d0edc	0.613508
47	0x3f2b6c90	0.6696253

sequential/model/block_12_depthwise_BN/FusedBatchNormV3;StatefulPartitionedCall/sequential/model/block_12_depthwise_BN/FusedBatchNormV3 f4 [48]
0	0x3edd20a8	0.43188977
1	0x3f0ff4b7	0.5623278
2	0x3f89b7df	1.0759238
3	0xbed17a30	-0.40913534
4	0x3f50d5cc	0.8157623
5	0x3f8747ec	1.0568824
6	0xbeef6010	-0.46752977
7	0xbf5463c4	-0.8296473
8	0xbf41b270	-0.756629
9	0x3f6724bc	0.9029043
10	0xba25c500	-0.0006323606
11	0xbe0d636e	-0.1380746
12	0xbeac53d9	-0.3365772
13	0xbe9fb3db	-0.31191906
14	0xbf6e965e	-0.9319819
15	0xbd0ee8e2	-0.034890063
16	0xbe457d01	-0.19285966
17	0xbeb6b1d4	-0.35682547
18	0x3fc63d17	1.5487393
19	0x3ec2a52d	0.38016644
20	0xbf320586	-0.6953968
21	0x3db73380	0.0894537
22	0xbf9a1eb1	-1.2040616
23	0xbef019fd	-0.46894827
24	0xbf5ba650	-0.8580065
25	0xbf36f9dc	-0.71475005
26	0xbe8181f4	-0.2529446
27	0x3f99881c	1.1994662
28	0xbe8c0fb7	-0.2735574
29	0x3f9c0bab	1.2191061
30	0x3e3c545e	0.18391559
31	0x3f0fbdca	0.5614897
32	0x3edddb76	0.43331498
33	0xbf587854	-0.84558606
34	0xbd8bfaf8	-0.06834978
35	0x3f6412f2	0.8909141
36	0xbf875775	-1.0573565
37	0xbf818966	-1.0120056
38	0xbe3c5b4b	-0.183942
39	0xbcda9768	-0.026683524
40	0x3f9aea03	1.2102665
41	0x3f222b10	0.6334696
42	0xbefb4c97	-0.4908187
43	0x3f569e46	0.83835256
44	0xbf4ace8a	-0.79221404
45	0xbd582790	-0.052772105
46	0xbdbc1adb	-0.0918481
47	0xbeea2256	-0.4572932

sequential/model/block_13_expand_BN/FusedBatchNormV3;StatefulPartitionedCall/sequential/model/block_13_expand_BN/FusedBatchNormV3 f4 [48]
0	0x3ea7143b	0.32632622
1	0x3ed2aefc	0.41149127
2	0x3f074a15	0.52847415
3	0x3e9fd643	0.31218156
4	0x3eca32e7	0.3949196
5	0x3ee65a2c	0.4499067
6	0xbf042ab5	-0.51627666
7	0xbe0b97f9	-0.13632192
8	0xbe84f1fa	-0.25965863
9	0x3eda37e2	0.4262076
10	0x3e577a49	0.21042742
11	0x3dd8c701	0.10584832
12	0x3f43ac96	0.7643522
13	0x3f032b80	0.5123825
14	0x3e9c2d0d	0.3050312
15	0x3e51d7c4	0.20492464
16	0x3b8defa8	0.0043315478
17	0xbc946ef9	-0.018119322
18	0xbed4634f	-0.41482016
19	0x3f1e8e0e	0.6193551
20	0x3ead68e6	0.33869094
21	0x3f377808	0.7166753
22	0x3f5bbeef	0.85838217
23	0x3e656ede	0.22405574
24	0x3f21a06b	0.63135403
25	0xbe0c1c2e	-0.13682625
26	0x3e05ea2c	0.1307761
27	0x3f224908	0.63392687
28	0xbe7c6878	-0.24649227
29	0xbeff9adc	-0.49922836
30	0x3e734ef7	0.23760591
31	0xbe41356f	-0.1886804
32	0x3e7edc24	0.24888664
33	0xbe58e9d3	-0.21182947
34	0x3cd8ae32	0.02645025
35	0xbf07da0b	-0.5306708
36	0x3e1078c9	0.14108576
37	0x3af99128	0.0019040452
38	0x3cd39c5b	0.025831392
39	0xbecc7750	-0.39934778
40	0x3efd66d5	0.49492517
41	0x3d9041b2	0.070437804
42	0x3ec002c2	0.37502104
43	0xbea92855	-0.33038583
44	0x3f2f693a	0.6851994
45	0x3f09d54c	0.5384109
46	0x3d479644	0.04872729
47	0xbeb35ce4	-0.35031807

sequential/model/block_1_depthwise_BN/FusedBatchNormV3;StatefulPartitionedCall/sequential/model/block_1_depthwise_BN/FusedBatchNormV3 f4 [48]
0	0xbf04e823	-0.5191671
1	0xbf0ef829	-0.5584741
2	0x3d310965	0.04322185
3	0x3ca3138a	0.019906778
4	0x3ed45fac	0.41479242
5	0x3f866bdf	1.050167
6	0x3fa7307d	1.3061672
7	0x3b9aaf80	0.0047206283
8	0x3bd7bade	0.0065835556
9	0x3e6b84d2	0.22999886
10	0xbfae9945	-1.3640524
11	0xbcf776b8	-0.030207977
12	0x3d78be60	0.06072843
13	0x3fdc30be	1.7202375
14	0x3edfeb6c	0.437343
15	0x3c9d0a30	0.019169897
16	0xbe13671c	-0.14394802
17	0x3fb0ca5a	1.3811753
18	0x3f68e4f0	0.9097433
19	0x3ffb3608	1.9625864
20	0xbe23730c	-0.15961856
21	0xbb819e3d	-0.003955631
22	0xbe20b7ae	-0.15695068
23	0xbc9eca40	-0.01938355
24	0x3c638319	0.013886237
25	0x3e756c26	0.23967037
26	0x3de40b0e	0.11134921
27	0x3c504aa5	0.012713109
28	0x3f933102	1.1499331
29	0xbf27e138	-0.6557803
30	0xbd82c7a8	-0.06385738
31	0x3feb5ba4	1.8387341
32	0x3f94e97e	1.1633756
33	0xc0aeb71e	-5.459853
34	0x3f4e24d9	0.80524975
35	0xbe847f5b	-0.25878415
36	0xbcb6815c	-0.02227848
37	0x3d295560	0.041341186
38	0xbda8083b	-0.08204695
39	0x3c4afb40	0.012389004
40	0xbce270d7	-0.027641697
41	0x3f991c68	1.1961794
42	0x402971d9	2.6475737
43	0x3ce46f50	0.02788511
44	0x3fff7d41	1.99601
45	0x3fb5c0c0	1.4199448
46	0x3fbe5b80	1.4871674
47	0x3fa64553	1.2989906

sequential/model/block_13_depthwise_BN/FusedBatchNormV3;StatefulPartitionedCall/sequential/model/block_13_depthwise_BN/FusedBatchNormV3 f4 [48]
0	0xbdab24d8	-0.08356637
1	0x3deb9dd8	0.11504716
2	0x3f9facd8	1.2474623
3	0x3e1426f8	0.1446799
4	0x3d2cc910	0.042183936
5	0x3eedceae	0.46446747
6	0x3b7d8800	0.0038685799
7	0xbf519f30	-0.81883526
8	0xbd953f38	-0.07287449
9	0xbd9b6dc0	-0.075892925
10	0x3f86f783	1.0544285
11	0x3d7c9980	0.061669827
12	0x3fd715bf	1.6803511
13	0xbddb4400	-0.10706329
14	0x3dd64d3c	0.1046395
15	0xbe0e768c	-0.1391241
16	0x3c31e240	0.010857165
17	0xbf4eecc5	-0.8083003
18	0x3e86bfd1	0.2631822
19	0x3fb7228f	1.4307421
20	0xbd52769f	-0.051382657
21	0x3fc69ad0	1.5515995
22	0x401f34c3	2.4875953
23	0xbe164bd0	-0.14677358
24	0xbe50ae38	-0.20378959
25	0xbdbf796c	-0.09349331
26	0x3f95ec2f	1.1712703
27	0x3fbe667d	1.4875027
28	0x3e028712	0.12746838
29	0xbe00fea4	-0.12597138
30	0x3e7c50d2	0.24640206
31	0xbd2fd310	-0.042925894
32	0xbe9ebc9e	-0.31003278
33	0x3d90a958	0.0706355
34	0xbdd97738	-0.10618442
35	0xbf17628d	-0.5913475
36	0xbf78ca79	-0.9718395
37	0x3d898ef8	0.06716722
38	0xbd9ab2f4	-0.07553664
39	0xbce94320	-0.02847439
40	0x3fafc440	1.3731766
41	0x3f80537a	1.0025475
42	0x3fcba688	1.5910196
43	0xbf2078b6	-0.6268419
44	0x3fe0ed02	1.7572329
45	0x3da53910	0.080675244
46	0x3f696ea8	0.91184473
47	0xbdc8b060	-0.09799266

sequential/model/block_14_expand_BN/FusedBatchNormV3;StatefulPartitionedCall/sequential/model/block_14_expand_BN/FusedBatchNormV3 f4 [48]
0	0x3f438c4b	0.76385945
1	0x3f745520	0.9544239
2	0x3f6e9faf	0.9321241
3	0xbd9749bd	-0.07387111
4	0xbef5d4fc	-0.48014057
5	0x3f49d184	0.7883532
6	0x3ee827e4	0.45342934
7	0x3f014503	0.5049593
8	0x3e9c35a7	0.30509683
9	0x3ecacb34	0.39608157
10	0x3f1f7368	0.6228547
11	0x3f627150	0.8845415
12	0x3f721a25	0.94571143
13	0xbd62b09f	-0.05534422
14	0x3ecf4ff9	0.40490702
15	0xbeab7057	-0.33484146
16	0x3f03ebb3	0.51531523
17	0x3f83affc	1.0288081
18	0x3ef9d011	0.48791555
19	0x3f303d43	0.6884348
20	0x3f76865a	0.96298754
21	0x3ec35105	0.3814775
22	0x3eedb6af	0.4642844
23	0x3f187cf7	0.5956568
24	0x3f76d078	0.9641185
25	0x3f2e3606	0.68051183
26	0x3ecff596	0.40617055
27	0x3f711c99	0.9418426
28	0x3f70280a	0.93811095
29	0x3e8d0ee9	0.27550438
30	0x3f04a881	0.51819617
31	0x3f40da33	0.75332946
32	0x3f08dcb0	0.5346174
33	0x3eca8133	0.39551696
34	0x3f46df0d	0.776841
35	0x3f3f954e	0.74837196
36	0x3e3f648c	0.186907
37	0x3f2a1abd	0.6644705
38	0x3e91b21c	0.284562
39	0x3d613a2f	0.05498713
40	0x3e484adc	0.19559807
41	0x3f4937c5	0.7860072
42	0x3f1c7fa5	0.6113227
43	0x3f6aa99c	0.91665053
44	0x3f68dd62	0.90962803
45	0x3f71aa2e	0.944003
46	0x3e869fcc	0.2629379
47	0x3e45845e	0.19288775

sequential/model/block_14_depthwise_BN/FusedBatchNormV3;StatefulPartitionedCall/sequential/model/block_14_depthwise_BN/FusedBatchNormV3 f4 [48]
0	0x3e8198d8	0.25311923
1	0x40270d02	2.610169
2	0x3e0252b2	0.12726858
3	0xbee0ee56	-0.43931836
4	0x3f3f9c43	0.7484781
5	0x3b713380	0.0036804378
6	0xbca03fe0	-0.019561708
7	0x3f774399	0.9658752
8	0xbf311948	-0.691792
9	0x3f070548	0.52742434
10	0xbece7f91	-0.403317
11	0x3fdccac4	1.7249379
12	0x3f84b9bc	1.0369182
13	0xbf444f35	-0.7668336
14	0x3f17f067	0.593512
15	0xbe53c4fa	-0.2068061
16	0xbedfa2f1	-0.43679002
17	0x405d3464	3.4563227
18	0xbd4c4ae0	-0.049876094
19	0x3f5ea430	0.8696928
20	0xbd832c30	-0.064049125
21	0xbee19de5	-0.44065776
22	0xbefe79f6	-0.49702424
23	0xbeee1bcc	-0.46505582
24	0xbcbc1e5a	-0.022963692
25	0xbed1b9b2	-0.40961987
26	0x3e341c7a	0.17588988
27	0xbe7b33d2	-0.24531487
28	0xbdd19492	-0.10233416
29	0x3ea6af85	0.32555786
30	0x3e112a60	0.14176321
31	0x3e8b67e8	0.27227712
32	0xbc47409e	-0.012161402
33	0xbd9e1e60	-0.07720637
34	0xbe79ff33	-0.24413757
35	0xbf3d48b4	-0.7393906
36	0xbea0c9fd	-0.31404105
37	0x3f68e847	0.9097943
38	0xbe97c19c	-0.296399
39	0xbf0cb43a	-0.54962504
40	0xbf1badce	-0.6081208
41	0xbede4e2c	-0.43419015
42	0x3e401bf4	0.18760663
43	0xbe5031ce	-0.20331499
44	0x3fbd1af4	1.477385
45	0x3ea1305a	0.31482202
46	0xbdc68ccc	-0.096948236
47	0x3ebdc741	0.3706608

sequential/model/block_15_expand_BN/FusedBatchNormV3;StatefulPartitionedCall/sequential/model/block_15_expand_BN/FusedBatchNormV3 f4 [48]
0	0x3e239209	0.15973677
1	0x3e62c515	0.22145493
2	0x3e5be49e	0.2147393
3	0xbe825627	-0.25456354
4	0x3f20d165	0.6281951
5	0x3eecedf3	0.4627529
6	0x3f2942b5	0.6611741
7	0x3f159b2f	0.58439916
8	0x3ecf2eb6	0.40465325
9	0xbe77064e	-0.24123499
10	0x3f51bc4b	0.8192794
11	0x3ebc52f1	0.3678203
12	0xbe388995	-0.18021233
13	0x3f21ec3b	0.63251084
14	0x3f4ec17c	0.80763984
15	0x3e939144	0.28821766
16	0x3f2b3c20	0.6688862
17	0x3d2c3ed3	0.0420521
18	0x3f801cc8	1.0008783
19	0x3f4df73e	0.80455387
20	0x3ef2754c	0.47355115
21	0x3f6039e7	0.8758835
22	0x3f55b5b9	0.8348041
23	0x3f04dc57	0.5189871
24	0x3e91c1ee	0.2846827
25	0x3f716463	0.942938
26	0x3d59d558	0.053181976
27	0x3f2bb331	0.670703
28	0x3efa9f57	0.48949692
29	0xbe91900a	-0.28430206
30	0x3e34a330	0.17640376
31	0x3f060496	0.5235075
32	0x3c8c75a4	0.01714594
33	0x3f09b501	0.53791815
34	0x3e2722ea	0.16321912
35	0x3f2e11fa	0.6799618
36	0x3e935fff	0.28784177
37	0x3f20bb1b	0.627855
38	0x3df804c1	0.12110282
39	0x3e850ac9	0.2598479
40	0xbdcd753a	-0.10032125
41	0x3f37f36c	0.7185581
42	0x3f49ea11	0.7887278
43	0x3f40ea23	0.75357264
44	0x3edd0b90	0.43172884
45	0x3f2c5baa	0.6732737
46	0x3ddaeebc	0.10690066
47	0x3ebe1aa5	0.37129703

sequential/model/block_15_depthwise_BN/FusedBatchNormV3;StatefulPartitionedCall/sequential/model/block_15_depthwise_BN/FusedBatchNormV3 f4 [48]
0	0xbf8f424d	-1.1192108
1	0xbeada05c	-0.33911407
2	0x3e772428	0.24134886
3	0xbe2d0748	-0.16897309
4	0xbf69e59f	-0.91366
5	0xbda91dfd	-0.08257673
6	0xbef8d3e5	-0.48599163
7	0xbf93b70b	-1.1540235
8	0xbf3454f4	-0.7044213
9	0xbf8ab924	-1.083775
10	0xbd3e6d50	-0.046490967
11	0x3fa66a07	1.3001107
12	0x3e83f2ad	0.25771084
13	0x3fb39fdf	1.4033164
14	0xbce1f950	-0.027584702
15	0x3fc17249	1.5113002
16	0xbf80e64c	-1.0070281
17	0xbefdee4d	-0.49595872
18	0xbea03458	-0.31289935
19	0x3fab3e4a	1.3378384
20	0xbf6e797a	-0.9315411
21	0xbfcfe0ee	-1.6240518
22	0x3f7f21c0	0.99660873
23	0xbefc0dac	-0.4922918
24	0xbefdca11	-0.49568227
25	0x402e21a0	2.7208023
26	0xbe18e29b	-0.14930193
27	0xbc7e2680	-0.015512109
28	0x3fe18b93	1.762072
29	0x3c3f9f58	0.011695705
30	0x3f1711fa	0.59011805
31	0xbf1016b3	-0.56284636
32	0xbfa83e5f	-1.3144034
33	0x3f97c0c4	1.1855702
34	0xbec5dbbb	-0.38644204
35	0x3c8e4240	0.017365575
36	0xbf6079f0	-0.8768606
37	0x3ec85200	0.3912506
38	0xbf6576c6	-0.8963436
39	0xbd35c8a3	-0.044380795
40	0xbecd62a0	-0.40114307
41	0x3f975cb5	1.1825167
42	0xbd4d9b24	-0.05019678
43	0x3fd9cd68	1.701581
44	0xbe8941c4	-0.26807988
45	0xbd922c21	-0.07137323
46	0xbf7de24e	-0.9917344
47	0xbb6c0ce0	-0.0036018416

sequential/model/block_16_expand_BN/FusedBatchNormV3;StatefulPartitionedCall/sequential/model/block_16_expand_BN/FusedBatchNormV3 f4 [48]
0	0xbd5b12cf	-0.053484734
1	0x3ee684a1	0.45023063
2	0x3ea93044	0.33044636
3	0x3f838ee3	1.027798
4	0x3f36370c	0.71177745
5	0x3f15d9e3	0.58535594
6	0x3f460015	0.77343875
7	0x3e827e83	0.25487146
8	0x3ee38dbd	0.44444075
9	0x3f73471d	0.95030385
10	0x3e42d5c0	0.19026852
11	0x3e623ca4	0.22093445
12	0x3ebf931b	0.3741692
13	0x3f7b3783	0.9813158
14	0x3f147798	0.57994986
15	0x3ecdf85e	0.40228552
16	0x3f0a0d11	0.5392619
17	0x3f0df0a5	0.5544532
18	0x3f3efa77	0.7460093
19	0x3f80b60c	1.0055556
20	0x3f803cad	1.0018517
21	0x3ef30966	0.47468108
22	0x3e887069	0.26648262
23	0x3ec8a331	0.39187005
24	0x3e662e58	0.22478616
25	0x3f49d26e	0.78836715
26	0x3cec61b1	0.028855177
27	0x3f45212b	0.77003735
28	0xbe38b8a6	-0.18039188
29	0x3e990641	0.29887584
30	0x3e485a4c	0.19565696
31	0x3f040fce	0.51586616
32	0x3ee8ba0b	0.4545444
33	0x3f5e9016	0.8693861
34	0x3ea1ed29	0.3162625
35	0x3f68a1ed	0.9087208
36	0xbe41e6c7	-0.18935691
37	0xbeb4594d	-0.3522438
38	0x3f79e255	0.9761098
39	0x3f394940	0.72377396
40	0x3ed6ca64	0.41951287
41	0x3e8df1d0	0.2772355
42	0x3f2731e9	0.6531053
43	0x3ec27ed0	0.37987375
44	0x3f092a98	0.5358062
45	0x3f785e37	0.9701876
46	0x3f20e8e6	0.62855375
47	0x3dcdfbf3	0.10057821

sequential/model/block_16_depthwise_BN/FusedBatchNormV3;StatefulPartitionedCall/sequential/model/block_16_depthwise_BN/FusedBatchNormV3 f4 [48]
0	0xbe943d71	-0.28953126
1	0x3f96d9b3	1.1785187
2	0xbcee28a0	-0.029072106
3	0x3f024055	0.5087941
4	0xbfeec253	-1.8653053
5	0x3fc581be	1.5430219
6	0xbf4e7b9a	-0.8065735
7	0x3f82e004	1.0224614
8	0x3fa246a7	1.2677811
9	0xbd71f1c0	-0.05906844
10	0x3f957268	1.1675539
11	0xbe352e72	-0.17693499
12	0x3fa0fccc	1.2577147
13	0xbe2f034b	-0.170911
14	0x3faf1add	1.3680073
15	0xbd06de80	-0.032927036
16	0xbe8b1918	-0.27167583
17	0x3faa6617	1.3312405
18	0xbf5657e3	-0.83727854
19	0x40a44ef0	5.134636
20	0x3d899450	0.067177415
21	0x3f90241c	1.126102
22	0x3da17ac0	0.07884741
23	0x3f6b1ee0	0.91843987
24	0x3e97e654	0.29667914
25	0x3e9df9db	0.30854687
26	0xbeac04ca	-0.33597404
27	0xbf90d44c	-1.1314788
28	0xbdf58dc8	-0.11989933
29	0x3da03ae8	0.078237355
30	0xbef895dd	-0.48551837
31	0x401020ae	2.2519946
32	0xbe4e3a5c	-0.2013945
33	0x4023e228	2.5606785
34	0xbcccc600	-0.024996758
35	0xbebd301c	-0.36950767
36	0xbcc563a0	-0.024095356
37	0xbd13c510	-0.036076605
38	0x405c9fb8	3.4472485
39	0xbd1af7fd	-0.037834156
40	0x3efe8d96	0.49717396
41	0x3faea0a4	1.3642774
42	0xbf7fde20	-0.9994831
43	0xbe6dda94	-0.23227912
44	0x3e64b6c8	0.2233535
45	0xbfbca90b	-1.4739088
46	0xbe8a426a	-0.27003795
47	0xbe554db5	-0.20830424

sequential/model/Conv_1_bn/FusedBatchNormV3;StatefulPartitionedCall/sequential/model/Conv_1_bn/FusedBatchNormV3 f4 [1280]
0	0xbe9e4c03	-0.30917367
1	0xbca0dcaa	-0.01963647
2	0xbd92f9a9	-0.07176525
3	0xbe3b7ce9	-0.18309368
4	0x3d11c06f	0.03558391
5	0xbe01e5d8	-0.12685335
6	0xbe521947	-0.20517455
7	0xbce4e10f	-0.027939348
8	0xbe2bb887	-0.1676961
9	0xbccdc9c9	-0.025120633
10	0xbe50f7bf	-0.20407008
11	0x3c519d48	0.012793846
12	0xbe2fc206	-0.17163858
13	0x3d713d62	0.05889643
14	0x3cf138b9	0.029445993
15	0x3ae82ec6	0.0017714135
16	0x3df222d4	0.11823049
17	0xbdad599e	-0.08464359
18	0xbcf1603a	-0.02946483
19	0xbd9584cd	-0.0730072
20	0xbedbc5c2	-0.42924315
21	0xbea1ee39	-0.31627062
22	0x3e1aea6b	0.15128486
23	0x3debb7f1	0.115096934
24	0xbeca09f6	-0.39460725
25	0xbe924186	-0.28565615
26	0xbdc91cbb	-0.09819933
27	0xbe3ff3ad	-0.18745299
28	0xbcf75252	-0.03019062
29	0xbe35d13f	-0.17755602
30	0xbdc55229	-0.096348114
31	0xbd8305e9	-0.06397612
32	0xbedf10c9	-0.43567494
33	0xbed2ce42	-0.41172987
34	0xbdc626bd	-0.096753575
35	0xbe4075cc	-0.18794936
36	0xbe4b1579	-0.1983241
37	0xbe20ea2a	-0.15714327
38	0x3cd5c403	0.026094442
39	0xbd89e647	-0.06733375
40	0xbe54ae57	-0.2076963
41	0x3c937766	0.01800127
42	0xbd722702	-0.059119232
43	0x3d650e09	0.055921588
44	0xbcc59c96	-0.024122518
45	0xbe82dd8b	-0.2555965
46	0xbdec628f	-0.11542236
47	0xbe57f8ff	-0.21091078
48	0xbe31b100	-0.17352676
49	0x3ca154e3	0.019693797
50	0xbe52cea2	-0.20586637
51	0x3cbf6de5	0.023367831
52	0xbe5a51c7	-0.21320258
53	0xbdd6ca45	-0.104877986
54	0xbeae6c19	-0.34066847
55	0xbdb00abc	-0.085957974
56	0xbe89714e	-0.26844257
57	0xbe79826b	-0.24366157
58	0xbe8460c1	-0.25855067
59	0xbda7c244	-0.0819135
60	0x3c39fb7e	0.011351464
61	0xbec2979d	-0.38006297
62	0xbe0ea3b6	-0.13929638
63	0x3e983e36	0.29734963
64	0xbd8a4d41	-0.06753016
65	0xbe9330e0	-0.28748226
66	0xbdd2f71c	-0.103010386
67	0xbaa0f81a	-0.0012280971
68	0xbe58297f	-0.2110958
69	0xbd56c552	-0.052434273
70	0xbd86feb8	-0.065915525
71	0xbdd15af9	-0.1022243
72	0xbe9e8d7f	-0.30967328
73	0xbccfb4bd	-0.025354737
74	0xbe1d81af	-0.15381502
75	0xbd235ceb	-0.039883535
76	0xbde1b222	-0.11020304
77	0xbebdf4a7	-0.37100717
78	0x3ec46bd2	0.3836351
79	0x3c841e10	0.016127616
80	0xbe6f8794	-0.23391563
81	0x3c5e67fe	0.013574598
82	0xbe42f886	-0.19040117
83	0xbe5ff348	-0.21870148
84	0xbdea1271	-0.11429299
85	0x3de9e3ca	0.114204004
86	0xbe851224	-0.25990403
87	0x3d8489bc	0.06471583
88	0xbee4fcd9	-0.44724157
89	0xbdd9ccc7	-0.10634761
90	0x3d0dcd50	0.03461963
91	0xbead0652	-0.33793885
92	0xbe5fb516	-0.21846423
93	0xbe76a1cd	-0.2408516
94	0xbe4bb772	-0.19894198
95	0xbe5f944a	-0.21833912
96	0xbda8cf10	-0.08242619
97	0x3d3ab9bf	0.045587298
98	0xbe40aff6	-0.18817124
99	0xbd247637	-0.0401518
100	0xbcbbd00e	-0.022926357
101	0xbea78e8b	-0.3272594
102	0xbdafdc2d	-0.08586917
103	0xbe62156a	-0.22078481
104	0xbb1f394c	-0.0024295626
105	0xbce8ae41	-0.028403403
106	0xbe811abc	-0.2521571
107	0xbe83fc88	-0.25778604
108	0xbe5a7c9a	-0.21336594
109	0xbe8c0687	-0.2734873
110	0xbe66a254	-0.22522861
111	0xbe9ced96	-0.30650014
112	0xbd993768	-0.07481271
113	0x3e4da436	0.20082173
114	0xbe1264c1	-0.14296247
115	0xbe971780	-0.29510117
116	0xbe4a97bf	-0.19784449
117	0xbe2c7619	-0.16841926
118	0xbcc81253	-0.0244228
119	0xbe0e0df5	-0.13872512
120	0x3cf1064d	0.02942195
121	0xbdb502c7	-0.0883842
122	0xbe18d067	-0.14923249
123	0x3cadeddf	0.02123159
124	0xbe9ed44f	-0.31021354
125	0xbe0f8bcb	-0.1401817
126	0x3d5b713a	0.05357478
127	0xbe5a2055	-0.21301396
128	0xbea31e5e	-0.31859106
129	0x3c03d233	0.008045721
130	0xbd844e22	-0.06460215
131	0x3dd8a3e5	0.105781354
132	0x3ca3c8e4	0.019993253
133	0xbe085a77	-0.1331576
134	0x3c460f3d	0.012088594
135	0xbe46e60b	-0.19423692
136	0xbe8dc921	-0.27692512
137	0xbe5fb6bb	-0.2184705
138	0xbe5af7ee	-0.2138364
139	0x3bb22ad8	0.0054372363
140	0xbcf328ff	-0.029682634
141	0xbe77835a	-0.241712
142	0x3ce5d007	0.028053297
143	0x3e4c817c	0.1997127
144	0xbe6700c6	-0.22558889
145	0xbcfcbde0	-0.030852258
146	0xbd300b98	-0.042979807
147	0xbd9d40ba	-0.07678361
148	0xbe86bde7	-0.2631676
149	0x3cba2c3e	0.022726174
150	0xbd9ea398	-0.07746047
151	0xbdaf25eb	-0.08552154
152	0xbe352789	-0.17690863
153	0xbe393132	-0.18085173
154	0xbe2fc480	-0.17164803
155	0xbea4b83a	-0.32171804
156	0xbe2aabc5	-0.16667087
157	0xbe6aaa5e	-0.22916552
158	0x3c62eced	0.013850433
159	0xbdd6c691	-0.10487092
160	0xbeb8fdc3	-0.36131105
161	0xbdae8514	-0.085214764
162	0xbc7f817f	-0.015594839
163	0xbd99328c	-0.07480344
164	0xbdac98ce	-0.08427583
165	0xbe603770	-0.21896148
166	0x3c850bbd	0.016240949
167	0xbd61e912	-0.055153914
168	0xbe744ea9	-0.23858131
169	0xbe5cd124	-0.21564156
170	0x3a28a84a	0.00064337684
171	0xbe202028	-0.15637267
172	0xbebbc83d	-0.36676207
173	0xbcb11886	-0.021618139
174	0xbdd3fbf0	-0.10350788
175	0xbeb2d502	-0.34928137
176	0xbd3d21a1	-0.04617465
177	0xbf25cb5a	-0.64763415
178	0x3da78350	0.08179343
179	0xbe5b9963	-0.21445231
180	0xbd174218	-0.036928266
181	0xbd6f842d	-0.058475662
182	0xbd234fb8	-0.039870948
183	0x3dad90ea	0.08474906
184	0xbe310e3e	-0.17290589
185	0xbdb75e35	-0.089535154
186	0xbe525f5e	-0.20544192
187	0xbd3af903	-0.045647632
188	0xbe25da89	-0.16196646
189	0xbe26f412	-0.16304043
190	0xbe159fcb	-0.14611737
191	0xbeddcf57	-0.4332225
192	0xbceb4c28	-0.028722838
193	0x3e165bbf	0.14683436
194	0x3cc54d3d	0.024084682
195	0xbe4bf7c9	-0.19918741
196	0xbe535be2	-0.2064052
197	0xbe3c4a14	-0.18387634
198	0xbe95ec7d	-0.2928199
199	0xbd6e294e	-0.05814486
200	0xbed1d8a8	-0.40985608
201	0xbd327997	-0.04357299
202	0xbd5c123b	-0.053728323
203	0xbde20f9e	-0.11038135
204	0xbe2b0ebd	-0.16704841
205	0x3e14cae7	0.14530526
206	0xbe89e3c2	-0.26931578
207	0xbd0e6bc1	-0.03477073
208	0xbe245cda	-0.16051045
209	0xbde4d2d2	-0.11173023
210	0xbbf87c40	-0.007583171
211	0xbde92964	-0.11384848
212	0xbeb87fc5	-0.3603498
213	0xbe09c2d3	-0.13453226
214	0xbe1e41e7	-0.15454827
215	0xbe0b808a	-0.13623253
216	0xbd082209	-0.033235583
217	0xbd9e46f1	-0.07728375
218	0xbd26610b	-0.04061989
219	0xbd67eb2d	-0.056620765
220	0xbe9c6182	-0.30543143
221	0x3d158647	0.03650501
222	0xbd345ebd	-0.044035662
223	0xbe2d498f	-0.16922592
224	0xbe0c8af2	-0.13724878
225	0xbd175f15	-0.03695591
226	0xbec96e99	-0.39342192
227	0xbe174fad	-0.14776488
228	0xbe768776	-0.24075112
229	0xbd8f542d	-0.06998477
230	0x3d3745a5	0.044744153
231	0xbc15a996	-0.009134671
232	0x3daded9a	0.084925845
233	0xbe0b0ba5	-0.13578661
234	0xbd21e263	-0.03952254
235	0xbe8add46	-0.27121943
236	0xbea3aff9	-0.31970194
237	0xbe64c767	-0.22341691
238	0xbda03ed6	-0.07824485
239	0x3cd5556c	0.026041709
240	0xbe4b3363	-0.19843821
241	0xbe462639	-0.19350518
242	0xbe444009	-0.19165052
243	0xbd725a17	-0.059167948
244	0xbe5ec9fd	-0.2175674
245	0xbea49d3c	-0.3215121
246	0xbe74d4ab	-0.23909251
247	0xbe0a00d0	-0.13476872
248	0xbe59c7ac	-0.21267575
249	0xbe3d9248	-0.18512833
250	0xbe13b4cd	-0.14424439
251	0xbde74fe0	-0.11294532
252	0xbe9a58b7	-0.3014581
253	0xbe972100	-0.29517365
254	0xbcfeb1f3	-0.031090712
255	0x3d8946ee	0.06702982

sequential/dense/Tensordot/MatMul;StatefulPartitionedCall/sequential/dense/Tensordot/MatMul f4 [10, 1280]
0	0x3c530ca0	0.012881428
1	0xbd5ff4a1	-0.054676656
2	0xbb3dc420	-0.002895601
3	0xbd41d916	-0.04732617
4	0xbd00c20c	-0.031435058
5	0xbd81816d	-0.06323514
6	0x3d894d51	0.067042
7	0xba522a80	-0.0008017197
8	0xbd6f1d4f	-0.05837756
9	0xba7da100	-0.0009675175
10	0xbbb79900	-0.005602956
11	0x3d03bb8c	0.03216128
12	0x3d73a592	0.059484072
13	0xbcb7491c	-0.022373728
14	0x3b856a90	0.004071541
15	0xbd5efde9	-0.054441366
16	0x3b9db656	0.004812996
17	0x3d512bea	0.05106727
18	0x3c58d773	0.013234961
19	0x3d508612	0.05090911
20	0xbc5ba474	-0.013405908
21	0xbd852a7e	-0.06502245
22	0xbd840391	-0.06445993
23	0xbd72c93f	-0.059273954
24	0x3d72c826	0.059272908
25	0xbcc724b7	-0.0243095
26	0x3bfe6ca9	0.007764418
27	0xbb863750	-0.004095949
28	0xbaef1e40	-0.0018243268
29	0xbcd55a5e	-0.026044067
30	0xba8a051a	-0.0010530085
31	0xbc7510dc	-0.014957633
32	0xbd86f7bc	-0.0659022
33	0x3d485024	0.048904553
34	0x3c518360	0.01278767
35	0x3c453578	0.012036674
36	0xbd6a577f	-0.05721235
37	0xbd322d1c	-0.04350005
38	0x3d2dfe7e	0.04247903
39	0x3cd88fa8	0.026435688
40	0xbcfe019b	-0.031006625
41	0xbcb4bffc	-0.022064202
42	0x3d5a2ac8	0.053263456
43	0x3d719072	0.058975644
44	0x3a414e80	0.0007374063
45	0xbd1ddf1f	-0.038542863
46	0xbcf2891a	-0.02960639
47	0xbcc58799	-0.02411251
48	0x3d0df7ba	0.03466008
49	0xbba569da	-0.005048019
50	0xbd60d914	-0.05489452
51	0xbd87a831	-0.06623877
52	0x3c440690	0.011964455
53	0x3c440c90	0.011965886
54	0xbd27bda8	-0.040952355
55	0x3d44a9be	0.04801344
56	0x3d35f7b6	0.04442569
57	0x3bddcd10	0.00676883
58	0xbcd84993	-0.02640227
59	0xbc4e9490	-0.012608662
60	0xbd0d66be	-0.03452181
61	0x3c9fa5d0	0.019488245
62	0x3d84081d	0.0644686
63	0x3d3695dc	0.04457651
64	0xbcac49f0	-0.02103135
65	0xbb8cffc0	-0.0043029487
66	0x3d0458b1	0.032311145
67	0xbc07dfd4	-0.008293111
68	0x3d028554	0.031865433
69	0x3cd93b63	0.026517576
70	0x3d25534d	0.040362645
71	0x3d43e8fa	0.047829606
72	0xbd6b4047	-0.057434347
73	0x3d1b38be	0.03789591
74	0xbc946510	-0.018114597
75	0xbcd6157f	-0.026133297
76	0x3ca28174	0.019837119
77	0xbd33369c	-0.04375325
78	0xbc017850	-0.00790222
79	0xbd85fca5	-0.06542329
80	0xbd720fc3	-0.059097063
81	0x3d6e18b9	0.058129046
82	0x3d84eb3f	0.06490182
83	0x3ce72156	0.028214138
84	0x3c0656c8	0.008199401
85	0x3c9c67d6	0.019092482
86	0x3d36eaf6	0.04465767
87	0xbd86fdc1	-0.065913685
88	0x3c702120	0.014656335
89	0x3ce2831c	0.027650408
90	0x3b3d4ba9	0.0028884208
91	0x3d2a04ba	0.041508414
92	0x3d478441	0.04871011
93	0xbcab08d5	-0.020878235
94	0xbd549df8	-0.051908463
95	0xbd5ae776	-0.053443395
96	0x3d2b309a	0.041794397
97	0xbbd95c78	-0.0066333376
98	0xbcda162c	-0.0266219
99	0x3b602d80	0.0034206808
100	0xbb329680	-0.002725035
101	0xbd84ccb1	-0.06484354
102	0x3cb37c2c	0.021909796
103	0xbd6e7873	-0.058220338
104	0xbd44a6d5	-0.048010666
105	0xbc8d83f6	-0.017274838
106	0x3cc8d41c	0.024515204
107	0x3d4d60dc	0.0501412
108	0xbceefe46	-0.029173981
109	0x3cf73060	0.030174434
110	0xbb453440	-0.0030090958
111	0x3c6885d5	0.014192064
112	0xbd1b6b62	-0.037944205
113	0xbd8140a7	-0.063111596
114	0xbd15285d	-0.036415447
115	0x3c732498	0.014840268
116	0xbd8bb78a	-0.06822117
117	0x3c711cc5	0.014716332
118	0x3cb26604	0.02177716
119	0xbd0f3b54	-0.03496869
120	0x3d4efbbd	0.050533045
121	0x3d5bce18	0.053663343
122	0xbd89c4e7	-0.06727009
123	0xbd61fcdd	-0.05517279
124	0xbd51e473	-0.051243257
125	0x3d22f132	0.039780803
126	0x3d0d33e5	0.03447332
127	0xbd446a19	-0.047952745
128	0xbd6ac3cc	-0.057315633
129	0x3d3a2735	0.045447547
130	0x3d6f0fd2	0.058364697
131	0xbbf91728	-0.0076016374
132	0x3c5a6028	0.0133285895
133	0x3c43c8ae	0.011949701
134	0xbc99c816	-0.018772166
135	0x3d2a00c4	0.041504636
136	0x3d3cd588	0.046102077
137	0xbc988eab	-0.018622717
138	0xbd8455b8	-0.06461662
139	0x3c399908	0.011327989
140	0x3cc17565	0.023615548
141	0xbd0d41d0	-0.03448659
142	0x3c69aeed	0.014262897
143	0x3d0803ca	0.03320674
144	0xbc441748	-0.011968441
145	0x3c88208c	0.016617082
146	0x3c426760	0.011865467
147	0x3d85896d	0.065203525
148	0xbc83b484	-0.016077287
149	0x3d56d7bc	0.052451834
150	0xbc18dff8	-0.009330742
151	0xbcb73181	-0.022362472
152	0xbd06bac1	-0.032892946
153	0x3bff9940	0.0078002512
154	0x3d84f80d	0.064926244
155	0xbd7b2430	-0.061313808
156	0xbd64032a	-0.05566708
157	0xbd0b8301	-0.034060482
158	0x3d6de3fa	0.058078744
159	0xbc67cf10	-0.014148489
160	0xbd587cf7	-0.05285355
161	0x3d4be19a	0.049775697
162	0x3d8a4eeb	0.06753334
163	0xbd640c6c	-0.05567591
164	0xbc6d58b8	-0.014486484
165	0xbd56b240	-0.052416086
166	0x3b3b0080	0.0028534234
167	0xbd465b56	-0.04842695
168	0xbcb09ace	-0.021558192
169	0x3d621946	0.055199884
170	0xbd8c1179	-0.0683927
171	0xbd886165	-0.066592015
172	0x3d3b9792	0.045798846
173	0x3b386c00	0.0028140545
174	0x3d46bb9e	0.04851877
175	0xbc43a024	-0.011940036
176	0x3cf11763	0.029430097
177	0x3d07526a	0.03303758
178	0xbd4c9572	-0.04994721
179	0xbd7412c0	-0.059588194
180	0xbb037400	-0.0020058155
181	0x3d2c3a38	0.04204771
182	0x3d6216d8	0.055197567
183	0xbc037a64	-0.008024786
184	0x3d5f09a4	0.054452553
185	0x3b385440	0.0028126389
186	0x3d5b0723	0.053473603
187	0xbcbef4a4	-0.023310013
188	0xbc10fa00	-0.008848667
189	0x3d849f59	0.06475706
190	0xbd75473c	-0.059882388
191	0x3d58f48c	0.052967593
192	0xbc2edfd6	-0.010673484
193	0x3d226faa	0.039657272
194	0xbc938eb6	-0.018012386
195	0xbcf4dc96	-0.02989034
196	0xbc40cf30	-0.011768147
197	0xbc6cf4ac	-0.014462631
198	0xbc883f56	-0.016631763
199	0x3d4138cc	0.047173306
200	0xbb04cc60	-0.0020263419
201	0xbd4f69bf	-0.050637957
202	0x3d3918a8	0.04518953
203	0x3bfa0fb0	0.0076312646
204	0xbc2c98e8	-0.010534503
205	0x3d81d3df	0.06339239
206	0xbd3fe53a	-0.046849467
207	0x3d44a672	0.048010297
208	0xbd8ca010	-0.06866467
209	0x3d756c36	0.05991765
210	0x3d707a7a	0.058710553
211	0x3d593fc0	0.053039312
212	0x3b9115f0	0.004427664
213	0xbd5f721f	-0.054552194
214	0x3d53d85c	0.05172001
215	0x3ccec940	0.025242448
216	0xbcc5cb40	-0.024144769
217	0xbca32108	-0.019913211
218	0x3c58f3e8	0.0132417455
219	0xbd7a4ca4	-0.061108246
220	0x3d151d9f	0.036405202
221	0x3c0ce190	0.0085987
222	0xbd81b5aa	-0.06333478
223	0x3d6a27ca	0.057166852
224	0xbba1a310	-0.0049327686
225	0x3d1fb075	0.038986642
226	0xbd2675aa	-0.040639557
227	0x3d723b32	0.059138484
228	0x3cffacbc	0.031210296
229	0x3d45ed3b	0.048321944
230	0x3d831fdf	0.06402563
231	0x3d07c66c	0.033148214
232	0x3d37fb7c	0.04491757
233	0xbd802738	-0.062574804
234	0xbb9cc780	-0.0047845244
235	0xbd3835f3	-0.044973325
236	0xbd7e6b3f	-0.062113997
237	0xbc306c8f	-0.01076807
238	0xbc2b23b8	-0.010445528
239	0xbd541c75	-0.05178495
240	0x3d85733f	0.06516122
241	0x3d05a84a	0.032631196
242	0x3d88deaf	0.066830985
243	0x3c129859	0.008947455
244	0x3d5500f6	0.05200287
245	0x3c787358	0.015164219
246	0x3d0f2758	0.03494963
247	0x3ccdf718	0.025142238
248	0xbcf2a496	-0.029619496
249	0x3c5eed80	0.013606429
250	0xbcd913b7	-0.026498659
251	0x3d1c1c7e	0.03811311
252	0xbc8b2e6c	-0.01698991
253	0xbd2c708e	-0.042099528
254	0xbd10e6d0	-0.03537637
255	0xbcd51bb2	-0.026014183

sequential/dense_1/MatMul;StatefulPartitionedCall/sequential/dense_1/MatMul f4 [3, 10]
0	0xbe91a6a5	-0.28447452
1	0x3f2f6a74	0.6852181
2	0xbead3cce	-0.33835453
3	0x3d9cbcb1	0.076531775
4	0x3f198771	0.5997229
5	0xbe9f80c8	-0.3115294
6	0xbf07ffdb	-0.5312478
7	0xbf02c418	-0.51080465
8	0x3ec9819d	0.393567
9	0x3b6dae20	0.0036267117
10	0x3f037588	0.51351213
11	0xbea20770	-0.316463
12	0xbee06e6f	-0.43834254
13	0x3c9d65b8	0.019213542
14	0x3db051ff	0.086093895
15	0x3e818c48	0.2530234
16	0xbf0e7544	-0.55647683
17	0xbea4099b	-0.32038578
18	0xbeb17c2b	-0.34665045
19	0x3f28e2eb	0.6597125
20	0xbd6281ba	-0.0552995
21	0xbf025d7c	-0.50923896
22	0x3f19ed24	0.6012747
23	0x3f0ef726	0.5584587
24	0x3c38ce13	0.011279601
25	0x3ec58e3e	0.38585085
26	0xbf158fdd	-0.5842264
27	0x3e9e652b	0.3093656
28	0xbe29d0c5	-0.16583546
29	0x3e2d2c52	0.16911438

sequential/model/block_2_expand_BN/FusedBatchNormV3;StatefulPartitionedCall/sequential/model/block_2_expand_BN/FusedBatchNormV3 f4 [48]
0	0x3f464891	0.7745448
1	0x3f456963	0.7711393
2	0xba1ac47a	-0.0005903911
3	0x3e8cf967	0.2753403
4	0x3fa56b80	1.2923431
5	0x3f0978a6	0.5369972
6	0xbf092446	-0.53570974
7	0x3f5bbe40	0.85837173
8	0x3f003b81	0.50090796
9	0xbe9b50c3	-0.30335054
10	0x3f621cc5	0.8832515
11	0xbbe5355d	-0.006994887
12	0x3d418fee	0.047256403
13	0x3ec8b7b6	0.3920266
14	0x3d60f386	0.054919742
15	0x3f093e17	0.53610367
16	0xbee9f1fd	-0.45692435
17	0xbf344e75	-0.70432216
18	0x3f58d6ba	0.84702647
19	0x3f7987fd	0.97473127
20	0x3f4d0590	0.8008661
21	0xbdeffd7d	-0.11718271
22	0x3ed70dad	0.4200262
23	0x3f65bc24	0.89740205
24	0x3f497a57	0.787023
25	0x3f189073	0.5959541
26	0x3e459cd3	0.19298105
27	0x3f35108b	0.7072837
28	0xbe44bbef	-0.19212316
29	0xbeb56b57	-0.35433456
30	0x3f71de80	0.94480133
31	0x3ee0b7e2	0.4389029
32	0x3f223d1f	0.63374513
33	0x3f015228	0.50515985
34	0x3f3b6195	0.73195773
35	0x3f35d094	0.7102139
36	0x3ef55de0	0.47923183
37	0x3efa1e43	0.48851213
38	0x3f69d7d9	0.9134498
39	0x3f6cb9b1	0.9247084
40	0x3e8e860d	0.27836648
41	0x3f71b944	0.9442332
42	0x3f471dcd	0.7777985
43	0xbf282d15	-0.6569379
44	0x3e333d79	0.17503919
45	0x3eb9919d	0.36243907
46	0x3f643a8e	0.8915185
47	0xbdec2637	-0.115307264

sequential/model/block_2_depthwise_BN/FusedBatchNormV3;StatefulPartitionedCall/sequential/model/block_2_depthwise_BN/FusedBatchNormV3 f4 [48]
0	0xbfd6f0e7	-1.6792268
1	0xbe1fc804	-0.15603644
2	0xbeebca42	-0.46052748
3	0x3fdf4db4	1.7445588
4	0x40907862	4.514695
5	0x3f7b0be6	0.9806503
6	0xbc53ef18	-0.012935422
7	0x3f657666	0.89633787
8	0x3ddc00af	0.10742318
9	0xbf5d37e4	-0.8641341
10	0xbfded65a	-1.7409165
11	0x3fa1e7d1	1.264887
12	0xbcdaf320	-0.02672726
13	0x3f5f476a	0.87218344
14	0xbfdc362c	-1.7204032
15	0xbf930c61	-1.1488153
16	0xbe3b539b	-0.18293612
17	0x3c3ae848	0.011407919
18	0x3f981652	1.1881812
19	0x3f36cdc4	0.71407723
20	0xbd0ce816	-0.034401022
21	0x3fb13320	1.3843727
22	0xbea1fb65	-0.3163711
23	0x3d276988	0.040872127
24	0x3c155740	0.00911504
25	0xbbdde630	-0.0067718253
26	0xbd552e2e	-0.052045994
27	0xc01e0769	-2.4692023
28	0xbac766c0	-0.0015213117
29	0x3e9b780c	0.30365026
30	0xbf84f924	-1.0388532
31	0x3b2ead00	0.002665341
32	0xb9d6ca80	-0.00040968135
33	0xc0547521	-3.319649
34	0xbe0dfa6a	-0.13865057
35	0x3f88af53	1.0678505
36	0xbdedb7c2	-0.11607315
37	0x3dd415f3	0.10355749
38	0x3c699010	0.014255539
39	0xbecb1ce4	-0.3967048
40	0x3caa79a4	0.020809956
41	0xbeb8220b	-0.35963473
42	0xbd173cf4	-0.036923364
43	0xbeff947f	-0.4991798
44	0xbc5a7590	-0.013333693
45	0xbc4035d8	-0.011731587
46	0xc0263a02	-2.5972905
47	0x3f460cdc	0.7736337

sequential/model/block_3_expand_BN/FusedBatchNormV3;StatefulPartitionedCall/sequential/model/block_3_expand_BN/FusedBatchNormV3 f4 [48]
0	0x3d9703b4	0.07373753
1	0xbe474c55	-0.19462712
2	0x3ea7c676	0.327686
3	0x3f0e279e	0.555292
4	0x3f370b01	0.71501166
5	0x3e600b04	0.21879202
6	0x3f28e4f7	0.6597437
7	0x3f1c6574	0.61092305
8	0x3f35aeba	0.70969737
9	0xbea3f098	-0.32019496
10	0xbcdb0777	-0.026736958
11	0x3edc7095	0.43054643
12	0x3f370a51	0.71500117
13	0xbd789043	-0.060684454
14	0x3f15e57d	0.58553296
15	0x3eee66be	0.4656276
16	0xbe1fbe5a	-0.15599957
17	0x3f3a39af	0.7274427
18	0x3f57222b	0.8403651
19	0xbeed5034	-0.46350253
20	0x3f4511d6	0.7698034
21	0xbe75e9a6	-0.24014911
22	0xbe8b9d77	-0.27268574
23	0x3f1be611	0.6089793
24	0x3f3fa7bb	0.7486531
25	0xbf0f44b2	-0.55964196
26	0xbd42b872	-0.047539182
27	0xbf2dcd9d	-0.67891866
28	0xbb1d1ab8	-0.0023972224
29	0x3d7a6f95	0.06114157
30	0x3e9c092e	0.30475754
31	0x3eec72e3	0.46181402
32	0x3eb20cb6	0.34775323
33	0x3e3fdb9e	0.18736121
34	0x3f588708	0.8458104
35	0x3ecbe801	0.39825442
36	0x3f4d7ea1	0.80271345
37	0xbea649b3	-0.32478103
38	0x3dea4351	0.11438621
39	0x3e224142	0.15845206
40	0x3e885fe7	0.26635668
41	0x3e260447	0.16212569
42	0x3f14c6b0	0.58115673
43	0x3f440179	0.7656475
44	0xbcca9efe	-0.024734017
45	0x3e99415f	0.29932687
46	0x3e1d1194	0.15338737
47	0x3e90f7a8	0.28313947

sequential/model/expanded_conv_depthwise_BN/FusedBatchNormV3;StatefulPartitionedCall/sequential/model/expanded_conv_depthwise_BN/FusedBatchNormV3 f4 [8]
0	0x3f264acf	0.649579
1	0x40523bd0	3.2849007
2	0x3f10dcce	0.5658692
3	0xc00c6036	-2.1933722
4	0x40966076	4.699275
5	0x3eb0ac10	0.34506273
6	0x405dbb88	3.464571
7	0x3fe3e8a4	1.7805371

sequential/model/block_3_depthwise_BN/FusedBatchNormV3;StatefulPartitionedCall/sequential/model/block_3_depthwise_BN/FusedBatchNormV3 f4 [48]
0	0x3f9aba27	1.2088059
1	0xbeff4ef7	-0.49864933
2	0x3f486547	0.78279537
3	0x3d28b360	0.04118669
4	0x3f3f1ef3	0.746566
5	0x3f85b6e7	1.0446442
6	0x3fb85e5b	1.4403795
7	0x3f7fc718	0.9991317
8	0x3ffb9e23	1.9657634
9	0xbd7f4628	-0.062322766
10	0xbf80271a	-1.0011933
11	0x3fe4d2f8	1.7876883
12	0x391256c0	0.00013955962
13	0xbe47971c	-0.19491237
14	0x3f91c37c	1.1387782
15	0x3fcf97dc	1.6218219
16	0xbcd4fa20	-0.025998175
17	0x4024c9d5	2.5748188
18	0x4016d079	2.3564742
19	0xbe8390fb	-0.2569655
20	0x4005cc25	2.090585
21	0xbfc0dd5a	-1.5067551
22	0xbe05681c	-0.13027996
23	0x3e6f072c	0.2334258
24	0x4024a3fa	2.5725083
25	0x3da86584	0.082224876
26	0x3cae2140	0.02125609
27	0xbe30c800	-0.17263794
28	0x3fbfc2e6	1.4981353
29	0x3fd9141c	1.6959262
30	0x3ff04f03	1.8774112
31	0xbe90ef58	-0.28307605
32	0xbf8f1a55	-1.1179911
33	0x3f526ad5	0.8219426
34	0x403ea26f	2.9786642
35	0x3fbd5854	1.4792581
36	0x400604c8	2.0940418
37	0xbe57aa44	-0.21061045
38	0x3fc82e65	1.5639158
39	0xbcc939a0	-0.02456361
40	0x40148418	2.3205624
41	0xbf0044b0	-0.5010481
42	0x3fc1f606	1.5153205
43	0x4021f24c	2.5304136
44	0x3fd24f48	1.6430445
45	0xbfadee9c	-1.3588443
46	0xbef59ef9	-0.4797285
47	0x3faa55aa	1.3307393

sequential/model/block_4_expand_BN/FusedBatchNormV3;StatefulPartitionedCall/sequential/model/block_4_expand_BN/FusedBatchNormV3 f4 [48]
0	0x3ae283ff	0.001728177
1	0x3f658b6e	0.8966588
2	0xbe701215	-0.23444398
3	0xbee5f7cb	-0.44915614
4	0x3f7697ac	0.9632518
5	0xbeb809d8	-0.3594501
6	0x3ed431ab	0.41444144
7	0x3f6da51d	0.9283007
8	0x3f5f1856	0.8714651
9	0xbd72e23f	-0.059297796
10	0x3ede1b11	0.43380025
11	0x3f4fd5c6	0.8118557
12	0x3f3a9cca	0.7289549
13	0x3eb10c64	0.34579766
14	0x3f4a8cdb	0.7912118
15	0xbd64c1f1	-0.05584902
16	0xbd9a85b2	-0.075450316
17	0x3f77695f	0.9664516
18	0x3e7c05bc	0.24611562
19	0x3f37543b	0.716129
20	0xbdf76608	-0.12080008
21	0xbf0c0c1e	-0.5470599
22	0x3f5c0404	0.8594363
23	0x3f082740	0.5318489
24	0xbe05c72a	-0.13064256
25	0x3f483113	0.7819988
26	0x3f374c11	0.71600443
27	0x3d89f285	0.0673571
28	0x3f2119dd	0.6293009
29	0xbe886942	-0.26642805
30	0x3de18bb9	0.11012978
31	0x3ef56f6a	0.47936565
32	0x3f5ffdd2	0.87496674
33	0x3ef89983	0.4855462
34	0x3da8d542	0.08243801
35	0x3eafacad	0.3431143
36	0x3e8ba2f1	0.27272752
37	0x3f4c7c31	0.79877
38	0x3f46b76e	0.7762364
39	0x3e9b11f9	0.3028715
40	0x3f10544c	0.56378627
41	0x3dc4276e	0.09577833
42	0x3f356554	0.7085774
43	0xbf122934	-0.5709412
44	0x3cd36a48	0.025807515
45	0x3ec9b767	0.39397737
46	0x3f3d5290	0.73954105
47	0xbeb7da53	-0.35908756

sequential/model/block_4_depthwise_BN/FusedBatchNormV3;StatefulPartitionedCall/sequential/model/block_4_depthwise_BN/FusedBatchNormV3 f4 [48]
0	0xbe12b040	-0.14325047
1	0xbe927154	-0.28602087
2	0xbecd5b3d	-0.40108672
3	0xbe30d6b4	-0.17269403
4	0x4032b27a	2.7921433
5	0xbf8d8a33	-1.10578
6	0xbf70986f	-0.93982595
7	0xbdbc3578	-0.09189886
8	0x38515000	4.990399e-05
9	0x3e8bdc86	0.27316684
10	0x3f815d30	1.0106564
11	0xbe281815	-0.16415437
12	0xbde13f18	-0.10998362
13	0x3f98ab60	1.19273
14	0x4000c556	2.0120444
15	0x3f808751	1.0041295
16	0xbf0ba07e	-0.54541767
17	0x4014bef1	2.3241541
18	0x3fbd35f2	1.4782088
19	0xbea9e560	-0.33182812
20	0xbc892890	-0.016742975
21	0xbefbd140	-0.49183083
22	0xbd82e2ae	-0.06390892
23	0xbf6b1dbf	-0.91842264
24	0x3f8c727f	1.0972441
25	0xbf28f872	-0.660041
26	0x3f6fdb6d	0.9369419
27	0x3f91f6ea	1.1403477
28	0x3fba2b52	1.454447
29	0xbe87935a	-0.26479608
30	0xbdac18f4	-0.08403197
31	0xbea95d2b	-0.33078894
32	0x401b7e2e	2.4295764
33	0xbf906f8a	-1.1284039
34	0x3f939804	1.1530766
35	0x3fa32075	1.274428
36	0x3fb55eb2	1.4169524
37	0x3fc57780	1.5427094
38	0x3b5d7480	0.0033791363
39	0x3f89b6a0	1.0758858
40	0x3f7ee1a6	0.9956306
41	0xbf30c642	-0.6905252
42	0xbec5d2fc	-0.3863753
43	0xbc89d2a8	-0.016824082
44	0xbf3adf34	-0.7299683
45	0x3ea1b945	0.31586662
46	0xbcd3f2b4	-0.025872566
47	0xbc263ea2	-0.010146769

sequential/model/block_5_expand_BN/FusedBatchNormV3;StatefulPartitionedCall/sequential/model/block_5_expand_BN/FusedBatchNormV3 f4 [48]
0	0x3e2eb20f	0.17060111
1	0xbd2e4688	-0.042547733
2	0x3e2eb6d3	0.1706193
3	0x3ee18907	0.44049856
4	0x3e5789a8	0.21048605
5	0x3f248093	0.6425869
6	0x3f528a7a	0.8224255
7	0x3f4509d6	0.76968133
8	0x3f764340	0.96196365
9	0x3e87f1e5	0.26551738
10	0x3f56a368	0.8384309
11	0xbdc4deb2	-0.09612788
12	0x3e3abbb4	0.18235666
13	0x3f24ed64	0.6442473
14	0x3e6bb61e	0.23018691
15	0x3f1800dd	0.5937632
16	0xbc2a128f	-0.010380401
17	0xbbea546b	-0.0071511767
18	0xbe107e15	-0.14110596
19	0x3ed5c1a1	0.4174929
20	0x3f1bee23	0.6091024
21	0xbe8fe86d	-0.28107014
22	0xbd9020b6	-0.07037489
23	0x3f457f3d	0.77147275
24	0x3f717abe	0.94327915
25	0x3f2f9815	0.68591434
26	0xbe6fc04a	-0.23413196
27	0xbf0e331a	-0.55546725
28	0x3f65576c	0.8958652
29	0x3f2fc489	0.68659264
30	0x3f0c1663	0.5472166
31	0x3cb8dc97	0.022566123
32	0x3ee452eb	0.4459451
33	0x3f6694f9	0.90071064
34	0x3f3f2615	0.74667484
35	0x3e233d60	0.15941381
36	0x3f44b7ad	0.76842767
37	0x3f1b1977	0.6058573
38	0x3f3e6e38	0.7438693
39	0x3f6a3eff	0.91502374
40	0x3f096c69	0.53681046
41	0x3e6b14a3	0.22957091
42	0x3f08890a	0.53334105
43	0xbd56228c	-0.05227904
44	0x3f6e8b66	0.93181455
45	0x3ea777a6	0.32708472
46	0x3f6968e7	0.91175693
47	0xbe821d4f	-0.25412986
